config/MLModels/model.tflite (tflite, 66188 bytes, 10 tensors)

dense_4/bias f4 [7]
000000 d9 57 99 3f 16 29 94 bf 98 a9 ca 3e 4e 3c 7d bf
       1.1979934 -1.1575038 0.39582515 -0.9892014
000010 62 a2 e3 3e a8 7c 04 bf 03 62 66 bf
       0.44459826 -0.5175271 -0.89993304

dense_3/bias f4 [20]
000000 89 19 18 3e 3a 0f bb 3e 61 18 bb 3e 0e cd af 3e
       0.14853491 0.36535054 0.36542037 0.34336132
000010 7f 35 04 3f 9a e2 21 3f c1 3e fa 3e 94 69 12 3e
       0.5164413 0.6323639 0.48876002 0.14298087
000020 6f 55 8f 3e 9e f5 39 3e fc 3f e9 3d 3c 6c 3a 3e
       0.27994868 0.18160102 0.11389157 0.1820535
000030 b1 4c 8a 3e 22 d9 be 3e 26 f8 85 3e 96 7b f7 3e
       0.27011636 0.37275034 0.26165885 0.48336476
000040 bb 69 64 3e a6 43 13 3f 65 94 e9 3e cc e3 88 3e
       0.22305958 0.575251 0.4562103 0.26736295

dense_2/bias f4 [64]
000000 be f2 3b bf 92 16 87 3e e2 06 c3 bd f9 5a 5a bf
       -0.7341727 0.26384407 -0.09522797 -0.85295063
000010 39 83 ea 3d 12 78 c4 be da 95 a2 bf d5 a6 ff 3e
       0.1145081 -0.38372856 -1.2701981 0.4993197
000020 49 c9 6c bf 62 2c 70 be bf b0 1a 3d 3b 0a 2b 3d
       -0.92494637 -0.2345443 0.037766214 0.041757803
000030 d9 fd 54 3d d3 fd de 3d 1b c1 a8 bf c7 aa 44 3c
       0.0519999 0.10888257 -1.3183931 0.012003607
000040 2b 1e 90 bf 37 06 0c 3e ac 28 82 bf a8 73 05 3d
       -1.1259207 0.13674246 -1.0168662 0.032581
000050 c5 da 1e bf 11 65 d2 3d 80 e9 cb 3d ae 31 0e bd
       -0.62052566 0.10273183 0.09956646 -0.034715347
000060 2c db 42 bd cb c6 29 3e a8 f2 cb be 89 b4 b8 bf
       -0.0475723 0.1657974 -0.3983357 -1.4430095
000070 f2 2b 3c 3d 8f ed a0 bf 4b 09 db 3e 8c 97 94 bf
       0.045940347 -1.2572497 0.42780527 -1.1608748
000080 22 59 c4 be 33 d1 36 be c6 2c 81 3e a8 d7 da 3e
       -0.38349253 -0.1785324 0.25229472 0.42742658
000090 07 39 95 be 04 db 48 3e f7 6f 69 3c c9 1c fa bb
       -0.2914507 0.19614798 0.014247886 -0.007632826
0000a0 c1 c8 2a 3c 8c 44 02 bf b0 28 be 3d 0f 34 fe be
       0.01042384 -0.50885844 0.09285104 -0.49649093
0000b0 c6 cd 8e 3d 60 17 e8 3e 6a b9 69 bf 0b f3 22 bf
       0.06972842 0.45330334 -0.91298544 -0.63652104
0000c0 41 9e 53 3e 6a 0f 93 bf 1a 45 2f 3d a0 cd 14 bf
       0.20665838 -1.1489079 0.04279051 -0.5812626
0000d0 ab 19 45 bf 9f bd 56 3e de b0 ca 3c b7 ee 23 be
       -0.7699229 0.20970772 0.02474254 -0.16009031
0000e0 ec 57 f0 be 2a b9 d3 3e f9 f7 b9 bf ec 08 b8 bd
       -0.4694208 0.41352206 -1.45288 -0.08986077
0000f0 87 ed 57 bd 58 5e b6 3d d3 fc 4d 3c 6d c0 2f 3e
       -0.052716758 0.089047134 0.012572485 0.17163248

dense_1/bias f4 [90]
000000 25 90 72 bd b6 f4 35 bd 9d 04 5d bd a0 b0 7a 3f
       -0.0592195 -0.044422828 -0.053959478 0.9792576
000010 b4 9e fe bf 6e 5c 81 3d fb 96 2f 3f ad 80 a9 be
       -1.9892182 0.06316458 0.6858975 -0.33105984
000020 46 bb 9a 3f eb ee 5a bd 15 ac 06 bf db 72 01 bd
       1.2088401 -0.053450506 -0.52606326 -0.031603675
000030 49 98 4f bd 6c f5 a6 bf 00 00 00 00 bf 59 4e bd
       -0.05068234 -1.3043647 0.0 -0.050378557
000040 3c 1d bd bc c2 66 12 bd df 69 ec bc 0d fc cd be
       -0.02308523 -0.03574253 -0.028859077 -0.40231362
000050 e0 99 6d bd 82 e0 e9 3d ce 9e 51 bf 1c d9 a6 bd
       -0.058008075 0.114197746 -0.8188294 -0.08146879
000060 83 38 fd bc e8 da a4 3f f6 17 97 bc 50 c8 d3 3e
       -0.030910736 1.2879305 -0.018444043 0.41363764
000070 28 24 67 bd a7 e3 89 bd f0 d8 f5 be d2 67 07 3f
       -0.056430966 -0.06732874 -0.48017073 0.5289279
000080 b5 8f e8 bc df 9b 25 bd 29 1e ac bc 46 66 f0 bc
       -0.028388837 -0.040431853 -0.021010475 -0.029345643
000090 d1 1b 2e 3f fa 5d 98 bd 83 14 88 3f 50 4d 1f bd
       0.68011194 -0.074397996 1.063126 -0.03889209
0000a0 c7 f4 e8 bc bd fc da bd 0b 12 9c bb 03 84 53 3f
       -0.028437031 -0.10692737 -0.004762893 0.8262331
0000b0 9d 7c 10 3f 71 64 25 bd c7 14 99 3e ba 0a 48 3f
       0.56440145 -0.04037899 0.29898664 0.7814137
0000c0 9d c8 49 bd b3 4e 9f 3e 14 2f d9 3e 55 cf e4 bc
       -0.049263585 0.3111473 0.4241873 -0.027930895
0000d0 3d 83 52 bc 9b a6 be bd ab 01 b8 3f bb 51 41 bd
       -0.012848672 -0.09309121 1.4375509 -0.047197085
0000e0 55 2f 19 bd 97 e1 26 bf fe 09 e5 bc aa d4 ed bf
       -0.037398655 -0.6518797 -0.027958866 -1.8580525
0000f0 62 17 b0 3e 0a 66 1e bd dd 84 31 bf 17 b7 65 bd
       0.3439284 -0.03867153 -0.6934336 -0.05608281
000100 f9 e1 17 bf 27 9f f2 3f c5 2c 3e bd a3 5f 95 be
       -0.5932918 1.895482 -0.046429414 -0.29174528
000110 1b 1b f5 3d 16 5f c7 3d bd ee 38 3e 2b bf 5e bd
       0.119680606 0.09734933 0.18059821 -0.05438153
000120 8b 45 03 c0 80 4f f3 bc f6 25 21 bc 8f 50 1b bd
       -2.0511196 -0.029700994 -0.009835711 -0.037918624
000130 00 00 00 00 cd 89 02 bd 4d 64 35 bd 9f 2f 1d 3d
       0.0 -0.0318697 -0.044285107 0.038375493
000140 bc 51 e9 bc b2 7b a1 3a 22 07 19 c0 e6 22 04 bd
       -0.028481357 0.0012320189 -2.3910604 -0.032259844
000150 96 14 d1 3f 95 e7 c8 3f 4c fc 45 3e 8b e8 3d bf
       1.6334407 1.5695673 0.19334525 -0.7418296
000160 f7 bd 49 bd 0a e4 84 be
       -0.04925343 -0.2595523

dense/bias f4 [90]
000000 2f 05 04 40 00 00 00 00 00 00 00 00 00 00 00 00
       2.0628164 0.0 0.0 0.0
000010 23 ab 18 40 14 b2 42 c0 00 00 00 00 9f b0 d1 bf
       2.3854454 -3.042119 0.0 -1.6382025
000020 00 00 00 00 c8 4a a6 3f 94 7f 3f 3f 7a fe b7 3f
       0.0 1.2991571 0.74804044 1.4374535
000030 fb 92 df 3f 0a 55 cc 3e 00 00 00 00 18 40 02 40
       1.746673 0.3990863 0.0 2.035162
000040 62 a9 ca bf 63 4c 0e c0 67 9a fb bf df 26 0f bd
       -1.5832942 -2.2234123 -1.9656495 -0.03494918
000050 1b fe 68 3f 00 00 00 00 01 7a 61 3f 00 00 00 00
       0.91012734 0.0 0.8807679 0.0
000060 00 00 00 00 8e 1a 92 bf 00 00 00 00 00 00 00 00
       0.0 -1.1414354 0.0 0.0
000070 00 00 00 00 27 4c f7 3f 00 00 00 00 00 c0 0b c0
       0.0 1.9320115 0.0 -2.1835938
000080 4d ed 0a c0 00 00 00 00 00 00 00 00 00 00 00 00
       -2.1707337 0.0 0.0 0.0
000090 43 c6 97 bb ab 4a 67 3e 00 00 00 00 00 00 00 00
       -0.004631789 0.22587077 0.0 0.0
0000a0 fe 62 03 c0 23 39 91 3f 2f 73 ad bf 6a cd ed be
       -2.052917 1.1345562 -1.3550776 -0.4644578
0000b0 65 86 22 bf 00 00 00 00 00 00 00 00 00 00 00 00
       -0.6348632 0.0 0.0 0.0
0000c0 df 04 81 3e 54 71 f1 3f 00 00 00 00 00 00 00 00
       0.2519903 1.886271 0.0 0.0
0000d0 54 96 9f 3f 00 00 00 00 91 8b e6 3f 59 02 85 3f
       1.2467752 0.0 1.8011342 1.0391341
0000e0 11 c8 4d 3f a4 80 4e 3e 00 00 00 00 89 bc c2 bf
       0.803834 0.2016626 0.0 -1.5213786
0000f0 00 00 00 00 00 00 00 00 00 00 00 00 00 00 00 00
       0.0 0.0 0.0 0.0
000100 00 00 00 00 f3 a8 f4 be 8f 06 07 bc 00 00 00 00
       0.0 -0.47785148 -0.00824131 0.0
000110 50 f5 06 40 00 00 00 00 13 79 ac 3f 57 a9 11 bc
       2.1087227 0.0 1.3474449 -0.008890471
000120 00 00 00 00 00 00 00 00 00 00 00 00 70 e6 30 c0
       0.0 0.0 0.0 -2.7640648
000130 cf 0d f8 bf 00 00 00 00 44 67 08 c0 72 84 ea bf
       -1.9379214 0.0 -2.1313028 -1.8321669
000140 00 00 00 00 00 00 00 00 80 18 ce bf fd 9b e9 bf
       0.0 0.0 -1.6101227 -1.8250729
000150 95 07 b6 3f 0b 11 af 3a db a2 07 c0 23 65 b9 3f
       1.4221064 0.001335652 -2.119315 1.448399
000160 10 58 d2 3f cd 60 15 c0
       1.6433125 -2.3340333

sequential/dense/MatMul f4 [90, 4]
000000 7c 4c a3 3e cc bd c1 bd d9 08 20 be 91 2b 88 bd
       0.3189429 -0.09460029 -0.15628375 -0.06648935
000010 c8 0d 52 bd 4e f2 36 3e 3c ba 28 3e 3d 97 56 be
       -0.051282674 0.1786587 0.16477293 -0.2095613
000020 0c d3 12 3e a8 c5 3e 3d 90 4f 4d 3e 7c ee 1f bd
       0.1433832 0.04657522 0.20049882 -0.039045796
000030 c8 4d 70 3e 08 f9 0b 3d 7e ba 32 3e 6b a9 15 be
       0.23467171 0.03417304 0.17453954 -0.14615409
000040 95 0f 92 bd 0f ea 18 be c8 0b 9f 3e c8 e1 ce bd
       -0.07131878 -0.14933036 0.31063676 -0.10101658
000050 9b d0 fd bd 7a 6b 81 be 58 da e3 3d 5b 90 63 3e
       -0.12393304 -0.2527731 0.1112563 0.22223036
000060 dc 31 72 3e 38 5b 1d 3e 30 b5 a8 3d 84 9a ab 3d
       0.23651832 0.15366828 0.08237684 0.08379081
000070 f5 f7 81 be 4d b3 b1 3d 20 2a b2 3d 83 1f 88 3d
       -0.2538449 0.08676777 0.08699441 0.066466354
000080 64 85 cb bd c0 e1 24 3e ec ed 04 3e 4e 38 0b 3e
       -0.099375516 0.16101742 0.12981385 0.13595697
000090 d8 e0 75 bd a4 3d 69 be 0e f8 98 3e 14 3b 39 3c
       -0.06002888 -0.2277742 0.2987675 0.011305589
0000a0 59 84 a5 be 8b 2b ba 3e 5d 40 0b 3d bf 3e 15 bd
       -0.32327536 0.36361346 0.03399693 -0.036436792
0000b0 eb 4d 32 3e 58 61 61 be f1 5a bf bd 9c 87 08 3e
       0.17412536 -0.2200979 -0.093435176 0.13332981
0000c0 24 07 fa 3d f4 a5 f2 bd 44 3b 52 bb 8f 49 42 3c
       0.12208393 -0.11848059 -0.0032078782 0.011858358
0000d0 a0 cf 29 3e 89 1c 67 3e 87 cd 1e 3e b2 4a 02 bf
       0.16583109 0.22569479 0.1550809 -0.50895226
0000e0 c4 f9 57 3e 52 37 1e 3e 90 fc bb bd 88 95 cb bd
       0.21091372 0.1545079 -0.09179032 -0.0994063
0000f0 ae 5d 2f 3e 1b 2b 7c be b7 3f af 3d ae 9e ce bc
       0.1712558 -0.24625818 0.085570745 -0.025222149
000100 2f e8 a0 3d 7d a4 b9 3d 79 b1 34 be 2f 6e cd bc
       0.078567855 0.09064577 -0.17645825 -0.025076954
000110 63 95 26 3e 03 96 1f 3d e0 17 41 be e2 f8 a0 bd
       0.16267924 0.03896142 -0.18856764 -0.07859971
000120 35 f5 4b 3e 1b 25 a9 bd 9c 93 65 be 15 68 98 3d
       0.19917758 -0.082590304 -0.2241959 0.07441727
000130 db c1 e8 3d bc b3 4d 3e 8b e9 07 be 54 76 c9 bd
       0.113651 0.20088094 -0.13272683 -0.098370224
000140 10 68 4e be 5f 0e f6 bc 7e d2 a4 bd 74 28 ac 3e
       -0.20156884 -0.03003615 -0.08047961 0.33624613
000150 76 2d 53 3e 5c aa 5b 3e 50 98 c0 3c be ea 97 bd
       0.2062281 0.21451706 0.023510128 -0.074178204
000160 a7 3e 42 be 3d 0c 22 3c 0f ff d8 3e eb b8 60 be
       -0.18969212 0.009890613 0.42382094 -0.2194554
000170 2c 72 02 be 68 cc 51 3e cc fa 9a 3d 92 95 1e 3e
       -0.12738866 0.20488131 0.07567367 0.15486744
000180 b4 67 4e 3e 60 1d 1b bd 2c 68 00 3e 18 93 9e 3d
       0.20156747 -0.03786981 0.12539738 0.077429
000190 0a e0 92 bd ef 4a 81 3e 43 a7 12 3e ac fd bc be
       -0.07171638 0.25252482 0.14321618 -0.36912286
0001a0 7a 95 40 3e 2c bc 28 3e 98 ad 74 bd b0 be 97 bd
       0.18807021 0.16478032 -0.059735864 -0.07409418
0001b0 e0 2f 4d 3e 50 5f a3 3c 20 fb b1 bc 80 16 26 bc
       0.20037794 0.01994291 -0.021726191 -0.0101372
0001c0 b4 48 41 bd 20 70 b2 3d 9e 23 57 3e 04 bc 2f 3e
       -0.047188476 0.087127924 0.2100968 0.17161566
0001d0 5c 32 a0 3d 3f 6a 55 3d dd 1d 4c be 8b 1e 8d 3d
       0.07822105 0.052103277 -0.19933267 0.06890591
0001e0 a0 7a 3b 3d f2 65 71 3e bc cd 5f 3e 8c 8d a5 bd
       0.04577124 0.23574045 0.21855825 -0.080836385
0001f0 a7 36 76 bd 6c e1 2f be ef 06 4b 3d 8d 0a 16 3e
       -0.060110714 -0.17175835 0.04956716 0.14652462
000200 89 81 5d bd e8 8e 15 be 04 62 43 3e 3c 8e 8b bc
       -0.054078612 -0.14605296 0.19080359 -0.017035596
000210 80 ef 2c bb 8a d2 63 3e ac 5f 4d be a2 47 60 3e
       -0.002638787 0.22248283 -0.20056027 0.21902326
000220 3e 88 e1 bd 5a b1 62 3e 14 6d 56 3e 54 3b 76 3e
       -0.11012314 0.22137967 0.20940048 0.2404607
000230 64 7e 76 3e e2 b0 61 3e 62 2f bb bd 08 ac 15 3d
       0.24071652 0.22040132 -0.09139897 0.036541015
000240 67 37 0d 3e 7f eb 09 bd fe ff 24 be cf a1 06 3e
       0.13790666 -0.033671852 -0.16113278 0.13147663
000250 24 c4 9a 3e 53 57 d2 be 0d 70 10 3d 30 59 b5 3d
       0.30227768 -0.41082248 0.03526311 0.08854902
000260 fe 8f 01 3e 78 14 4b 3d 64 85 eb bd 0c 44 91 3d
       0.12652585 0.049580067 -0.115000516 0.07093057
000270 ae ba 10 3e ec 19 aa 3d be 45 57 3e 59 49 68 be
       0.14133713 0.083057255 0.21022698 -0.2268423
000280 42 a0 0f be e5 db 30 3e cc a6 1c be b0 10 61 3d
       -0.14025977 0.17271383 -0.15298003 0.054947555
000290 1b 5f 88 3e 15 4b 01 3e f7 b1 91 bd 1b 7d b0 be
       0.2663506 0.12626298 -0.07114022 -0.34470448
0002a0 33 7e 4f be fb cd 61 3e eb 8f d0 3d da e2 52 be
       -0.20262985 0.22051232 0.101837 -0.2059435
0002b0 fb 3f 8e bd b0 60 76 bd 89 fb f2 3d f6 e4 82 3d
       -0.06945797 -0.060150802 0.11864383 0.06391327
0002c0 d3 10 3f 3e 46 9d 2b bd 9d f0 b4 3d 7c e8 89 be
       0.18658762 -0.041898035 0.08834956 -0.26935184
0002d0 ca 9f 4e 3e 16 7d 52 be 26 a1 67 3e 6c 09 cd bd
       0.20178142 -0.20555529 0.22620067 -0.10011563
0002e0 06 8c 36 3e 98 1f 3e 3d c6 cf 73 3e ec ee 21 be
       0.17826852 0.04641685 0.23809728 -0.15813798
0002f0 60 30 16 bc c4 81 81 3d 60 52 b7 3d 04 28 e0 3d
       -0.009166807 0.06323579 0.08951259 0.109451324
000300 1f 9f ff bb 19 4d 00 bd 71 be 78 3b f5 c8 85 3d
       -0.007800951 -0.031323526 0.0037955309 0.0653247
000310 d5 3d 01 be 79 e4 38 bc ed 7e 25 3e a4 26 9b bc
       -0.12621243 -0.011284941 0.161617 -0.018939324
000320 00 7b 2a bc 94 b4 2f bd 0e 23 6f 3e c4 2a 55 3e
       -0.010405302 -0.042896822 0.23353216 0.20817095
000330 02 40 a7 bd 98 e9 45 3e c6 79 3d 3e 00 18 1e 3c
       -0.081665054 0.1932739 0.18503484 0.009649277
000340 d6 4e 80 be 97 f5 8b 3e b3 32 56 be a9 2d 16 3e
       -0.25060147 0.27335808 -0.20917778 0.14665855
000350 86 d3 28 3e 36 ff 0b 3e 40 a6 e5 bc 88 48 63 3e
       0.1648694 0.13671574 -0.028033376 0.22195637
000360 f7 28 1b be c4 9c c5 bd 26 ac 53 3e 33 c5 15 3d
       -0.15152346 -0.09649041 0.20671138 0.036565017
000370 83 5a 90 3d 60 65 a6 bd 19 e0 e7 bd 26 d2 59 3e
       0.07048514 -0.081248045 -0.1132204 0.21271572
000380 36 94 12 3e 9d 3e f7 bd 27 2e cf 3e 04 dc c3 be
       0.1431435 -0.120724894 0.404649 -0.38253796
000390 9e d8 7f 3e 69 63 5b be a0 8a 5a be a4 0b 66 3e
       0.24984977 -0.2142464 -0.21341944 0.22465378
0003a0 78 7f 26 3d 48 89 93 bd 50 09 d5 3c 66 ca 03 3e
       0.040648907 -0.07203919 0.026005417 0.12870178
0003b0 b4 59 48 3e bd fa 82 be 9a ac 01 3e b1 35 c1 bd
       0.19565469 -0.25581923 0.12663499 -0.09434069
0003c0 d0 bc dd 3c 80 14 89 bd 00 71 91 3c 62 0e 60 3e
       0.027067572 -0.06693363 0.017754078 0.21880487
0003d0 40 41 f8 3d 3c 34 8f 3d e0 6e 81 bd 48 a1 f5 3d
       0.121218204 0.06992385 -0.06319976 0.119936526
0003e0 2c 99 f3 3d 4e 6e 5b 3e 8a d6 79 3e 30 a2 71 3e
       0.118944496 0.21428797 0.24398246 0.23597026
0003f0 3e d2 52 be dd 39 81 3e 10 f4 db 3d ba 74 78 3e
       -0.20588014 0.2523946 0.107399106 0.24263278

sequential/dense_1/MatMul f4 [90, 90]
000000 42 1f 11 3d c0 db 4b bb 7c c6 65 bd dc 5d b7 3d
       0.0354302 -0.0031106323 -0.056097493 0.08953449
000010 03 ec 4e be d0 00 83 3d 3e aa d8 bd 12 c3 5a be
       -0.20207219 0.06396639 -0.10579346 -0.21363476
000020 68 e7 1f 3e f2 ca 18 3e e2 7a fe bd c3 d7 9b bd
       0.15615618 0.14921167 -0.12425782 -0.07609513
000030 e3 c7 07 be 3a 97 de bd a4 e7 cb 3d 18 8c 1c 3e
       -0.13259844 -0.10868688 0.09956291 0.15287817
000040 9e b2 33 be c8 6b 8f bd 4f f8 24 be 14 49 57 bd
       -0.17548606 -0.070029795 -0.16110347 -0.052559927
000050 bb 79 0d be 8a 6a 0b 3e 00 1a d5 bd c0 17 58 bd
       -0.13815968 0.1361486 -0.1040535 -0.052757025
000060 f0 97 5e 3c 09 21 69 3d 30 57 e4 bd 20 c4 06 bc
       0.013586029 0.05691627 -0.11149442 -0.008225471
000070 f8 80 20 be ac 18 37 3d 7c 03 77 3d 6e 15 56 be
       -0.15674198 0.044701263 0.060306057 -0.20906612
000080 35 d3 c7 3c 0a 27 07 3e 94 8d e0 3d c0 49 8a 3d
       0.024392704 0.13198486 0.10964504 0.06752348
000090 1c 58 32 be 60 21 90 bd 71 93 38 be 28 6a 6f bd
       -0.17416424 -0.07037616 -0.18024994 -0.058450848
0000a0 63 00 9b bd 12 2f 7b 3d ed 2f e6 3d d2 f7 01 bd
       -0.07568433 0.061324187 0.1123961 -0.03173048
0000b0 46 b5 4f be 8c 65 11 be 26 45 0f 3e 20 f2 21 3d
       -0.20283994 -0.14198893 0.13991222 0.03953755
0000c0 93 78 3e be fb 49 13 bd 2c 5c 0d bd 99 a5 38 be
       -0.18600683 -0.035959225 -0.03451173 -0.1803192
0000d0 f8 0d cb 3c f4 be 0e be 29 77 04 be c0 c2 c7 3c
       0.024786934 -0.1394003 -0.12936081 0.024384856
0000e0 88 fd c4 3c b9 87 0b be d0 c2 54 bd d0 1c 50 bc
       0.024046674 -0.13625993 -0.0519436 -0.012702182
0000f0 81 26 38 be 7e 1e 0d be 7e 09 30 be 50 2b 76 3c
       -0.17983438 -0.13781163 -0.17191121 0.015024975
000100 50 5b 32 3e 06 01 90 3d 0c 2f 21 3e 80 43 73 3d
       0.17417645 0.07031445 0.15740603 0.059390545
000110 f6 a8 05 3e d4 4d 1c bd 17 71 07 3e c8 44 e4 bc
       0.13052735 -0.03816016 0.13226734 -0.027864829
000120 a0 ef 51 3d 7e 30 8f bd 48 49 f3 bd f5 24 23 3d
       0.051253915 -0.06991671 -0.11879212 0.039830167
000130 e8 d9 0a be 58 27 03 3d 5b 01 32 bd f2 9d 0c be
       -0.13559687 0.032019943 -0.043458324 -0.13732126
000140 28 fa e1 3d 9c d3 1c bd 2a b7 97 bd e2 cc aa bd
       0.11034042 -0.038287744 -0.07407983 -0.083398595
000150 46 62 aa 3d 7d d6 49 be fc 4e 53 be 8c 15 48 be
       0.083195254 -0.19710727 -0.20635599 -0.1953947
000160 e0 bc c2 3d fe b2 d8 bd 6f 21 04 bb e4 f8 01 be
       0.09508681 -0.10581015 -0.002016153 -0.126926
000170 b0 53 76 bc 7c 89 ac 3d 4d b7 c0 bc 58 f6 0b be
       -0.015034601 0.084246606 -0.023524905 -0.13668191
000180 18 aa 5f 3d dc ea 00 be d0 cb 10 3d 84 2e 06 3e
       0.054605573 -0.12589592 0.03535062 0.13103682
000190 75 75 0a 3e 81 cb 56 3c f1 4e ea 3c 70 e4 c5 3d
       0.13521369 0.013110043 0.028602095 0.096627116
0001a0 8c f4 22 3e b7 79 6c bc cb 44 cb bc 24 58 2d 3d
       0.159136 -0.014433316 -0.024813076 0.042320386
0001b0 45 5c 18 bd a2 37 39 be be 30 11 be 88 d7 5a 3d
       -0.03719737 -0.18087628 -0.1417875 0.053428203
0001c0 b8 fa ea 3d 40 87 11 3b bc a6 8c 3d 4b 66 d1 3b
       0.11473602 0.002220586 0.068677396 0.006390368
0001d0 38 24 11 bd 8c 01 25 bd 68 aa d2 bd 38 8a 06 be
       -0.03543493 -0.04028468 -0.10286409 -0.13138664
0001e0 bc 15 b5 3d 0d 10 5f be 9c 8e 3c be f0 d9 47 3d
       0.08842036 -0.21783467 -0.18413776 0.048791826
0001f0 00 1f eb bb 40 31 3e 3d 98 a2 61 bd 9b 88 09 be
       -0.0071753263 0.046433687 -0.055086702 -0.13431017
000200 3c fa 07 3d 74 34 0d 3e 00 cd 55 bb 4c 36 e5 bd
       0.033197626 0.1378954 -0.003262341 -0.11191997
000210 6e 6c 10 3d 9e 1e 0b be f9 4a 5f be c0 ea 20 3c
       0.035259657 -0.13585898 -0.21805944 0.009821594
000220 5c 31 94 3d 60 2c f3 3b 52 b7 89 bd 43 b4 09 bd
       0.07235977 0.0074210614 -0.06724419 -0.033619177
000230 38 78 c3 bc 18 dd ec bc 32 7c fe 3d ca 71 11 be
       -0.023861036 -0.02891402 0.12426032 -0.14203563
000240 0a c3 4c bd 25 33 af bd e0 55 15 bd e0 54 1e be
       -0.04999069 -0.08554677 -0.03645885 -0.15462065
000250 a0 fd 35 bc a9 78 e2 3d fc 74 ab 3d 40 b2 ae 3b
       -0.011107832 0.1105817 0.083719224 0.0053313076
000260 68 d5 b1 bc f4 32 0a 3d 53 7c 23 be 32 74 8a bd
       -0.021708205 0.03374 -0.15965395 -0.06760444
000270 aa 89 2e 3e 48 8b 6b 3d cb 62 36 3d 66 2b 87 3d
       0.17044702 0.057505876 0.04452781 0.066000745
000280 ed 0b da 3d 35 ed 10 be 88 18 39 3d 70 f5 6f bc
       0.10646806 -0.14152987 0.04518941 -0.014645919
000290 00 f1 5a bd ea 1b 2e bb 75 33 5b be c4 7b fe 3d
       -0.05345249 -0.002656693 -0.21406348 0.1242595
0002a0 e4 89 46 be 58 a0 0b bd d4 3b 29 3e 90 be 50 bc
       -0.19388539 -0.034088463 0.16526729 -0.012740746
0002b0 2f 25 3a be 94 97 62 3d 0d 30 fc bd 54 b9 ea 3d
       -0.18178247 0.055320337 -0.123138525 0.1146113
0002c0 7b 65 d0 bd cb da ce 3d e6 7d 02 be cb 0e b7 bd
       -0.10175606 0.10100325 -0.12743339 -0.089383684
0002d0 56 84 be 3d e0 df b5 3c 70 2a 8b 3c 4c cf 0b bd
       0.09302585 0.022201478 0.01698801 -0.03413324
0002e0 56 8d a1 3c 8e 82 9d bd e4 c7 a0 3d ec b3 bd bd
       0.019720715 -0.07690917 0.07850626 -0.09262833
0002f0 a0 26 b3 bc 72 9c 4a 3d ec 43 83 3d 6e 3c a1 bd
       -0.021869004 0.049465604 0.064094394 -0.07872854
000300 39 e7 91 bd e2 b1 36 ba 10 a6 da bc 0e a1 14 bd
       -0.0712418 -0.00069692556 -0.026690513 -0.036286406
000310 00 ec 3d bd 4e 28 0a be 7c d7 fe 3d 88 a9 1b be
       -0.046367645 -0.13491938 0.12443444 -0.1520139
000320 26 81 51 bc f1 57 37 be b7 e7 af bc d9 eb a4 bd
       -0.012787139 -0.1790464 -0.021472795 -0.08052797
000330 36 93 fd bd 9d 6d 3e be 4a 91 f2 bd d6 2d 26 3e
       -0.12381594 -0.18596502 -0.11844118 0.16228423
000340 1a e6 b1 bd 08 4d eb 3d 8f 28 aa bd fe ef 44 be
       -0.086864665 0.11489302 -0.08308517 -0.19232175
000350 f4 a4 a3 bc 34 af 22 be 96 1f 09 be 80 ba da 3d
       -0.019976117 -0.15887147 -0.13390955 0.10680103
000360 45 26 44 3d 07 2f 33 3d 84 04 0f bd 36 53 24 3e
       0.04788806 0.04374602 -0.034916416 0.16047367
000370 66 ad e3 bd f6 be 16 be ef dc e1 3b ce 59 f2 3c
       -0.111170575 -0.14721283 0.0068927924 0.029583838
000380 5e 5c 27 be 78 f4 c5 bc 06 f6 0f be ec 52 18 3e
       -0.16343829 -0.024164423 -0.14058694 0.14875382
000390 f6 ad 14 be bf cf 9e bc 6a fd 34 3e 60 91 6b 3c
       -0.14519486 -0.01938617 0.17674795 0.014377922
0003a0 ba 01 d9 3d ea 0b 2d be 3f 48 e6 3d 8c 3c 5f bd
       0.105960324 -0.16899076 0.112442486 -0.0545011
0003b0 66 88 b4 3d 92 87 0f 3e 8c 84 c4 3d 82 79 c7 3b
       0.088150784 0.1401656 0.09595594 0.006087483
0003c0 eb 1c ea bd 38 ec 18 be f0 0a e3 bc 48 90 14 be
       -0.11431297 -0.1493386 -0.027715176 -0.14508164
0003d0 6c 86 6a bd 81 d4 79 bd 08 24 da bd 40 76 8b 3d
       -0.0572571 -0.060993675 -0.10651404 0.06809664
0003e0 a2 65 a7 bd 6a 75 0f be 6f c3 a1 3d 10 65 e4 3d
       -0.08173682 -0.14009634 0.07898604 0.11152089
0003f0 20 c2 96 3d b7 36 90 bd 74 b5 6e 3d 86 47 0a be
       0.07361245 -0.07041686 0.058278516 -0.13503847

sequential/dense_2/MatMul f4 [64, 90]
000000 67 db a9 3c 04 39 05 bd d2 50 6a 3d cd 81 45 be
       0.020734502 -0.032525077 0.057205983 -0.19287796
000010 78 5b 91 bf 1d 9b 8a bd 9c 41 42 bd 18 ad 8b bd
       -1.1356039 -0.06767867 -0.04742585 -0.068201244
000020 be 35 b2 3c 5f 1d 47 3e 12 4b 81 be 04 fd 6b bd
       0.021754142 0.19444798 -0.25252587 -0.05761434
000030 a1 50 90 bd 30 3c 85 bc 48 40 8f bd bd fa 0f 3e
       -0.07046629 -0.016264051 -0.069946826 0.14060493
000040 16 92 ec 3d 9e cc f9 bc 0e 68 13 be 35 25 35 bb
       0.11551301 -0.030493077 -0.14395162 -0.0027640585
000050 38 81 28 be f9 41 9a bd bd c2 b3 bf 61 9b 2b bd
       -0.16455543 -0.075321145 -1.4043804 -0.041896228
000060 00 24 88 3b 9a d4 1e c0 f4 80 23 3e 9b 6c 17 3c
       0.004154682 -2.4817262 0.1596716 0.009242202
000070 6b 02 ba 3b da 06 9a bd 80 87 bb bc 5f 77 58 bd
       0.005676558 -0.07520838 -0.02289176 -0.052848216
000080 6c 76 22 3e d1 c6 0f bd 03 3a 28 3e 88 1b 0f be
       0.15865487 -0.035101715 0.1642838 -0.13975346
000090 58 79 4d 3b 53 61 17 be 3e e1 5c bb 3a 15 29 be
       0.0031352844 -0.1478322 -0.003370359 -0.16512004
0000a0 00 ad 98 3c 4b 3a fc bc 24 d9 80 3d 21 8e 11 be
       0.01863718 -0.030789515 0.06291416 -0.14214374
0000b0 4f 57 35 bb d5 50 a2 bd 4b b9 bf bd 44 4b 1c c0
       -0.0027670448 -0.07925574 -0.09361514 -2.4420938
0000c0 ed 51 46 3c 32 64 ab bf 4a 9d b1 3a c9 a8 f1 bd
       0.012104494 -1.3389952 0.0013550904 -0.11799771
0000d0 40 bb b0 bd b4 4b 56 3c d6 c2 00 bf 77 a9 18 3c
       -0.08629465 0.0130795725 -0.50297296 0.009317747
0000e0 24 41 51 3f 9e 44 3e c0 1d 1c 53 be b7 f6 5f 3d
       0.8174002 -2.972938 -0.20616193 0.054678645
0000f0 22 b4 a5 3b 62 08 8e 3d 5f a1 4d bd 13 05 26 3e
       0.005056874 0.06935193 -0.050202724 0.16212873
000100 9a 70 dc 3e 09 50 b5 bc eb 28 98 3d cf d2 eb bd
       0.43054658 -0.02213289 0.074296795 -0.11514818
000110 fb eb 18 c0 8a 72 0c 3c fd dd 2c c0 1d fc ea 3d
       -2.389403 0.00857223 -2.701049 0.11473868
000120 d7 47 7e 3f 1e d6 3b bb ed 10 ec bd d8 da 3f bd
       0.9932837 -0.002866156 -0.11526666 -0.046839565
000130 78 3a d6 3c 24 a4 81 3d c1 e3 0f 3e 1a 55 5b bc
       0.026150927 0.063301355 0.14051725 -0.013386989
000140 cd 70 80 3b da d7 dc bd a5 a5 77 be 65 09 88 ba
       0.003919697 -0.10783358 -0.24184282 -0.0010378776
000150 53 76 78 be 39 ca e9 3f 23 09 87 3b 6b b0 a1 be
       -0.24263887 1.8264838 0.004120962 -0.3157991
000160 19 cb 1f be b5 51 66 bf 7f 9c d7 bd c7 09 14 3e
       -0.1560482 -0.89968425 -0.10527896 0.14456855
000170 18 0e d4 ba bd da 33 bf 52 a1 f9 bd bd 54 33 bf
       -0.0016178517 -0.70255643 -0.121889725 -0.70051175
000180 15 29 74 bf 84 66 c6 3b 60 f1 0b be 50 51 4b 3d
       -0.95375186 0.0060547013 -0.13666296 0.049638093
000190 ad dc b3 bf b0 29 06 bc 10 df 33 3c e1 f6 cb 3b
       -1.405172 -0.00818865 0.010978475 0.0062244986
0001a0 c8 ed d4 3c 35 af a1 3d 69 97 1a 3e d8 70 19 bd
       0.02599229 0.07894746 0.15096821 -0.03746113
0001b0 98 3f e8 3d ea dd 4b be dc 06 97 bd b8 f3 5e bf
       0.113402545 -0.19908872 -0.07374355 -0.87090635
0001c0 37 ca 8c bd b1 38 06 3d 79 a5 18 3e b2 62 b4 bf
       -0.06874507 0.03276891 0.14906873 -1.409262
0001d0 65 53 05 be 00 f6 98 bf 1d 08 2f 3e e8 e7 d8 bc
       -0.13020094 -1.1950073 0.17092939 -0.026477769
0001e0 35 d5 54 3d 0f 1b d7 bd b9 a3 0a be 0c 19 8f 3d
       0.051961143 -0.10503208 -0.13539018 0.06987199
0001f0 cb f9 30 3e db 98 1c 3e 98 13 85 bd 27 2b fa 3c
       0.17282788 0.15292685 -0.06497878 0.030538155
000200 21 dc 45 be e8 ba 2d 3d 58 52 92 bc d8 c9 38 3d
       -0.19322254 0.042414576 -0.01786153 0.04511437
000210 d2 85 24 3e cf 9f c9 be 79 79 c0 c0 20 08 84 3c
       0.16066673 -0.39379737 -6.014828 0.016117156
000220 91 3f df bf 95 0f b0 bc ea 2b 2a 3e 7f ab 2a bf
       -1.7441274 -0.021491805 0.16618314 -0.6666793
000230 84 7c 63 be a8 38 0f bd d1 86 44 be 94 6c 0d 3e
       -0.22215468 -0.03496614 -0.19192053 0.1381095
000240 5f ca 97 3f 68 36 1a bd 5f 17 55 3f 2d a9 88 3c
       1.1858634 -0.037649542 0.83238786 0.016682232
000250 ec cf 11 be 91 10 49 3e 4f e6 ac c0 74 14 81 bd
       -0.14239472 0.19635226 -5.403114 -0.06302729
000260 f4 c2 c7 3e fe 6c 9b 3d 05 86 c9 be 4e 88 6b c0
       0.39015925 0.07589148 -0.3936006 -3.6801944
000270 11 23 7c bd 20 51 46 3e 12 26 95 bb 77 58 ec bf
       -0.06155688 0.19366884 -0.0045516575 -1.8464497
000280 ae d0 e8 bb 7d c0 29 be b2 d1 35 3e 59 d0 4e bd
       -0.0071049547 -0.16577335 0.17755774 -0.050491665
000290 d8 51 df bc 52 fd f4 bc 0c ad 5a 3d 71 bf 02 3e
       -0.027260706 -0.029905949 0.053387687 0.12768342
0002a0 6b e7 cb 3d 39 a3 fb 3b 85 80 08 be 44 37 a9 be
       0.09956249 0.0076793698 -0.13330276 -0.33049977
0002b0 f6 c0 9c 3b a3 3f 17 3e db b4 a3 c0 67 2c ce bf
       0.004783745 0.14770369 -5.115827 -1.61073
0002c0 1a 67 df 3c 57 93 4b c0 5b e6 ad bd b8 0b d5 3f
       0.027270842 -3.180868 -0.084912024 1.6644201
0002d0 30 e3 03 3d 6f 0d 8f 3d 9d ef 41 be 5b 15 52 bf
       0.032199085 0.06984984 -0.18939061 -0.82063836
0002e0 7f b0 1d c0 d2 5b 34 bf a4 f8 45 bf ec 17 14 be
       -2.4638975 -0.70452607 -0.7733252 -0.1446225
0002f0 1e af 4c c0 9e 4f 03 3e 46 50 23 bf 26 b1 ee 3d
       -3.1981883 0.1282334 -0.6379436 0.11654882
000300 a5 d2 1e 3e 73 51 aa 3e 96 80 e2 3d 3a 1d f3 3d
       0.15510042 0.33265266 0.11059682 0.11870809
000310 9c 2e 1f be 43 cb 1d 3e fe 24 80 3d b4 02 37 3d
       -0.15545124 0.1540957 0.06257056 0.044680312
000320 66 26 24 be e4 1c 9d be 68 6e e4 bd 91 5f 02 be
       -0.16030273 -0.30686104 -0.11153871 -0.12731768
000330 7e 69 bc bd 7c 9c 5b bf f2 47 33 3e 83 19 d0 3c
       -0.091998085 -0.8578565 0.17507914 0.02540279
000340 87 e5 8a 3d 2b 93 03 3e c0 18 4d 3e ee 42 5e c0
       0.0678206 0.12849109 0.20028973 -3.472835
000350 d3 79 14 3d db d4 44 3e 18 43 b8 bc d7 10 bd bc
       0.036248993 0.19221823 -0.02249293 -0.023079319
000360 4e 18 03 3c 6c 48 25 be e7 04 b8 bf 16 5f eb 3d
       0.0080014 -0.16140908 -1.4376496 0.114927456
000370 0a 3b eb 3d c1 f7 5b 3e 98 e5 89 3c 66 65 ac 3e
       0.1148587 0.2148123 0.016833112 0.3367111
000380 1b a7 0c bf 64 8f 93 3d 8c c7 b0 be 9a 72 99 c0
       -0.5494248 0.07205084 -0.34527242 -4.7952394
000390 0f 8a ea bc a1 e1 94 bd e3 65 af 3c e1 82 13 be
       -0.028630285 -0.07269598 0.021410888 -0.14405395
0003a0 26 1f 16 3c 40 69 84 3d f5 61 05 c0 23 f4 a5 3d
       0.0091627 0.06465387 -2.0841038 0.08103206
0003b0 c2 df 09 c0 f4 40 9d bf 57 c7 9a 3d ef 41 84 bf
       -2.154282 -1.2285447 0.07557552 -1.0332621
0003c0 ae 45 b6 bf 5b 0e 09 3e e3 0c 65 bd 0f c7 a5 bd
       -1.4240015 0.13384382 -0.055920493 -0.08094608
0003d0 44 13 77 c0 7f 0b 40 3e 2b 60 9d bd 77 32 82 c0
       -3.8605509 0.18754385 -0.07684358 -4.0686603
0003e0 ed 91 25 be 18 ab 14 c0 2e 54 fc bd 5a 77 92 3d
       -0.16168948 -2.3229427 -0.123207435 0.07151671
0003f0 ec 67 15 c0 5a 3c bd 3d bd a5 2f 3e d0 f6 3e be
       -2.334468 0.09240027 0.17153068 -0.18648839

sequential/dense_3/MatMul f4 [20, 64]
000000 f2 a6 65 bd 8d 79 70 3e ea 59 a3 3f 50 08 56 3d
       -0.056067415 0.23483868 1.2761815 0.05225402
000010 a4 36 8e bd 66 05 e5 3e 13 6f c1 3f 19 a7 8f bc
       -0.069440156 0.4473068 1.5112022 -0.017535733
000020 cf e0 d6 bd 02 2e 44 3d 8e 21 46 be c2 c2 17 be
       -0.104920976 0.04789544 -0.19348738 -0.14820388
000030 20 42 54 be 0e 47 a7 bb 2d 0c 81 3d 8e e3 9b bd
       -0.2072835 -0.005104906 0.063011505 -0.07611762
000040 41 2b 07 3c 90 0b 08 3e 06 b7 b4 3e bc 3a 30 3f
       0.008250059 0.1328566 0.35295886 0.6883962
000050 71 e2 90 3d ed c9 d7 bb 50 3d 6a bb c5 d0 1e 3c
       0.0707444 -0.0065853507 -0.0035742112 0.009693329
000060 bc 39 71 3f 63 eb 15 bd d6 50 97 be 54 a5 55 40
       0.9422872 -0.036601435 -0.2955386 3.3382158
000070 f6 b2 8d 3c 63 5d ab bd bf 2d 80 bd 0a 9e f1 3d
       0.01729725 -0.083674215 -0.062587254 0.11797722
000080 83 1c 17 be a5 89 11 be f9 1e 8f bc 0e 1c a3 bd
       -0.1475697 -0.14212663 -0.017470824 -0.079643354
000090 d2 2a 26 3d 8a 7a 01 3d 3c c1 a0 bc 94 9e 1e bd
       0.04056818 0.031611003 -0.019623391 -0.03872545
0000a0 4a b1 d2 3e bb ee be 3e e3 f5 e7 bc 3e 07 ff 3f
       0.41150886 0.37291512 -0.02831549 1.9924085
0000b0 82 b4 e2 bd ba c3 09 3e 8c b4 b6 bd 84 02 34 3e
       -0.110695854 0.1345357 -0.08921155 0.17579085
0000c0 52 ac 5f 3e 4c 7c 59 40 fb 6c e0 3c d7 0b 5a 3f
       0.21843079 3.3982115 0.027395716 0.85174316
0000d0 e7 41 f3 3e 16 af 2b 3e 9c a4 70 3e 4a 06 73 3f
       0.47511217 0.16766009 0.23500293 0.9493147
0000e0 6e b1 68 be 6e b4 c1 3d cf 35 1b 3e 6f 04 c7 3b
       -0.22723934 0.09458242 0.15157245 0.0060735266
0000f0 c8 89 86 3e 76 6e 43 be 45 60 84 3d 54 ca 00 be
       0.26276994 -0.19085106 0.064636745 -0.12577182
000100 e7 39 fc 3f 63 6d 55 bd 5f f1 d7 bc 65 37 9d 3e
       1.970517 -0.052106272 -0.026360212 0.30706325
000110 1b 4a 51 3e c3 c8 60 bc 12 57 8d 3f 8f 02 34 bb
       0.20438425 -0.01371974 1.1042197 -0.0027467345
000120 22 34 a8 3e b2 aa 91 bd 27 06 9f 3e b3 ba 98 bd
       0.32852274 -0.07112636 0.3105938 -0.07457485
000130 40 ba 33 3e 62 2c ff 3d 37 26 e5 bd 10 e3 0a bd
       0.17551517 0.12459637 -0.111889295 -0.03390795
000140 52 86 54 be 20 87 7b 3b f5 2e 7a 3e 77 64 a2 3b
       -0.20754364 0.0038380101 0.24431975 0.004955824
000150 a4 2e 0e be 7e d2 11 3e 4c cc 78 bf b4 34 ad 3e
       -0.1388498 0.14240453 -0.9718673 0.33829272
000160 a2 32 12 bc 2f de 83 bd ba ab 07 bd 5d a6 11 3f
       -0.008923205 -0.064388625 -0.033122756 0.56894475
000170 f1 6f 66 bd c2 a3 fb 3d 21 b6 d9 bb 6e 50 d8 bf
       -0.0562591 0.12287094 -0.006644026 -1.6899545
000180 9a 82 e6 bb fd 0a aa bc c2 61 9e 3d 87 74 73 bd
       -0.007034612 -0.020757193 0.077334896 -0.0594373
000190 ca b5 17 c0 f9 b7 1d bd 5b 6f 04 c0 e7 2b ed 3e
       -2.3704705 -0.038505528 -2.0692966 0.46322557
0001a0 a0 e5 99 bc 72 2b e9 3d 23 45 85 3e 23 de 33 bd
       -0.018786252 0.1138524 0.2602931 -0.043913018
0001b0 17 9e 72 3f 82 94 03 3e df 5b 81 3f 4c 5a 08 be
       0.94772476 0.1284962 1.0106162 -0.13315696
0001c0 79 4d 91 bd 52 00 0c 3e d9 72 8a bd 00 ea 03 3c
       -0.07094855 0.13671997 -0.06760187 0.008051395
0001d0 1f ee 55 3d 2d cc 85 bd ad 25 a1 3d 0e b7 8a bc
       0.052229043 -0.06533084 0.07868514 -0.01693299
0001e0 35 27 6d 3e c0 65 84 bd c7 ba b9 3f d1 fa 9a 3d
       0.23159488 -0.0646472 1.4510125 0.07567371
0001f0 d8 2a 85 bc d2 ee e0 3e e2 12 a1 c0 8c 93 eb 3e
       -0.016255781 0.43932205 -5.033555 0.46011007
000200 09 51 cd bd 89 fb 00 3e 89 46 3a bc 4a 41 25 3f
       -0.10025222 0.12595953 -0.011369356 0.6455275
000210 5a 8e 1e bf c4 55 2d be 4b d2 da 3f 7e a8 76 bd
       -0.6193596 -0.16927248 1.7095426 -0.06021928
000220 67 17 3b 3f 49 2f 28 3b 4a e1 1f bf cb cb 04 bf
       0.73082584 0.002566295 -0.6245314 -0.51873463
000230 ff 97 9c 3e f1 a8 79 3c 37 8e 95 3e 9d af 18 bf
       0.30584714 0.015238033 0.29210064 -0.59642965
000240 bf 0e 0f c0 9e db 93 3d fc a7 e1 3e de 0d e8 3b
       -2.235275 0.07219623 0.44073474 0.007081731
000250 9b c1 1e be ab f2 e0 3c 94 62 8c 38 87 49 96 bf
       -0.15503542 0.027459463 6.694082e-05 -1.1741189
000260 e8 1a 6a 3b f0 92 80 bd 34 1f ac 3e f8 9d 33 3f
       0.0035721604 -0.06278026 0.33617556 0.70162916
000270 49 21 0f be 8c c3 20 c0 02 64 58 3d 7f 1e 2a be
       -0.13977541 -2.5119352 0.05282975 -0.16613196
000280 b1 43 3b c0 3b db 99 bf fe 82 50 3e 53 88 88 3d
       -2.9260066 -1.2020029 0.2036247 0.06666627
000290 86 22 ab be 84 03 be bd a7 52 c0 3b b1 d0 23 c0
       -0.33424777 -0.09278014 0.005869228 -2.5596125
0002a0 7f 31 db bd 3c 71 31 3f bd 91 49 3d 7b 61 06 3c
       -0.107028 0.69313407 0.049211252 0.008201952
0002b0 e6 01 0c 3d 9a 37 1a 3e e4 cb 9e bd 08 d9 f7 bc
       0.034181498 0.15060273 -0.07753733 -0.030254856
0002c0 90 50 d8 bd 7a e1 82 3e ad b4 6f 3e 17 c9 ec 3b
       -0.10562241 0.2556265 0.23408766 0.00722612
0002d0 0f e4 66 3e e6 ca 80 3d e0 9f 96 3d cf 03 06 bd
       0.22547935 0.062887 0.073547125 -0.032718476
0002e0 a1 e4 8b 3e c9 2e d5 3d 9a 1f 38 40 d9 99 e2 be
       0.27322868 0.10409314 2.8769288 -0.44258
0002f0 5a 2d e9 3c d6 27 fe be fe f9 88 bd 25 d2 8f 3e
       0.028464008 -0.49639767 -0.06688307 0.28090015
000300 d4 ae ca 3f 0e 83 2e bd 9d 93 f9 3c 1c 0a b4 3e
       1.5834603 -0.042605452 0.030465895 0.35163963
000310 52 57 48 3d 76 4b 89 bc 78 72 c6 3f 20 40 52 bd
       0.0489114 -0.016759615 1.5503683 -0.051330686
000320 3e 50 29 3f 4c f1 d3 bb ff 5c 94 3e 3b 8d 14 be
       0.66138065 -0.006467974 0.289772 -0.14507
000330 ad f9 0d 3e 4a 8d 64 3e 6f 26 e4 bd f7 87 7a bd
       0.13864775 0.22319523 -0.11140143 -0.061164822
000340 1c 1d 2e be 1c 22 78 3c 35 ff a8 3e 0c 6a b2 3b
       -0.17003292 0.015144851 0.33007208 0.0054447707
000350 97 56 5e be 12 30 07 3e 5c b8 78 bf 07 65 89 3e
       -0.21712719 0.13201931 -0.9715631 0.2683489
000360 32 3b 24 3c 45 46 26 3e e2 a4 5e 3c 58 65 21 40
       0.010023879 0.16237743 0.013589116 2.5218105
000370 e1 bc df 3d c8 1a 36 3c 67 42 ac bd a5 12 a5 be
       0.10924698 0.011114784 -0.08411103 -0.32240787
000380 1e fe 81 bb 9c 90 a7 bb a1 d6 41 bc 82 21 06 be
       -0.0039670607 -0.0051136743 -0.011830957 -0.1309872
000390 17 8a 4a 3d 5d c7 24 3e 85 bf 4c c0 43 d8 c0 3e
       0.0494481 0.16091676 -3.1991894 0.37664995
0003a0 f9 8b 93 bd c0 f2 7f bd e9 5f 80 3e b3 38 c1 bd
       -0.07204432 -0.062487364 0.25073174 -0.09434643
0003b0 3d 35 25 3f ce 39 7b 3d 3c 24 a3 3f 9e 31 29 bd
       0.6453436 0.061334424 1.2745433 -0.041307084
0003c0 e3 89 29 be 66 3f 53 3f 20 fa 54 bc 97 75 1e 3d
       -0.16556506 0.82518613 -0.012999088 0.03868636
0003d0 31 2a 37 bd 0d 6f 33 bd 53 79 0e bb 3c 32 d2 3c
       -0.04471797 -0.04380708 -0.0021739795 0.02565872
0003e0 83 08 cc 3e 02 e7 49 bf 6f b0 57 3f 7b 82 d6 bd
       0.39850244 -0.78868115 0.8425359 -0.10474106
0003f0 4a e9 8a 3c 22 d9 4f 3e d8 fe 01 c0 25 dc 89 3e
       0.016956944 0.20297673 -2.0311794 0.2692577

sequential/dense_4/MatMul f4 [7, 20]
000000 ab 29 9d bf 5c 27 57 3e 64 58 a4 bf 05 d4 b5 3e
       -1.2278341 0.21011108 -1.2839475 0.3551332
000010 3a 15 3a be 17 a9 ef bd d2 63 06 3f 4b 9e 7b 3e
       -0.1817216 -0.11702173 0.52496064 0.24572103
000020 bf 51 bc bf 65 4c 0e 3f c9 a6 b7 bf bf 03 f0 bd
       -1.4712447 0.5558532 -1.4347774 -0.117194645
000030 01 33 52 3e 63 90 e0 be aa 66 80 3e 59 16 d5 be
       0.20527269 -0.43860158 0.25078326 -0.41618612
000040 f9 3e 91 bf 2f 1c c7 3e 66 1b fc 3e cb 92 83 3e
       -1.1347343 0.3888869 0.49239653 0.25697932
000050 a7 5a 49 3e ca b0 06 3e 40 c6 72 3e 4c 81 93 3e
       0.19663487 0.13153377 0.23708439 0.28809583
000060 0f d6 ae 3e aa 74 d2 bd 24 4b ce 3e d5 14 a0 3d
       0.3414769 -0.10276158 0.40291703 0.078164734
000070 a1 15 0d 3e 03 ab d9 3d 3c ca 3b 3e 53 90 18 3e
       0.13777782 0.10628321 0.18338865 0.14898805
000080 b2 52 1e be 00 49 29 be 34 78 4a 3e 9f 0d da 3e
       -0.15461233 -0.16531754 0.19772416 0.42588517
000090 cb 97 41 3e 6b 76 d5 3e 65 97 03 be 66 c6 a0 be
       0.1890556 0.41691908 -0.12850721 -0.31401366
0000a0 fa 48 60 3e 27 dc 4b bf 8c d8 bc be f7 90 5a bf
       0.21902838 -0.796328 -0.36883962 -0.8537745
0000b0 64 b0 c4 3e 41 bc ae 3e 0d 6e 1e bf 98 5e 3c 3e
       0.38415825 0.34128 -0.61886674 0.1839546
0000c0 0e a6 38 3e af 91 f3 3e 64 d9 59 3e a2 98 e0 be
       0.18032095 0.47572085 0.21274334 -0.4386645
0000d0 92 5b 92 3e 53 88 11 3f f5 9a e5 be f1 f2 24 3f
       0.28585488 0.5684864 -0.44844785 0.644332
0000e0 c3 95 7c 3d 0c c2 e7 be 87 d6 5d be 40 9c 88 bd
       0.06166626 -0.45265234 -0.21663867 -0.06670427
0000f0 82 f4 0c 3e c5 73 47 bf 98 df 07 3f f8 78 52 bf
       0.13765147 -0.77911025 0.5307555 -0.82215834
000100 09 df 97 3e e2 97 8c 3e 63 c0 a7 3e ef 5d d6 3e
       0.2966235 0.27459627 0.32763967 0.4186854
000110 c9 cb 3b be 67 46 03 bf 33 cc ce 3d bf 05 0d 3e
       -0.18339457 -0.512793 0.10097542 0.13771723
000120 5d e9 86 3e 89 b6 08 3f 0a a2 7d bf 8e 6c 08 3f
       0.26349917 0.53403527 -0.99075377 0.5329064
000130 c7 78 96 3e c2 6c 66 bf 14 ed 2d 3f f3 5e b2 3e
       0.2938902 -0.900097 0.6793988 0.34838066
000140 24 f9 df bf 7e b3 41 3e 99 39 90 bf 7e be a7 3e
       -1.7497907 0.18916127 -1.1267577 0.32762522
000150 81 9e a0 bf 89 9e bf 3e 48 b5 ef 3e 63 80 33 bf
       -1.2548372 0.3742564 0.46817994 -0.7011778
000160 e5 6b 2c c0 01 9b 0f 3f 62 31 49 3d a7 43 b5 bf
       -2.6940854 0.5609589 0.04911936 -1.4161271
000170 21 7d e2 be 72 1c 7c bf a2 42 74 3e 65 e6 40 3f
       -0.4423609 -0.98480904 0.23853543 0.75351554
000180 1c d5 63 c0 9c 43 93 3e 7d 3c 84 be 8a 0d 77 be
       -3.5598822 0.2876252 -0.258274 -0.24126258
000190 a3 78 82 3e f3 f7 13 3e 0c 3d 13 3f 1e 39 91 3e
       0.25482664 0.14450054 0.57515025 0.2836389
0001a0 16 72 a0 be d1 a7 0f bf f2 90 0f be bb d0 d5 3e
       -0.3133704 -0.5611544 -0.14020136 0.4176081
0001b0 fb 2a 6c 3e 8a 5e 43 bf ba a8 6e 3e c2 45 4f 3e
       0.23063271 -0.7631613 0.23306552 0.20241454
0001c0 9c fd e2 be 6e 45 1e 3f 8a 22 55 3e 01 26 18 bf
       -0.44334114 0.6182469 0.20813957 -0.5943299
0001d0 1a 1f a0 3e 72 d7 60 be 93 78 54 bf 0d 82 b2 3e
       0.3127373 -0.21957186 -0.8299648 0.34864846
0001e0 e7 a1 8a 3e 36 47 90 bf 59 0d 98 bd 62 0d b6 3b
       0.27076647 -1.1271732 -0.07424421 0.0055557946
0001f0 b5 a2 df 3e 8f 61 ec be 89 74 ba bf 3c 15 18 bd
       0.43678823 -0.4616818 -1.4566814 -0.037129626
000200 cd 48 83 3e e6 95 db bf 6d 4b 79 3e 69 42 20 3e
       0.2564148 -1.715512 0.24345179 0.15650333
000210 f3 7c a4 3e 23 4d 7d be 14 6f 8e bf 7e 86 e0 be
       0.3212658 -0.24736457 -1.1127648 -0.4385261
000220 9a aa 9c 3e 49 6c af 3e e2 2f 12 c0 c0 6a 03 bf
       0.3059891 0.34262303 -2.2841725 -0.5133476
