config/MLModels/model.tflite (tflite, 67184 bytes, 10 tensors)

dense_4/bias f4 [6]
0	0x3e83ba6a	0.2572816
1	0xbe300f28	-0.17193282
2	0x3f450bc1	0.7697106
3	0x3f00ec09	0.5036016
4	0xbf83c675	-1.0294939
5	0xbf08f909	-0.53505

dense_3/bias f4 [20]
0	0x3ecc94ed	0.3995737
1	0x3e793dd1	0.24339987
2	0x3f31220d	0.6919258
3	0x3ce9662e	0.028491106
4	0x3e9be7f5	0.30450407
5	0x3eef4e1f	0.4673929
6	0x3f081742	0.5316049
7	0x3f25964f	0.6468248
8	0x3df074ed	0.11741052
9	0x3ee0012b	0.4375089
10	0x3e77cd60	0.24199438
11	0x3f209d39	0.627399
12	0x3ed687b9	0.41900423
13	0x3e9a829f	0.3017778
14	0x3ee9fa77	0.45698902
15	0x3ee558c6	0.4479429
16	0x3e9ab5a5	0.3021671
17	0x3e2def28	0.16985762
18	0x3ef3c7cb	0.47613367
19	0x3e7600e8	0.24023783

dense_2/bias f4 [64]
0	0x3ee5929f	0.44838426
1	0xbea4da1d	-0.32197657
2	0x3e7a3939	0.24435891
3	0xbce2baf7	-0.027677042
4	0x3eaeb26e	0.34120506
5	0x3e1a724c	0.15082663
6	0xbf0f5d41	-0.5600167
7	0xbeb6c0d2	-0.35693985
8	0x3b189904	0.0023284564
9	0xbdcb89e8	-0.09938413
10	0xbe9c850e	-0.30570263
11	0x3f2d0ac6	0.67594564
12	0xbd8a4686	-0.067517325
13	0x3e870b8e	0.26376003
14	0x3ec460d6	0.3835513
15	0x3ee15d7f	0.44016644
16	0x3ecc5957	0.3991191
17	0x3eb3a399	0.35085753
18	0x3ebb3087	0.3656046
19	0x3eb5f1aa	0.35535938
20	0xbf09e8ab	-0.5387065
21	0x3d425198	0.047441095
22	0xbce96810	-0.028492004
23	0xbd274544	-0.04083754
24	0xbd5f4e86	-0.054518245
25	0xbefebaa1	-0.49751762
26	0x3e81f215	0.25380006
27	0xbd09a2b7	-0.033602443
28	0xbeb154c6	-0.3463499
29	0xbeed9682	-0.4640389
30	0xbebec07a	-0.37256223
31	0xbc6d8378	-0.014496677
32	0xbee02ac6	-0.43782634
33	0x3b9061a1	0.0044061695
34	0x3d980764	0.07423285
35	0x3d7e2d5e	0.062054984
36	0xbc97f3a5	-0.018548796
37	0x3e8279b2	0.2548347
38	0xbf249ee9	-0.6430498
39	0x3d94f749	0.072737284
40	0x3e392a69	0.18082584
41	0xbc4ffabb	-0.012694056
42	0x3e2ed0b0	0.17071795
43	0xbc3a6231	-0.01137595
44	0xbc093d48	-0.008376427
45	0xba5a2040	-0.00083208457
46	0xbe43af00	-0.19109726
47	0xbf092b3c	-0.53581595
48	0xbf014973	-0.505027
49	0x3d2e2392	0.04251439
50	0xbf26f782	-0.65221417
51	0x3e89364f	0.26799247
52	0xbebdb2c4	-0.3705045
53	0x3c221dde	0.009894816
54	0x3ea09dc4	0.31370366
55	0x3ea9a72e	0.3313536
56	0x3f00820f	0.50198454
57	0x3cadbdd7	0.021208687
58	0x3e9558f4	0.29169428
59	0x3d55cab2	0.05219526
60	0xbeef7753	-0.46770725
61	0x3d56c115	0.05243023
62	0x3cfc38aa	0.030788738
63	0x3da5fdeb	0.08105072

dense_1/bias f4 [90]
0	0xbd6b9417	-0.057514276
1	0xbc76baae	-0.015059156
2	0xbd0d63bb	-0.03451894
3	0x3dca2ef5	0.098722376
4	0xbcd7293e	-0.026264783
5	0xbc897d1a	-0.016783286
6	0xbd192304	-0.03738691
7	0xbcfb9183	-0.030709034
8	0xbc819800	-0.01581955
9	0xbd068480	-0.032841206
10	0xbce3638c	-0.027757429
11	0xbcfdbf79	-0.03097509
12	0xbd81f6c9	-0.06345899
13	0x3da5be82	0.08092977
14	0xbc9d274d	-0.01918378
15	0x00000000	0.0
16	0xb940dfee	-0.00018393967
17	0xbd389d5f	-0.045071956
18	0x3d92107f	0.07132053
19	0xbcdce17e	-0.026962992
20	0x3d8dad7d	0.06917856
21	0xbc6bf5a3	-0.014401826
22	0xbc86d817	-0.016460462
23	0xbce3c7cb	-0.02780523
24	0xbcb01010	-0.021492034
25	0xbe164b4a	-0.14677158
26	0xbd3be426	-0.045871876
27	0x00000000	0.0
28	0x00000000	0.0
29	0xbd340582	-0.043950565
30	0xbd1e3a69	-0.038629923
31	0xbd4fed60	-0.050763488
32	0xbd0b4459	-0.03400073
33	0xbd1762f5	-0.036959607
34	0xbd3c807f	-0.04602098
35	0xbc11dbe6	-0.0089025255
36	0xbced95cd	-0.029002095
37	0xbce42bb9	-0.02785288
38	0x3cc2ab88	0.023763433
39	0xbc1db7d7	-0.00962635
40	0xbc98afc2	-0.018638495
41	0x3c9f8e7c	0.019477122
42	0xbad164eb	-0.001597551
43	0xbc91a18a	-0.017777223
44	0x3db125c2	0.0864978
45	0xbd687e3c	-0.05676101
46	0xbc5206bb	-0.0128189875
47	0x00000000	0.0
48	0xbd043a25	-0.032282013
49	0xbcf9e02f	-0.030502407
50	0x3b7eb07c	0.0038862517
51	0xbd1ea41c	-0.038730726
52	0xbd0c1d02	-0.03420735
53	0xbdcd3546	-0.10019927
54	0xbbef9514	-0.0073114727
55	0x3ce44a51	0.027867468
56	0x3db2c13d	0.087282635
57	0xbcbe7006	-0.023246776
58	0xbd33179e	-0.043723695
59	0xbd09357f	-0.033498283
60	0xbd40b8a9	-0.047051106
61	0xbd676638	-0.056493968
62	0xbd89c6b7	-0.06727355
63	0xbe0904a9	-0.13380684
64	0xbbde76b1	-0.0067890515
65	0xbcc4b58f	-0.024012355
66	0xbcd59577	-0.026072247
67	0xbd7cedb2	-0.06175012
68	0xbc55ff9c	-0.01306143
69	0xbc002436	-0.007821133
70	0xbdac9368	-0.08426553
71	0x3d1f4048	0.038879663
72	0xbda51c22	-0.080620065
73	0x00000000	0.0
74	0x00000000	0.0
75	0xba88009b	-0.0010376157
76	0xbcfb8e6d	-0.030707562
77	0xbcec95e1	-0.028880062
78	0x00000000	0.0
79	0x00000000	0.0
80	0xbcee7c33	-0.029111957
81	0xbd0fb3f8	-0.03508374
82	0xbcfcf742	-0.03087962
83	0xbcb063b6	-0.02153192
84	0x00000000	0.0
85	0xbd2ed4a8	-0.042683274
86	0xbc7545dc	-0.014970269
87	0xbce6fbe4	-0.028196283
88	0x00000000	0.0
89	0xbcf396f8	-0.029735073

dense/bias f4 [90]
0	0x00000000	0.0
1	0xbda9a273	-0.08282938
2	0x00000000	0.0
3	0xbe3090b6	-0.17242703
4	0xbdcc9031	-0.0998844
5	0x3d8d6a9a	0.06905098
6	0xbe4fdf66	-0.20300063
7	0x00000000	0.0
8	0x00000000	0.0
9	0x00000000	0.0
10	0x00000000	0.0
11	0xbbeee70a	-0.0072907256
12	0xbda197f5	-0.07890312
13	0x00000000	0.0
14	0x00000000	0.0
15	0x00000000	0.0
16	0x3dbf48d1	0.093400605
17	0x00000000	0.0
18	0x00000000	0.0
19	0xbe1d7e05	-0.15380104
20	0xbd9a38de	-0.07530378
21	0x00000000	0.0
22	0xbdf68a70	-0.120381236
23	0xbbf0f159	-0.0073529896
24	0xbd036de8	-0.032087237
25	0x00000000	0.0
26	0x00000000	0.0
27	0x00000000	0.0
28	0x00000000	0.0
29	0x3dd12b8e	0.102133855
30	0xbc10a811	-0.008829133
31	0x3d8e96b4	0.06962338
32	0x00000000	0.0
33	0x00000000	0.0
34	0xbdd28dfd	-0.10280988
35	0x00000000	0.0
36	0x3db3ca51	0.08778823
37	0xbe274b3d	-0.16337295
38	0x3dc5b6d2	0.09654011
39	0x3d195f0e	0.037444167
40	0x3c6d5d0e	0.014487518
41	0xbc1b4bd8	-0.009478532
42	0x00000000	0.0
43	0xbe13a870	-0.14419723
44	0x00000000	0.0
45	0x00000000	0.0
46	0x00000000	0.0
47	0xbd3cc10c	-0.04608254
48	0xbbb931cb	-0.0056516877
49	0x3de7058c	0.11280355
50	0x00000000	0.0
51	0xbd96108a	-0.07327373
52	0x00000000	0.0
53	0x3a6af587	0.0008962978
54	0x00000000	0.0
55	0xbd3647e1	-0.044502143
56	0xbd7ca92f	-0.061684784
57	0x00000000	0.0
58	0x00000000	0.0
59	0xbc81caf4	-0.015843846
60	0xbe0ca273	-0.13733844
61	0xbd8392ab	-0.06424459
62	0x00000000	0.0
63	0x00000000	0.0
64	0x00000000	0.0
65	0x00000000	0.0
66	0xbd6ea1db	-0.058259826
67	0xbbcd2ca8	-0.006261427
68	0x00000000	0.0
69	0x3c727507	0.014798409
70	0x00000000	0.0
71	0x00000000	0.0
72	0x00000000	0.0
73	0x00000000	0.0
74	0xbe2852a3	-0.16437773
75	0x00000000	0.0
76	0x3d21af4a	0.03947381
77	0xbe271bba	-0.1631917
78	0x3db5c026	0.0887454
79	0xbbb3a3b2	-0.0054821605
80	0xbccc9445	-0.024973044
81	0xbc076ef0	-0.008266196
82	0x00000000	0.0
83	0xbdf92bb4	-0.12166539
84	0x00000000	0.0
85	0xbc9b52d1	-0.018960388
86	0x00000000	0.0
87	0xbc1bc150	-0.0095065385
88	0x3dac5fc1	0.08416701
89	0x3d800f7c	0.062529534

sequential/dense/MatMul f4 [90, 7]
0	0xbd97f29e	-0.074193224
1	0x3e38b593	0.18038015
2	0x3e043d1b	0.12913935
3	0x3cdffaa8	0.027341202
4	0x3e4981f1	0.19678475
5	0xbcab6f20	-0.020927012
6	0xbdf8a290	-0.12140381
7	0xbdbd2e4e	-0.092373475
8	0x3ce73c2a	0.02822693
9	0x3d9cfbba	0.076652005
10	0x3e61dcfc	0.22056955
11	0xbde85b0a	-0.11345489
12	0xbd3efb26	-0.046626233
13	0xbe137456	-0.14399847
14	0xbe02a0c8	-0.12756646
15	0x3d2d9b5c	0.04238449
16	0x3e292b3f	0.16520403
17	0x3e6eefdd	0.23333688
18	0x3dab1bda	0.08354922
19	0xbdd0ee2e	-0.10201679
20	0xbe065fcc	-0.13122481
21	0xbdda9438	-0.10672802
22	0x3d8c7148	0.06857544
23	0x3db77059	0.089569755
24	0xbd6ad726	-0.057334088
25	0xbcbcbfc5	-0.023040662
26	0xbc90e5b6	-0.01768766
27	0xbd13f778	-0.036124676
28	0xbdd08c3f	-0.10183
29	0x3d4c4704	0.049872413
30	0x3e0aa5d9	0.13539828
31	0x3e970bb6	0.29501122
32	0xbe7ccef4	-0.24688321
33	0xbe7f580e	-0.24935934
34	0x3d8705dc	0.065929145
35	0xbe1f51ea	-0.15558591
36	0xbe19ba6f	-0.15012525
37	0x3b0d0e31	0.0021523351
38	0x3e700469	0.23439182
39	0x3c622a89	0.0138040865
40	0x3e33e6bf	0.17568491
41	0xbe341a95	-0.17588265
42	0x3e031336	0.12800297
43	0xbde2a99f	-0.11067509
44	0xbe0b7f8e	-0.13622877
45	0x3de472db	0.111547194
46	0x3e1e536b	0.15461509
47	0xbdd971c9	-0.10617406
48	0xbdfc16f6	-0.12309067
49	0x3e006937	0.12540136
50	0x3e2d844f	0.16945003
51	0xbe6f4cf2	-0.23369196
52	0xbd118100	-0.035523415
53	0x3da42fee	0.08016954
54	0x3dbf1b5a	0.09331389
55	0x3e6e9fdd	0.2330317
56	0xbc13bb10	-0.009016767
57	0x3e025201	0.12726595
58	0x3d16e304	0.036837593
59	0x3d36f76c	0.044669554
60	0x3e14dd9b	0.14537661
61	0xbe60d449	-0.2195598
62	0xbca5ea98	-0.020253465
63	0x38dc7800	0.00010512769
64	0x3e4f0b3b	0.20219128
65	0xbdd8d188	-0.1058684
66	0x3d6a5c74	0.057217076
67	0xbe0ca561	-0.13734962
68	0x3d1e0b84	0.0385852
69	0x3d072c0c	0.03300099
70	0x3e7096a7	0.2349497
71	0x3c708e50	0.014682367
72	0xbdcdb438	-0.100441396
73	0xbce2f808	-0.027706161
74	0x3e1f74b1	0.15571858
75	0xbd8978de	-0.06712507
76	0x3da4c7e6	0.0804594
77	0xbe1462c2	-0.14490798
78	0x3e740cfd	0.2383308
79	0x3c42f56a	0.011899332
80	0x3dc5a557	0.09650677
81	0xbd204526	-0.039128445
82	0x3ca1840f	0.01971629
83	0xbd9c25f9	-0.0762443
84	0xbd44d66a	-0.048056044
85	0x3e3a644a	0.1820232
86	0xbe5a1cfc	-0.21300119
87	0x3cb366c7	0.021899594
88	0xbe22ad59	-0.1588644
89	0xbce7cf9f	-0.028297244
90	0x3e6c4eb3	0.23076896
91	0x3e4e9cbb	0.20176975
92	0x3d5cf2ac	0.053942367
93	0x3da17086	0.0788279
94	0xbe22f0b7	-0.15912138
95	0x3e7dff27	0.24804364
96	0xbd2a481c	-0.041572675
97	0x3d10ba84	0.035334125
98	0x3c573f70	0.013137683
99	0x3da096ae	0.0784124
100	0xbd898b26	-0.067159936
101	0x3e1ada61	0.15122367
102	0xbe2031a6	-0.1564394
103	0x3ca00aa8	0.019536331
104	0x3e470371	0.19434907
105	0xbe6ae13f	-0.22937487
106	0x3d415b4c	0.047206208
107	0xbc4c05f0	-0.0124525875
108	0x3e25e79d	0.16201635
109	0x3e791395	0.24323876
110	0x3d0eef8c	0.03489642
111	0xbdb9ddb2	-0.09075488
112	0x3dd2d11e	0.10293792
113	0x3df230cc	0.118257135
114	0xbc31dcbb	-0.010855849
115	0xbe4e38ef	-0.20138906
116	0xbe481b8b	-0.19541757
117	0x3e8ffa1e	0.28120512
118	0xbe826d41	-0.2547398
119	0x3e1c7de3	0.15282397
120	0x3d591304	0.05299665
121	0xbda0875c	-0.07838318
122	0x3e3d3df5	0.18480666
123	0xbc6a9390	-0.014317408
124	0xbd6c4190	-0.057679713
125	0x3e639ebf	0.22228526
126	0xbd8aeaa2	-0.06783034
127	0x3e1d0029	0.15332092
128	0x3e76b56b	0.24092643
129	0x3e1af871	0.15133835
130	0x3d2d624c	0.04233007
131	0x3e418c8b	0.18901269
132	0xbe72754b	-0.23677556
133	0x3e501640	0.20320988
134	0xbdc490e8	-0.09597951
135	0xbd934416	-0.07190721
136	0xbe0df7ff	-0.13864134
137	0x3e11bbbc	0.14231771
138	0xbdf10d95	-0.11770169
139	0xbb0adc74	-0.002118853
140	0x3c30b876	0.010786166
141	0xbe13c0ba	-0.14428988
142	0xbda827d3	-0.08210721
143	0x3e5bdf09	0.214718
144	0x3d1283ad	0.035770107
145	0xbde08c26	-0.10964231
146	0x3d336857	0.043800678
147	0x3c88e0b8	0.016708717
148	0xbe12e5b8	-0.14345443
149	0x3e0e4b97	0.13896023
150	0x3de67f16	0.112547085
151	0xbe475d3a	-0.19469157
152	0x3e1733b7	0.14765821
153	0x3df61556	0.12015788
154	0xbd063e25	-0.03277411
155	0xbdd8cba3	-0.105857156
156	0xbe2d9de3	-0.1695476
157	0x3e115296	0.1419166
158	0xbd12a390	-0.035800517
159	0xbe16e371	-0.147352
160	0x3eaef203	0.34169015
161	0x3e728c88	0.23686421
162	0x3df9f324	0.122045785
163	0xbe3508ab	-0.17679088
164	0xbab901e8	-0.0014114948
165	0xbe46600b	-0.19372575
166	0x3e0154e1	0.12630035
167	0xbe48b684	-0.19600874
168	0xbdbecf52	-0.09316887
169	0x3e165ea3	0.14684539
170	0x3dd6574b	0.104658686
171	0x3e1fb98b	0.15598123
172	0xbeaf9884	-0.34296048
173	0xbe6aa135	-0.22913058
174	0x3e4ba020	0.19885302
175	0x3e751ba9	0.23936333
176	0xbacfe180	-0.0015860051
177	0xbe5e14d4	-0.21687633
178	0xbd319248	-0.043352395
179	0x3e26c863	0.16287379
180	0x3df4e19e	0.119570956
181	0x3d3a70dc	0.045517787
182	0x3e78a29b	0.24280779
183	0xbe51906a	-0.20465246
184	0xbe6a102d	-0.22857733
185	0x3e18ed37	0.1493424
186	0xbddfd946	-0.109301135
187	0x3e3c7155	0.18402608
188	0x3e0332b9	0.12812318
189	0xbdeeb168	-0.11654931
190	0xbddc0664	-0.107434064
191	0x3e22125f	0.1582732
192	0x3e269ffd	0.16271968
193	0x3e418a4d	0.18900414
194	0xbe516ab0	-0.20450854
195	0x3e5d4a95	0.21610482
196	0x3de6352a	0.11240609
197	0xbc34d740	-0.011037648
198	0xbdad0eaa	-0.084500626
199	0x3ded26ee	0.11579691
200	0xbce6e158	-0.028183624
201	0x3caec178	0.021332487
202	0x3e2a958d	0.16658612
203	0xbe2ad0eb	-0.16681258
204	0xbe138228	-0.1440512
205	0x3e84e48b	0.25955614
206	0x3e402283	0.18763165
207	0xbe47a24d	-0.19495507
208	0x3d43c9c9	0.04779986
209	0xbdbe3bda	-0.092887595
210	0x3defeb25	0.11714772
211	0xbd3a5919	-0.045495126
212	0x3b709ac4	0.0036713341
213	0x3dbc4134	0.09192124
214	0xbe3859f9	-0.18003072
215	0x3d179305	0.037005443
216	0x3d913de2	0.07091881
217	0xbe4d2799	-0.20034637
218	0xbe0d2019	-0.13781776
219	0x3ce60579	0.028078781
220	0xbc9b23fc	-0.018938057
221	0xbe81fcad	-0.2538809
222	0x3e47cded	0.19512148
223	0x3eb44c79	0.35214594
224	0x3c89ee98	0.016837403
225	0x3e1f2c51	0.15544249
226	0xbe295438	-0.16536033
227	0x3dc57cce	0.09642945
228	0x3e754e05	0.23955543
229	0xbe52388e	-0.20529386
230	0x3e3fccf1	0.18730523
231	0x3d05ea6c	0.032694265
232	0x3e5995f7	0.21248613
233	0x3d8579de	0.06517385
234	0x3bb9a820	0.005665794
235	0xbc25b7e0	-0.01011464
236	0x3dd78fca	0.105254725
237	0x3e003e37	0.12523733
238	0xbe1c3057	-0.15252815
239	0x3df81d64	0.12114981
240	0x3d305dd9	0.04305825
241	0xbe68032e	-0.22657463
242	0x3c7e2531	0.015511797
243	0xbe66b6a2	-0.22530606
244	0x3e8f724c	0.2801689
245	0xbe7ce90c	-0.24698275
246	0xbbe9e760	-0.0071381778
247	0x3ce89138	0.028389558
248	0x3e6dd87d	0.23227115
249	0x3e5be90b	0.21475618
250	0xbdb5c40e	-0.08875285
251	0x3b60f0c0	0.0034323186
252	0x3e2a5b64	0.16636425
253	0xbe32cac9	-0.17460169
254	0x3dbbdd7a	0.09173103
255	0xbdeb9f4f	-0.11504995

sequential/dense_1/MatMul f4 [90, 90]
0	0xbe0c9a94	-0.13730842
1	0xbdedcd3c	-0.11611411
2	0xbd5b3294	-0.053515032
3	0xbd44160c	-0.047872588
4	0xbe4c7a04	-0.1996842
5	0x3d9c4b50	0.07631552
6	0xbdb67360	-0.08908725
7	0xbdd03890	-0.101670384
8	0xbe1d44d6	-0.1535829
9	0xbe37eb99	-0.17960967
10	0xbe1c096b	-0.15237968
11	0x3d9aa085	0.07550148
12	0x3cacdfc3	0.021102792
13	0x3e06b174	0.1315363
14	0xbe09fc94	-0.13475257
15	0x3e1b06b0	0.1513927
16	0xbe60bd19	-0.21947135
17	0xbdbbb243	-0.0916486
18	0x3b0f0400	0.0021822453
19	0xbe51b261	-0.20478202
20	0xbbe197e6	-0.006884563
21	0xbd73617e	-0.059419148
22	0xbe25987d	-0.16171451
23	0xbcb96734	-0.022632219
24	0xbcb303e9	-0.02185245
25	0xbc830470	-0.015993327
26	0xbda840db	-0.08215495
27	0xbdf0dfd0	-0.11761439
28	0xbdf0f230	-0.117649436
29	0x3dd98927	0.10621863
30	0x3e314ad0	0.17313695
31	0x3d74bd85	0.059751052
32	0xbe26cd66	-0.16289291
33	0xbd019a4c	-0.03164129
34	0x3e0928f1	0.13394524
35	0x3da973ac	0.08274016
36	0xbe44eab6	-0.1923016
37	0xbe093052	-0.13397339
38	0xbe08015e	-0.13281772
39	0x3e0ad0a7	0.13556157
40	0xbe53f775	-0.20699866
41	0x3dd1fea2	0.102536455
42	0xbde485db	-0.111583434
43	0x3dba4c0b	0.09096535
44	0x3dd4bc64	0.10387495
45	0x3e2ce656	0.16884741
46	0x3c2f2170	0.010689124
47	0xbd941ecd	-0.07232437
48	0x3de5900e	0.11209117
49	0x3d05de9d	0.032683004
50	0x3e23a3c6	0.15980443
51	0x3d4564be	0.04819178
52	0xbd6f390a	-0.058404006
53	0xbe208f89	-0.15679754
54	0x3cedb740	0.029018044
55	0x3e04f4e2	0.1298404
56	0xbe23a93e	-0.1598253
57	0xbdb9df9a	-0.09075852
58	0x3de6b1dc	0.11264393
59	0xbde83662	-0.11338498
60	0x3cc2f9ee	0.023800816
61	0x3d9abf46	0.07556014
62	0x3d1fb744	0.038993135
63	0x3df8bfa8	0.121459305
64	0x3daa0310	0.083013654
65	0xbe10c32c	-0.14136952
66	0xbe347063	-0.17620997
67	0x3d3d3537	0.046193328
68	0x3d953fec	0.07287583
69	0xbb4ef91a	-0.0031581582
70	0x3d80ccc2	0.062890545
71	0xbdb23826	-0.08702116
72	0xbe1352c8	-0.14387047
73	0x3c94d308	0.018167034
74	0x3d3692e5	0.044573683
75	0x3e17ce0c	0.14824694
76	0xbe318525	-0.17335947
77	0xbd6cc7c0	-0.057807684
78	0xbc6c6dd7	-0.014430485
79	0xbd879188	-0.06619555
80	0xbcca81be	-0.024720069
81	0xbd76f9aa	-0.060296692
82	0xbd78d962	-0.060754187
83	0xbe492324	-0.19642311
84	0x3d4652c8	0.04841879
85	0xbe27d7a6	-0.16390857
86	0x3d68be14	0.056821898
87	0x3d9d8776	0.07691853
88	0x3e1b2691	0.1515143
89	0xbdf7f5cc	-0.12107429
90	0xbd13552c	-0.035969898
91	0x3d6cd372	0.057818837
92	0x3dc801d0	0.09765971
93	0xbd95115d	-0.072787024
94	0xbd22240f	-0.03958517
95	0xbcd61890	-0.02613476
96	0xbde50c68	-0.11184007
97	0xbd97218c	-0.073794454
98	0x3d9e2588	0.07722002
99	0x3de81344	0.113317996
100	0xbdbdb811	-0.092636235
101	0xbd839900	-0.06425667
102	0x3b0cebe1	0.00215029
103	0x3e114d86	0.14189729
104	0xbdacd9d8	-0.08439988
105	0xbbf5a1e0	-0.0074961036
106	0x3b5b8621	0.0033496695
107	0xbd87ba6c	-0.06627354
108	0x3de46bfc	0.11153409
109	0xbe1ad2db	-0.15119497
110	0xbe31ccc5	-0.1736327
111	0x3e0a3a84	0.13498884
112	0x3e09ad47	0.13445006
113	0x3e15c9de	0.14627787
114	0xbb46d67a	-0.003034024
115	0x3c06e840	0.008234084
116	0x3ddd43c8	0.10803944
117	0xbd26b438	-0.040699214
118	0x3d251eb8	0.0403125
119	0x3dd94b5c	0.10610077
120	0x3d331707	0.043723132
121	0x3e24b50d	0.1608469
122	0xbdc8ceba	-0.09805055
123	0x3cf108c8	0.029423133
124	0x3cba3031	0.022728058
125	0xbe1f5431	-0.1555946
126	0x3dcd0fe8	0.100127995
127	0xbda6a53c	-0.08136985
128	0x3ccb22f2	0.024796937
129	0x3e0d684a	0.13809314
130	0xbdf9ae06	-0.121913955
131	0xbdd73908	-0.10508925
132	0x3e1700ac	0.1474635
133	0xbe1b7839	-0.1518258
134	0x3d3ff290	0.046862185
135	0x3d763600	0.060110092
136	0x3d74c18c	0.059754893
137	0xbcf9eb7e	-0.0305078
138	0xbebaa5ac	-0.36454523
139	0x3da13ec6	0.07873301
140	0xbd140f5c	-0.03614746
141	0x3e198b46	0.14994535
142	0xbdf54046	-0.1197515
143	0xbdb53b0c	-0.08849153
144	0xbd879be9	-0.066215344
145	0x3e101dcf	0.14073871
146	0xbe28d070	-0.16485763
147	0xbdbeacda	-0.093103126
148	0xbda89d3d	-0.08233116
149	0x3d364bfb	0.044506054
150	0x3c828426	0.015932154
151	0x3e3aade8	0.18230402
152	0x3c2b6260	0.010460466
153	0xbccf5d60	-0.02531308
154	0x3d30da4c	0.043176934
155	0xbdd6e9cb	-0.10493811
156	0xbd7e3b6b	-0.062068384
157	0xbd93846a	-0.0720299
158	0xbd6f611e	-0.058442228
159	0xbda8a9b9	-0.08235497
160	0x3dbef1a8	0.09323436
161	0xbdad7127	-0.08468848
162	0xbd831860	-0.064011335
163	0xbdff1465	-0.12455062
164	0xbeae7408	-0.340729
165	0x3cf03558	0.029322311
166	0xbe4ce8f0	-0.20010734
167	0xbdf3309c	-0.11874506
168	0x3da8a52c	0.08234629
169	0xbe08d0c4	-0.13360888
170	0xbc80c774	-0.015720107
171	0x3dcb545b	0.09928199
172	0x3d83dfba	0.06439157
173	0xbe8ca036	-0.2746598
174	0x3d3eea84	0.04661037
175	0x3e490f99	0.19634856
176	0x3c9e0a88	0.019292131
177	0xbcf05b76	-0.029340487
178	0x3deb11ee	0.11478029
179	0xbce9065a	-0.028445411
180	0x3d4db660	0.050222754
181	0x3d2043fb	0.03912733
182	0x3e1a2b88	0.15055668
183	0x3dd547d9	0.104140945
184	0x3bdc984d	0.006732023
185	0xbd18d219	-0.03730974
186	0x3de1c819	0.11024494
187	0x3d895cba	0.06707139
188	0x3cc34530	0.023836702
189	0xbdc0e2b7	-0.094182424
190	0x3e21f728	0.15816939
191	0x3d23a4d7	0.039952125
192	0xbe3faaaf	-0.18717454
193	0x3e31bfa0	0.17358255
194	0x3ddc20a4	0.10748413
195	0x3e0dbc24	0.13841301
196	0x3daed2d0	0.08536303
197	0xbe1f5fa3	-0.15563826
198	0x3db4e4b4	0.08832684
199	0xbc5ee2a5	-0.013603841
200	0x3cd7bcc7	0.026335133
201	0x3e169512	0.14705303
202	0xbceb5e42	-0.028731469
203	0xbd518660	-0.05115354
204	0x3e02db6f	0.1277902
205	0xbe1f7ed0	-0.15575719
206	0x3dc7d69c	0.0975773
207	0xbdc43c62	-0.095818296
208	0xbe279854	-0.16366702
209	0xbd6f9853	-0.058494877
210	0x3d420ee0	0.047377467
211	0x3c4cd21f	0.012501269
212	0x3ca11200	0.019661903
213	0xbdbf3e45	-0.09338049
214	0xbda0f5e1	-0.07859398
215	0xbe006564	-0.12538677
216	0xbe1a9c49	-0.1509868
217	0x3db05f79	0.0861196
218	0xbddb7689	-0.10715968
219	0xbe044153	-0.12915544
220	0x3d90baf1	0.07066906
221	0xbe21f64b	-0.1581661
222	0x3dcd03a0	0.10010457
223	0xbe222ec0	-0.15838146
224	0xbe35e1ad	-0.1776187
225	0x3cd3cbe0	0.025854051
226	0xbe0edf02	-0.13952258
227	0x3ce02b2a	0.027364332
228	0x3d10fa24	0.035394803
229	0xbe4da346	-0.20081815
230	0xbe27d878	-0.1639117
231	0x3d5c2238	0.05374357
232	0x3d176638	0.036962718
233	0x3cd57fc2	0.026061896
234	0xbdf2fa4b	-0.11864146
235	0x3ddba29c	0.10724375
236	0xbe46167e	-0.19344518
237	0xbd08819c	-0.03332673
238	0xbe1d5103	-0.15362935
239	0xbcedf17e	-0.029045817
240	0xbdd6d859	-0.10490484
241	0xbe13fb36	-0.14451298
242	0x3d79c090	0.060974658
243	0x3db9c554	0.090708405
244	0x3da1df04	0.07903865
245	0xbe208c9f	-0.15678643
246	0x3e02d5fa	0.12776938
247	0xbdf36160	-0.11883807
248	0x3dee05ac	0.116221756
249	0x3c3f49d9	0.0116753215
250	0xbe20bde5	-0.15697439
251	0xbde410e5	-0.11136035
252	0x3e31bddc	0.17357582
253	0xbe36ea1a	-0.1786274
254	0x3d90461c	0.07044622
255	0xbe1b24be	-0.15150735

sequential/dense_2/MatMul f4 [64, 90]
0	0x3e122317	0.14271198
1	0xbdea1b35	-0.114309706
2	0x3dd23f37	0.102659635
3	0x3d87b160	0.066256285
4	0xbe3dc8f3	-0.18533687
5	0x3da8a92d	0.08235393
6	0x3c80e188	0.015732542
7	0xbdfa0ca9	-0.12209446
8	0x3e1c91ce	0.15289995
9	0xbe335965	-0.1751457
10	0xbd1f4751	-0.038886372
11	0xbdba8ef4	-0.091092974
12	0xbee1688b	-0.44025072
13	0x3d95461e	0.072887644
14	0x3db60f09	0.088895865
15	0x3e3bc24b	0.18335836
16	0xbd78dc64	-0.060757056
17	0xbe69fac2	-0.22849563
18	0x3dd9c07f	0.10632419
19	0x3dae505e	0.085114226
20	0xbd0dfb48	-0.03466347
21	0xbd23112f	-0.03981131
22	0x3c8f5808	0.017498031
23	0x3c2778f9	0.010221713
24	0xbe2b0be4	-0.16703755
25	0xbe4004f0	-0.18751884
26	0x3c412137	0.011787704
27	0xbcef4fb8	-0.029212818
28	0x3e45f48f	0.19331573
29	0xbe01e061	-0.1268325
30	0xbe5e7ab9	-0.21726502
31	0x3d656201	0.056001667
32	0x3e21da57	0.15805946
33	0xbcd355f7	-0.025797827
34	0x3cd88f6c	0.026435576
35	0x3dde0ce9	0.10842306
36	0x3d840d33	0.0644783
37	0xbcd7a040	-0.02632153
38	0x3dc8edf5	0.09811012
39	0x3e38c3a5	0.18043382
40	0x3d168cd2	0.03675539
41	0x3dde33ed	0.10849748
42	0xbe1b1ba2	-0.1514726
43	0xbd4ab418	-0.049488157
44	0xbe4e7824	-0.20163018
45	0xbf0e8b63	-0.5568144
46	0xbc21b087	-0.009868748
47	0x3e27205b	0.16320936
48	0xbd110886	-0.03540852
49	0xbe1f4a9c	-0.15555805
50	0xbc05dc34	-0.008170176
51	0x3db3336e	0.08750044
52	0x3d260f78	0.040542096
53	0x3c89b3e3	0.01680941
54	0xbde1a8f0	-0.110185504
55	0x3d30e15e	0.043183677
56	0xbdefebcf	-0.11714899
57	0xbd5295ff	-0.05141258
58	0x3d06a445	0.032871503
59	0xbe520eb3	-0.2051342
60	0xbdc68f04	-0.09695247
61	0xbda40e7f	-0.080105774
62	0xbe464e3d	-0.19365783
63	0xbe113624	-0.1418081
64	0x3e0e4b13	0.13895826
65	0x3d828dee	0.06374727
66	0x3e14416f	0.14478086
67	0xbd61ab4a	-0.055094995
68	0x3d0c4da4	0.03425373
69	0xbd82c220	-0.06384683
70	0x3deaa4af	0.11457192
71	0xbe0b1e53	-0.13585787
72	0xbb8cb407	-0.004293922
73	0xbd9f8fbf	-0.07791089
74	0x3d7de65c	0.061987266
75	0xbca8dc61	-0.020612897
76	0x3e32288d	0.17398281
77	0x3dedd421	0.11612726
78	0xbe32b3d1	-0.17451407
79	0xbb57d740	-0.0032934695
80	0xbd23908b	-0.03993277
81	0x3dd9408b	0.10608014
82	0xbe174606	-0.14772806
83	0x3c9fb0a0	0.019493401
84	0x3e4732fd	0.19453044
85	0x3e171498	0.1475395
86	0xbd26962c	-0.04067056
87	0x3d720aaf	0.05909222
88	0xbe3f08ca	-0.18655697
89	0xbdf96984	-0.12178329
90	0x3d953240	0.07284975
91	0xbd837b01	-0.064199455
92	0x3d26a67e	0.040686123
93	0xbe18c7c3	-0.14919953
94	0x3e0fcf49	0.14043917
95	0x3d50854d	0.050908376
96	0x3da535d9	0.08066911
97	0x3e250801	0.16116334
98	0x3d4fde4a	0.0507491
99	0xbca2702f	-0.019828884
100	0x3c3c7cd5	0.011504372
101	0xbe3ce3f7	-0.18446337
102	0xbd0ff079	-0.035141442
103	0xbdf9958b	-0.12186726
104	0x3e234736	0.15945134
105	0xbc852798	-0.016254231
106	0xbda076fc	-0.078351945
107	0xbce55ca9	-0.027998285
108	0x3d3088b5	0.043099124
109	0xbdc870d3	-0.097871445
110	0xbd80eb1d	-0.06294844
111	0x3e9d7921	0.30756477
112	0xbc1d5503	-0.009602788
113	0xbdce1442	-0.100624576
114	0x3e890f14	0.26769316
115	0x3dd5972d	0.10429225
116	0x3e07e528	0.1327101
117	0xbe32ae54	-0.17449313
118	0x3e3fcd8b	0.18730752
119	0xbe469dcc	-0.19396132
120	0xbdec6861	-0.11543346
121	0xbe57466b	-0.21022956
122	0x3b8fa553	0.004383722
123	0x3cff9c5a	0.031202484
124	0x3e9ac65d	0.30229464
125	0x3e145076	0.14483818
126	0x3dac25c8	0.08405644
127	0xbd9b4f11	-0.0758344
128	0xbc27a674	-0.010232557
129	0x3de4b574	0.11167422
130	0x3e1f57c0	0.15560818
131	0xbe5ebf52	-0.2175267
132	0xbdef4b6e	-0.11684309
133	0x3df0562c	0.11735186
134	0xbe4efa45	-0.20212658
135	0xbd42a4e7	-0.047520544
136	0x3dbeeeb3	0.09322872
137	0x3dc858e6	0.09782581
138	0x3da38bb4	0.07985631
139	0xbd0807cc	-0.03321056
140	0x3e0d63f5	0.13807662
141	0x3e19cc9a	0.15019456
142	0x3d0ca7df	0.03433978
143	0x3def97d5	0.116988815
144	0xbdddca68	-0.108296216
145	0xbcb09c70	-0.02155897
146	0xbde86058	-0.11346501
147	0x3dfe6d69	0.12423212
148	0x3db00568	0.08594781
149	0x3d90bf85	0.070677795
150	0x3e236461	0.1595626
151	0xbe2063ca	-0.15663067
152	0xbcaaa88f	-0.020832328
153	0x3e2619ca	0.16220775
154	0x3dc5b64e	0.096539125
155	0x3c76959f	0.015050321
156	0x3c708bf0	0.014681801
157	0x3e4ce47d	0.20009036
158	0x3e17c58f	0.14821456
159	0x3dcf532e	0.10123287
160	0x3e0337db	0.12814276
161	0xbcd626be	-0.02614152
162	0x3e27ab3b	0.16373913
163	0xbd30d71c	-0.043173894
164	0xbe3f526d	-0.18683787
165	0x3d8529c8	0.0650211
166	0x3de0327e	0.109471306
167	0xbd9565cc	-0.07294807
168	0x3d89f1be	0.06735562
169	0x3d7703fc	0.060306534
170	0x3e404074	0.18774587
171	0xbe4d3454	-0.20039493
172	0x3df30a2a	0.11867173
173	0xbd9ad38d	-0.07559881
174	0xbdb3c397	-0.0877754
175	0x3e36e903	0.17862324
176	0xbe0c7000	-0.137146
177	0xbce07c4a	-0.027403016
178	0xbe1a822b	-0.15088718
179	0xbe08ff52	-0.13378647
180	0xbddcd042	-0.107819095
181	0xbf13347c	-0.5750196
182	0x3e0aa7ad	0.13540526
183	0x3ce6ec1a	0.028188754
184	0xbd9215b2	-0.07133044
185	0x3dbfe2a1	0.09369398
186	0xbf4faaec	-0.8112018
187	0x3e28fe17	0.16503178
188	0x3d13bff7	0.036071744
189	0xbe2b1489	-0.16707052
190	0x3a09ae8c	0.0005252145
191	0x3e382195	0.1798156
192	0xbf2fad5e	-0.6862391
193	0x3e9024a1	0.28152946
194	0xbdac7ca4	-0.08422211
195	0xbde14935	-0.11000291
196	0xbe3a353e	-0.18184373
197	0xbf53b7ff	-0.8270263
198	0x3d80cdaf	0.06289231
199	0xba927c00	-0.0011175871
200	0xbf014109	-0.5048986
201	0xbedf142a	-0.4357007
202	0x3da00f36	0.07815401
203	0x3d822f5e	0.06356691
204	0xbf049182	-0.5178453
205	0xbf170499	-0.5899139
206	0xbf3359f1	-0.70059115
207	0x3e2ac443	0.1667643
208	0xbe39942d	-0.18122931
209	0xbe1fec19	-0.15617408
210	0xbf38e1ce	-0.7221955
211	0x3d9e9575	0.077433504
212	0x3e2d7eee	0.16942951
213	0x3dbf8c08	0.09352881
214	0xbef5e480	-0.48025894
215	0xbe02bf31	-0.12768246
216	0x3e942c59	0.28940085
217	0xbc979aa0	-0.018506348
218	0x3df5494a	0.119768694
219	0xbddbd6ae	-0.10734306
220	0x3db656cc	0.08903274
221	0x3d87d9c8	0.06633335
222	0xbbe602e0	-0.0070193857
223	0x3dc3f393	0.095679425
224	0xbf051e04	-0.51998925
225	0xbf532a7b	-0.82486695
226	0x3da18270	0.07886207
227	0x3e1aa31f	0.15101288
228	0xbd925af4	-0.07146254
229	0xbf57b358	-0.8425803
230	0xbf20e624	-0.62851167
231	0xbd8760c7	-0.06610256
232	0x3de68939	0.11256642
233	0xbccf1b9d	-0.025281722
234	0xbe7fe3b3	-0.24989204
235	0xbd0ebec1	-0.034849886
236	0xbae1ce5d	-0.0017227639
237	0xbde30b65	-0.11086158
238	0xbee812f6	-0.45326966
239	0xbd438db5	-0.047742564
240	0xbd110635	-0.03540631
241	0xbf2617ae	-0.6487988
242	0xbf523c9a	-0.8212372
243	0xbea35c04	-0.3190614
244	0x3d26277c	0.040565
245	0xbd1151b7	-0.03547832
246	0xbe33f65e	-0.1757445
247	0xbee72fca	-0.45153648
248	0x3d467dcc	0.048459813
249	0x3e2c0d97	0.16802059
250	0x3d714e88	0.058912784
251	0xbcc384e5	-0.02386708
252	0x3d1e7446	0.038685106
253	0xbda032bd	-0.078221776
254	0x3de0f45a	0.10984106
255	0xbf0759a4	-0.52871156

sequential/dense_3/MatMul f4 [20, 64]
0	0xbde015e0	-0.10941672
1	0x3d8e261f	0.06940865
2	0x3d02b81c	0.03191386
3	0x3e8c64dc	0.274207
4	0xbd3c952b	-0.046040695
5	0xbdd1467a	-0.102185205
6	0x3ebdc1d7	0.3706195
7	0xbfc582a0	-1.5430489
8	0xbf13c1ad	-0.577174
9	0xbeae33bb	-0.34023842
10	0xbedd790b	-0.4325641
11	0x3eae0a85	0.339924
12	0x3e3f0910	0.18655801
13	0x3c23b3b7	0.009991578
14	0xbeabba01	-0.33540347
15	0x3b5a354f	0.0033295935
16	0x3c6c2958	0.014414154
17	0xbf1a42ab	-0.6025798
18	0xbdd11810	-0.10209668
19	0xbdad8fae	-0.0847467
20	0xbe42a821	-0.19009449
21	0x3f0e1f10	0.5551615
22	0xbe5c8378	-0.21534526
23	0xbe4cc11f	-0.19995545
24	0xbee659c7	-0.4499037
25	0xbe316cc7	-0.17326652
26	0x3e7016d3	0.23446207
27	0x3bfd130c	0.007723218
28	0x3e22b189	0.15888037
29	0x3ee345ce	0.44389194
30	0xbf01b384	-0.50664544
31	0x3c5a1fe5	0.013313268
32	0xbeb10cef	-0.3458018
33	0xbf7c5fa0	-0.9858341
34	0xbf68135c	-0.9065454
35	0x3ea525db	0.32255444
36	0xbf787791	-0.97057444
37	0xbe8b97a9	-0.27264145
38	0xbe12fb36	-0.14353642
39	0xbe49ba60	-0.19700003
40	0xbf24e837	-0.6441683
41	0x3b5b3490	0.0033448078
42	0x3d217741	0.03942037
43	0x3c0139b6	0.0078872945
44	0x392000ae	0.00015259042
45	0xbf15f18a	-0.58571684
46	0xbcec11db	-0.028817108
47	0x3e5006bc	0.20315069
48	0x3d8817e8	0.06645185
49	0x3f31525d	0.692663
50	0x3da42e20	0.0801661
51	0x3d65f52f	0.05614203
52	0xbe500837	-0.20315634
53	0x3ef19f58	0.47191882
54	0x3f074d1d	0.5285204
55	0xbe06470c	-0.1311304
56	0xbd76e9cc	-0.06028156
57	0xbe8b6c3c	-0.27231014
58	0x3e4fb09a	0.20282212
59	0xbf0e3ed5	-0.55564624
60	0xbe25b28a	-0.16181388
61	0x3ec776ea	0.38957912
62	0x3d804893	0.062638424
63	0xbd11e261	-0.035616282
64	0x3e80b9be	0.2514171
65	0xbeb254b0	-0.34830236
66	0x3fb0c73f	1.3810805
67	0xbeee989d	-0.4660081
68	0x3e0cf637	0.13765799
69	0x3e200498	0.15626752
70	0xbe9be160	-0.30445385
71	0xbb7dbac2	-0.0038716053
72	0xbc60b7be	-0.013715683
73	0xbcba83f2	-0.022767995
74	0x3ee48884	0.44635403
75	0xbd1df653	-0.03856499
76	0xbe47dba0	-0.19517374
77	0xbe8ee5f3	-0.27909812
78	0x3e14e2fd	0.14539714
79	0x3ea85487	0.3287699
80	0x3ee9d526	0.45670432
81	0xbdd367af	-0.103225105
82	0x3eae0bab	0.33993277
83	0x3d853605	0.06504444
84	0xbd864571	-0.06556214
85	0xbe46effc	-0.19427484
86	0xbce38ebc	-0.027778022
87	0xbd1dd8d6	-0.03853687
88	0x3f03e0ff	0.5151519
89	0xbe452787	-0.1925336
90	0xbe9d8856	-0.3076808
91	0x3aacf1d6	0.0013194631
92	0x3e53a753	0.20669298
93	0xbdb4c3e4	-0.08826426
94	0x3f162a03	0.58657855
95	0x3b10a17d	0.002206891
96	0x3c8b9247	0.017037524
97	0x3f16081d	0.5860613
98	0x3df16724	0.11787251
99	0x3ebfa4de	0.3743047
100	0x3e902ca3	0.28159055
101	0x3f2c4b77	0.6730265
102	0x3e6a63f8	0.22889698
103	0x3db10843	0.08644154
104	0xbb31e13f	-0.0027142314
105	0xb9c1e10e	-0.00036979507
106	0x3ed07403	0.4071351
107	0xbad9d1e7	-0.0016618342
108	0x3b9a4744	0.0047082026
109	0x3ef608e9	0.48053673
110	0x3eb0065c	0.34379852
111	0xbe60b7cd	-0.21945114
112	0xbe3216f0	-0.17391562
113	0xbeae4077	-0.34033558
114	0xbe899896	-0.26874226
115	0xbebdc2e4	-0.37062752
116	0xbc0a6a3f	-0.008448183
117	0xbd27ec1c	-0.040996656
118	0xbe2bdde2	-0.1678386
119	0x3d09fa0e	0.033685736
120	0xbe966763	-0.29375753
121	0x3ec83341	0.39101604
122	0x3db6d9ff	0.08928298
123	0xbc1ceb54	-0.009577591
124	0xbd9ba50b	-0.07599839
125	0xbe851a76	-0.2599675
126	0x3d6eeb92	0.058330126
127	0x3e859acb	0.2609466
128	0xbd365ff4	-0.0445251
129	0x3dbb6c3c	0.091515034
130	0xbf4198cd	-0.7562378
131	0x3ec7d622	0.39030558
132	0xbe971903	-0.2951127
133	0xbe410ef6	-0.18853363
134	0x3e537904	0.20651633
135	0x3b9ab125	0.0047208243
136	0xbebee4fd	-0.3728408
137	0xbecf782f	-0.4052138
138	0x3e8e80da	0.2783268
139	0xbe452fbe	-0.19256493
140	0x3d52a00e	0.05142217
141	0x3e75332e	0.23945305
142	0xbdb34127	-0.08752661
143	0xbeee60be	-0.46558183
144	0xbece69f3	-0.40315208
145	0xbed8011a	-0.4218834
146	0xbe3db9f6	-0.1852797
147	0xbe9436df	-0.28948113
148	0xbdfb6bc7	-0.12276416
149	0x3d74e0a1	0.059784535
150	0xbeeb481f	-0.45953462
151	0xbf57e358	-0.84331274
152	0xbe1e1b7c	-0.15440172
153	0xbe6a868e	-0.22902891
154	0x3bc4a09c	0.0060005914
155	0x3eaa7326	0.33290976
156	0x3e1c29c9	0.15250315
157	0xbd7fc06d	-0.06243937
158	0x3ea0c838	0.31402755
159	0x3ec419fa	0.3830107
160	0x3e93c3ae	0.2886023
161	0x3d3576f5	0.0443029
162	0x3ead381d	0.33831874
163	0xbf0addd4	-0.5424473
164	0xbd089373	-0.033343744
165	0xbe8ab84a	-0.27093726
166	0xbd9462fe	-0.07245444
167	0x3dec6bb0	0.11543977
168	0xbe83ee63	-0.25767812
169	0x3ed09fb6	0.4074685
170	0xbf1efd19	-0.62104946
171	0x3e9c43df	0.30520532
172	0x3e9f5f8b	0.3112758
173	0x3c9164e8	0.017748311
174	0xbd3234c2	-0.043507345
175	0x3c0b2275	0.008492102
176	0x3df0aa5c	0.117512435
177	0x3e796752	0.2435582
178	0xbe892e1c	-0.2679299
179	0xbd8f4927	-0.069963746
180	0xbdb69ca9	-0.08916599
181	0xbe716cb6	-0.23576626
182	0xbda0b78a	-0.07847507
183	0xbeaa212b	-0.3322843
184	0x3d1931b4	0.037400916
185	0x3e6aefed	0.22943087
186	0xbe815f48	-0.25268006
187	0xbe904141	-0.28174785
188	0x3dd0aa54	0.101887375
189	0xbc06cd5b	-0.0082276715
190	0xbd3da256	-0.046297394
191	0xbd6668b4	-0.056252196
192	0xbe84a2fa	-0.2590559
193	0x3e39f051	0.1815808
194	0xbf8b57f8	-1.0886221
195	0xbf8fd307	-1.1236275
196	0xbf18344f	-0.59454817
197	0x3f0e0ee8	0.55491495
198	0xbe94efdf	-0.29089257
199	0xbaebabd4	-0.0017980286
200	0x3bf5cfc8	0.007501576
201	0x3bc370f4	0.005964393
202	0xbe3f1f1e	-0.18664214
203	0xbf938617	-1.1525296
204	0xbf4f6828	-0.81018305
205	0xbe741bc9	-0.23838724
206	0x3e4df479	0.2011279
207	0xbf2bd82d	-0.67126733
208	0xbed59fe9	-0.41723564
209	0x3e454147	0.19263183
210	0x3ec033f4	0.37539637
211	0x3eadaaae	0.3391928
212	0x3dcf5859	0.10124273
213	0x3eb3a6b9	0.35088137
214	0xbf8ece5b	-1.1156725
215	0xbf4f2dd1	-0.80929285
216	0x3d292a72	0.041300245
217	0xbd8b1893	-0.067917965
218	0xbef42d42	-0.4769078
219	0xbe4b4812	-0.19851711
220	0x3d8e5913	0.06950583
221	0xbe0c4e8f	-0.13701843
222	0xbf113493	-0.56720847
223	0xbe85034c	-0.25979078
224	0x3eb6fcc3	0.35739717
225	0x3d51ef15	0.051253397
226	0xbf08ebc0	-0.53484726
227	0xbebf4a04	-0.37361157
228	0x3d7ebcdf	0.06219184
229	0xbf38bded	-0.72164804
230	0x3e3b47e7	0.18289147
231	0xbf12fe7c	-0.5741956
232	0x3ad4f510	0.0016247351
233	0xbe011a70	-0.12607741
234	0x3d92300e	0.07138072
235	0xbea6d5f9	-0.32585123
236	0xbe248374	-0.1606577
237	0x3da53aea	0.080678776
238	0xbd3d8da8	-0.046277672
239	0xbd06d3e0	-0.032916903
240	0x3e84a345	0.25905815
241	0xbe9203ff	-0.28518674
242	0xbeb18c89	-0.34677532
243	0x3f06fd1f	0.5272998
244	0x3a7e24a9	0.0009694794
245	0xbe91945f	-0.2843351
246	0xbfbda3d4	-1.4815621
247	0xbec7c997	-0.39020988
248	0xbf3cae9f	-0.7370395
249	0xbed4735c	-0.41494262
250	0x3f19ece0	0.6012707
251	0xbba798cc	-0.0051146504
252	0x3e62cb23	0.22147803
253	0xbe071c45	-0.13194378
254	0xbec4d3f6	-0.38442963
255	0x3e11b3db	0.14228766

sequential/dense_4/MatMul f4 [6, 20]
0	0xbe7b0e33	-0.24517135
1	0x3e97ec11	0.29672292
2	0x3ebc8689	0.36821392
3	0xbf66be78	-0.9013438
4	0xbe72cbf6	-0.23710617
5	0xbe12e6ea	-0.14345899
6	0xbf260c19	-0.6486221
7	0xbe6db130	-0.23212123
8	0xbdea5844	-0.114426166
9	0x3ea56e53	0.32310733
10	0xbe1cd1bf	-0.15314387
11	0x3eb16560	0.34647655
12	0x3dafcf05	0.08584408
13	0xbf1ad0c3	-0.60474795
14	0x3e891b4b	0.26778635
15	0xbef7e406	-0.48416156
16	0xbed4ec4a	-0.41586524
17	0x3e9093b1	0.2823768
18	0xbf020bec	-0.5079944
19	0xbf4ad9fc	-0.7923887
20	0x3eb2c406	0.3491518
21	0x3e60a024	0.21936089
22	0xbf930eda	-1.1488907
23	0xbf47b693	-0.7801296
24	0x3ec1f537	0.37882397
25	0x3eb9fdf8	0.36326575
26	0x3ed58e28	0.4171002
27	0x3ef57d41	0.47947124
28	0xbe1d490b	-0.15359895
29	0xbf965139	-1.1743537
30	0xbdb321ac	-0.08746657
31	0xbf25d662	-0.6478025
32	0xbf5e53a0	-0.8684635
33	0x3f57af44	0.8425181
34	0x3d985c9f	0.07439541
35	0x3e06d156	0.13165793
36	0x3ef67d79	0.48142603
37	0xbf84256d	-1.0323921
38	0x3f10bdd3	0.5653965
39	0xbf99a9ab	-1.2004904
40	0xbf07e532	-0.530841
41	0x3e95db2f	0.29268786
42	0xbf148ee3	-0.5803053
43	0xbf07427e	-0.52835834
44	0xbf2271ab	-0.63454694
45	0xbe2e4707	-0.17019282
46	0x3ed76ca2	0.42075068
47	0xbf04ef44	-0.5192759
48	0x3ed57fb8	0.41699004
49	0xbf496dc1	-0.78683096
50	0x3ee61780	0.44939804
51	0xbeefffdd	-0.46874896
52	0x3d8a2d34	0.06746903
53	0xbf8a75d1	-1.0817205
54	0xbf976351	-1.1827184
55	0x3e15b479	0.14619626
56	0x3efa1cfe	0.48850244
57	0x3e15bbf6	0.14622483
58	0xbc95c8e3	-0.018284267
59	0x3e7500bc	0.23926061
60	0x3ed4c045	0.4155294
61	0xbf46ffc5	-0.77734023
62	0x3eb85f8d	0.360104
63	0xbf134de6	-0.5754074
64	0xbe7d9e46	-0.24767408
65	0xbe687edd	-0.22704645
66	0x3e8cd74e	0.27508014
67	0xbe9380e3	-0.2880927
68	0xbee21201	-0.4415436
69	0xbfac9ebf	-1.3485945
70	0x3e38fe04	0.1806565
71	0x3eaea5c0	0.34110832
72	0xbfaadbd3	-1.3348335
73	0x3f6893e0	0.9085064
74	0x3e87db32	0.2653442
75	0xbee942ee	-0.45558876
76	0xbef08294	-0.46974623
77	0x3e8e78cf	0.27826545
78	0x3f00a45b	0.50250787
79	0xbef941c3	-0.48682985
80	0xbec4c175	-0.38428846
81	0x3e60c5dd	0.21950479
82	0xbf21c374	-0.6318886
83	0x3f771713	0.96519583
84	0x3ef6aa7e	0.4817695
85	0xbf1be4a4	-0.6089575
86	0xbe717c47	-0.23582564
87	0xbf192d2e	-0.59834564
88	0x3eadaae7	0.3391945
89	0x3ec97ec0	0.39354515
90	0x3f0ad878	0.54236555
91	0xbeadbd05	-0.33933273
92	0x3dfc1567	0.1230877
93	0xbf9252c5	-1.1431509
94	0xbc773b24	-0.015089784
95	0xbf655d33	-0.89595336
96	0xbee998e7	-0.45624468
97	0x3e4dff76	0.20116982
98	0xbe9db472	-0.3080173
99	0x3eaefd3b	0.34177575
100	0xbeb8464d	-0.35991135
101	0xbf521323	-0.8206045
102	0xbf0a67b5	-0.54064494
103	0xbdd44409	-0.10364539
104	0x3ef8619c	0.4851197
105	0x3ed8220f	0.42213485
106	0xbeb57bb4	-0.3544594
107	0x3f12716b	0.5720431
108	0xbf64121d	-0.8909014
109	0x3ec8d950	0.39228296
110	0x3f0a720c	0.5408027
111	0xbdd1728b	-0.102269255
112	0x3df98c85	0.12185005
113	0xbf16d1b2	-0.5891372
114	0xbf6c0600	-0.92196655
115	0x3dc3d442	0.09561969
116	0xbf4003e5	-0.7500594
117	0xbf97921a	-1.1841462
118	0x3f161dcf	0.58639234
119	0x3ead4773	0.33843574
