config/MLModels/model.tflite (tflite, 69644 bytes, 10 tensors)

dense_4/bias f4 [7]
0	0x3e8d6c77	0.27621815
1	0xbf076498	-0.5288787
2	0xbeedb708	-0.46428704
3	0x3f3fa890	0.7486658
4	0xbe89b1e7	-0.2689354
5	0x3e7a02ad	0.24415083
6	0xbf12df9c	-0.5737245

dense_3/bias f4 [32]
0	0xbdf7e28c	-0.12103757
1	0x3dae4079	0.08508391
2	0x3e38bac1	0.18039991
3	0x3ed66a53	0.41877994
4	0x3ef7cb6e	0.48397392
5	0x3eab8d2c	0.33506143
6	0x3e8a11a4	0.26966584
7	0xbb92330a	-0.0044616507
8	0x3eb4f46d	0.35342732
9	0x3eece54e	0.46268696
10	0x3f38a9e0	0.7213421
11	0x3e5ca61d	0.21547742
12	0x3eeaaf17	0.45836708
13	0x3e33d44c	0.17561454
14	0xbcdd13c4	-0.026986964
15	0x3f3289e8	0.6974168
16	0x3f18cecf	0.59690565
17	0x3ef13c4b	0.47116312
18	0x3d93117d	0.0718107
19	0xbda3abd0	-0.07991755
20	0x3e2a0b7a	0.1660594
21	0x3f1232a4	0.5710852
22	0xbd166b8d	-0.036723662
23	0x3e13f0d9	0.14447345
24	0x3f1a0f01	0.60179144
25	0x3e2ea061	0.17053367
26	0xbd8c5650	-0.068524
27	0x3e2a1989	0.16611303
28	0x3f0b8843	0.54504794
29	0x3f1e5cda	0.6186043
30	0x3efd68c0	0.4949398
31	0x3efaf45f	0.49014565

dense_2/bias f4 [64]
0	0xbe12a134	-0.14319307
1	0xbd305402	-0.043048866
2	0x3d0cf8e5	0.03441705
3	0xbc9e2d5f	-0.019308744
4	0x3ed2a3e3	0.4114066
5	0xbe1f2acb	-0.15543668
6	0xbecf4e84	-0.4048959
7	0x3d3daff0	0.046310365
8	0xbd6a345f	-0.05717885
9	0xbdfbe438	-0.12299389
10	0xbd85a9a8	-0.065265
11	0x3d88f349	0.06687028
12	0x3d29711d	0.04136764
13	0xbd218124	-0.0394298
14	0xbe5588a7	-0.2085291
15	0xbd9831c4	-0.07431367
16	0xbe0b9a28	-0.13633025
17	0x3d81d33f	0.0633912
18	0xbe01e252	-0.1268399
19	0xbe12be96	-0.14330515
20	0xbb73caec	-0.0037199808
21	0x3e39a4ae	0.18129227
22	0x3df2379f	0.11827015
23	0x3ddfdb67	0.109305196
24	0x3db3ab27	0.08772879
25	0xbe5327fa	-0.20620719
26	0xbe0a8cd2	-0.13530281
27	0xbd510a73	-0.051035356
28	0xbe7776e3	-0.24166445
29	0x3d168077	0.036743607
30	0xbea4af72	-0.32165104
31	0x3c2c2da6	0.01050893
32	0xbd886db5	-0.0666155
33	0xbd741034	-0.059585765
34	0x3d1fa6dd	0.038977493
35	0xbd188093	-0.037231993
36	0x3e9e724b	0.30946574
37	0x3e5b4d41	0.21416189
38	0x3c3806ba	0.0112320725
39	0x3dac0286	0.08398919
40	0x3e702a13	0.2345355
41	0xbef13ee9	-0.4711831
42	0x3db391cb	0.08768042
43	0xbdd726ad	-0.10505424
44	0xbe911c7e	-0.2834205
45	0xbf15a82d	-0.5845974
46	0x3bd24747	0.0064171883
47	0x3e8d4ec8	0.27599168
48	0xbd03ac56	-0.032146774
49	0x3af5dd36	0.0018757943
50	0x3e4dd645	0.20101269
51	0xbea284ef	-0.31742045
52	0x3ed03715	0.40667024
53	0xbdeba7f9	-0.115066476
54	0xbdde9150	-0.1086756
55	0x3e52260d	0.20522328
56	0x3d373628	0.04472938
57	0x3e0db5d1	0.13838889
58	0x3cd53f0d	0.026031042
59	0xbd1c5569	-0.03816739
60	0x3ddd3c0f	0.10802471
61	0xbe8916f5	-0.26775327
62	0x3de00864	0.109391004
63	0x3d864738	0.06556553

dense_1/bias f4 [90]
0	0x00000000	0.0
1	0xbba33d03	-0.0049816384
2	0x00000000	0.0
3	0x00000000	0.0
4	0xbcaecd06	-0.021337997
5	0xbd3731d6	-0.04472526
6	0x00000000	0.0
7	0x00000000	0.0
8	0xbec32964	-0.38117516
9	0xbd15ad5f	-0.036542293
10	0xbc0b97d2	-0.0085200835
11	0x3e49e928	0.19717848
12	0x00000000	0.0
13	0xbbe2ca57	-0.0069210934
14	0xbb881aa5	-0.004153567
15	0xbb8df900	-0.0043326616
16	0x00000000	0.0
17	0xbb6bb1b8	-0.0035964083
18	0xbf1d1ac0	-0.6136894
19	0xbc9208cf	-0.017826466
20	0xbf03f03c	-0.51538444
21	0xbccbcbe0	-0.024877489
22	0xbebfdcab	-0.37473044
23	0xbc004097	-0.007827899
24	0xbc9c612b	-0.019089302
25	0xbc939f5e	-0.018020328
26	0xbd9ce4e1	-0.07660843
27	0xbc0f6a6a	-0.008753398
28	0xbccbfadc	-0.024899893
29	0x00000000	0.0
30	0xbc96d2de	-0.018411096
31	0x00000000	0.0
32	0x00000000	0.0
33	0xbacd50ce	-0.001566434
34	0x00000000	0.0
35	0xbc91374b	-0.017726561
36	0xbc4e583e	-0.012594281
37	0xbf0dde3f	-0.55417246
38	0xbefcaf0f	-0.4935231
39	0x00000000	0.0
40	0xbd3ffa6c	-0.04686968
41	0x00000000	0.0
42	0x3e334aba	0.17508975
43	0xbf09f8a4	-0.5389502
44	0x00000000	0.0
45	0x00000000	0.0
46	0xbf08d7d9	-0.5345436
47	0xbe9e7023	-0.3094493
48	0xbbc6e83a	-0.006070164
49	0xbf07aefb	-0.53001374
50	0x00000000	0.0
51	0xbe175ba9	-0.1478106
52	0x00000000	0.0
53	0xbead7f8b	-0.3388637
54	0xbdbd32eb	-0.092382275
55	0x00000000	0.0
56	0x00000000	0.0
57	0xbd053acb	-0.032526772
58	0x00000000	0.0
59	0x00000000	0.0
60	0x00000000	0.0
61	0xbc297afc	-0.010344263
62	0x3f502a5a	0.81314623
63	0xbdd69ca0	-0.104790926
64	0x00000000	0.0
65	0x00000000	0.0
66	0xb945dff0	-0.00018870807
67	0x3da21499	0.07914085
68	0x3d04468f	0.032293852
69	0xbc95c0a7	-0.01828034
70	0xbc4b1175	-0.012394299
71	0xbf409edf	-0.7524242
72	0x00000000	0.0
73	0x3e610163	0.21973185
74	0xbc3ab7f5	-0.011396398
75	0xbef1d08d	-0.47229424
76	0x3984900b	0.00025284322
77	0xbc8c0632	-0.017092798
78	0x3e80b2bd	0.25136366
79	0x3ee28d03	0.44248208
80	0x00000000	0.0
81	0x00000000	0.0
82	0x00000000	0.0
83	0x00000000	0.0
84	0x3f2ee0fd	0.68312055
85	0xbc9b0954	-0.018925346
86	0x00000000	0.0
87	0xbf413bec	-0.7548206
88	0xbded3e59	-0.115841575
89	0x00000000	0.0

dense/bias f4 [90]
0	0x00000000	0.0
1	0x00000000	0.0
2	0x3f310eec	0.69163394
3	0xbcc5cbc3	-0.024145013
4	0x3ea0edd3	0.31431445
5	0x3f55decc	0.83543086
6	0x3f1600d7	0.5859503
7	0x3e114f7d	0.14190479
8	0x00000000	0.0
9	0xbecf381d	-0.404725
10	0xbd88efc7	-0.06686359
11	0x00000000	0.0
12	0xbf0a161d	-0.5393999
13	0x00000000	0.0
14	0x00000000	0.0
15	0xbf20f192	-0.6286861
16	0x3e7abac6	0.24485311
17	0x00000000	0.0
18	0x3e4aa6e2	0.19790223
19	0x00000000	0.0
20	0x3e1a03a0	0.15040445
21	0x3f03b75d	0.51451665
22	0x3d3e9066	0.046524428
23	0x00000000	0.0
24	0x00000000	0.0
25	0x00000000	0.0
26	0x00000000	0.0
27	0x3f1fbac8	0.6239438
28	0x3e808064	0.25097954
29	0x00000000	0.0
30	0x3ebcf9e0	0.3690939
31	0xbd544213	-0.051820826
32	0x3e86b97f	0.26313397
33	0x00000000	0.0
34	0x3eab5fdb	0.3347157
35	0x3f0520bc	0.52003074
36	0xbf1e21c9	-0.617703
37	0xbc4b376b	-0.012403349
38	0xbdc3d156	-0.09561412
39	0x3d7f88ac	0.0623862
40	0xbf5c1593	-0.8597042
41	0x00000000	0.0
42	0x00000000	0.0
43	0x00000000	0.0
44	0x3ba313d9	0.0049767313
45	0xbe1de492	-0.15419224
46	0x3e9ca08c	0.30591238
47	0xbe1a9242	-0.15094855
48	0x00000000	0.0
49	0x00000000	0.0
50	0x3e53a305	0.20667656
51	0xbf1eab94	-0.6198056
52	0xbbfba0bb	-0.0076790727
53	0xbea7313b	-0.32654747
54	0x00000000	0.0
55	0xbf26ff45	-0.6523326
56	0x00000000	0.0
57	0x3d150e7e	0.036390774
58	0x3f568563	0.8379728
59	0x3f12d38e	0.57354057
60	0x00000000	0.0
61	0xbe1bc869	-0.15213169
62	0xbc5d1263	-0.013493153
63	0xbf2d8678	-0.6778331
64	0xbe164048	-0.14672959
65	0x00000000	0.0
66	0x00000000	0.0
67	0x3ea5e05f	0.32397744
68	0x00000000	0.0
69	0x3ea734aa	0.32657367
70	0x00000000	0.0
71	0xbeb0146f	-0.3439059
72	0xbd8eed01	-0.06978799
73	0xbe622753	-0.22085313
74	0xbf03f8aa	-0.51551306
75	0x00000000	0.0
76	0x3f08b03c	0.5339391
77	0x3c49cb4d	0.012316537
78	0x00000000	0.0
79	0x3e8a8cab	0.27060446
80	0x3db2f683	0.08738425
81	0x3f2d2c4f	0.67645735
82	0xbf024f37	-0.5090212
83	0x3f3b7e80	0.732399
84	0x00000000	0.0
85	0xbe722a39	-0.23648919
86	0x3e8fe4e3	0.28104314
87	0xbf391dc2	-0.7231103
88	0x00000000	0.0
89	0x00000000	0.0

sequential/dense/MatMul f4 [90, 4]
0	0x3d17de20	0.03707707
1	0x3e4f9530	0.20271754
2	0xbd26d700	-0.040732384
3	0x3e6a1a9c	0.22861713
4	0xbce2e9e8	-0.027699426
5	0x3bf6f900	0.0075370073
6	0x3db2ce1c	0.087307185
7	0x3d5f5c60	0.054531455
8	0xbe83306b	-0.25622877
9	0x3e5d8cd6	0.21635756
10	0xbdce5148	-0.10074097
11	0x3dea9e57	0.11455982
12	0xbe597750	-0.2123692
13	0xbe3ab349	-0.18232454
14	0x3d1315b9	0.03590939
15	0xbd908096	-0.07055776
16	0x3c9d1d83	0.019179111
17	0x3bcc5f28	0.0062369294
18	0xbe7b6358	-0.24549615
19	0x3e73bb08	0.23801816
20	0xbd8ef79e	-0.06980823
21	0x3b31c7b1	0.0027127082
22	0x3d00b9fa	0.03142736
23	0x3cd04f9a	0.025428582
24	0x3e1c7e3d	0.15282531
25	0x3de60311	0.112310536
26	0xbdea5291	-0.114415295
27	0xbe95a2c8	-0.29225755
28	0x3de48a17	0.11159151
29	0x3db3ebad	0.08785186
30	0xbcb7ea47	-0.02245058
31	0xbe7f8b5b	-0.24955504
32	0xbbaf0cc0	-0.005342096
33	0x3d502870	0.050819814
34	0xbde796aa	-0.11308034
35	0x3e190540	0.14943409
36	0xbdc9d237	-0.098545484
37	0xbe388289	-0.18018545
38	0x3e759a9d	0.23984762
39	0x3cf02158	0.029312775
40	0xbe09b806	-0.13449106
41	0x3e529260	0.2056365
42	0xbdc05dda	-0.09392901
43	0xbe41c8f9	-0.18924321
44	0xbc77fac0	-0.015135467
45	0x3d806ee4	0.06271151
46	0x3e697184	0.22797209
47	0xbd2a95a8	-0.04164663
48	0x3dda2dfb	0.10653301
49	0xbe8800de	-0.26563162
50	0xbe3f5b50	-0.18687177
51	0x3e38bd1f	0.18040894
52	0x3e6555bc	0.22395986
53	0xbe05297c	-0.13004106
54	0xbc4347c0	-0.011918962
55	0x3d962508	0.07331282
56	0x3e4b4c2c	0.19853276
57	0x3df3eac8	0.11910015
58	0x3d73cc10	0.05952078
59	0x3e657224	0.22406822
60	0xbdd1719e	-0.10226749
61	0xbddd2d22	-0.10799624
62	0xbdb504c2	-0.08838798
63	0xbde50f20	-0.111845255
64	0xbd1f207c	-0.03884934
65	0xbe045fca	-0.12927166
66	0x3d0ef8f3	0.034905385
67	0xbe4cf97e	-0.20017049
68	0x3e305f9e	0.17223975
69	0x3cf0fa40	0.029416203
70	0x3e69bb1c	0.22825283
71	0xbddb37a0	-0.10703969
72	0xbe410c2c	-0.188523
73	0xbe113d44	-0.14183527
74	0xbde7c6f6	-0.11317246
75	0x3e8e8d78	0.27842307
76	0x3e56f660	0.20992422
77	0xbd86469c	-0.065564364
78	0x3e2b8eb2	0.16753653
79	0x3e633814	0.22189361
80	0xbe1bd343	-0.15217309
81	0x3e8b7537	0.27237865
82	0xbe48f7c8	-0.19625771
83	0xbd30486e	-0.043037824
84	0x3e1ff522	0.15620854
85	0xbd71df85	-0.059051055
86	0x3dc194b9	0.09452195
87	0xbe9713e3	-0.2950736
88	0xbe248f85	-0.16070373
89	0x3d4bf190	0.04979092
90	0x3ca50dc6	0.02014817
91	0xba186b43	-0.0005814323
92	0x3e156fb4	0.14593393
93	0xbe3de908	-0.18545926
94	0x3e1a43f2	0.15064982
95	0x3d34adf8	0.044111222
96	0x3d7f96f8	0.062399834
97	0xbd81019c	-0.06299135
98	0x3d96e2a4	0.07367447
99	0x3e2f775c	0.17135376
100	0x3e808ac9	0.25105885
101	0x3e7b65f4	0.24550611
102	0x3c0cd780	0.008596301
103	0xbe38afdc	-0.18035835
104	0x3e80c3ed	0.2514948
105	0xbd0db5d4	-0.034597233
106	0x3e2ae826	0.1669012
107	0x3e238188	0.15967381
108	0x3d5614e2	0.05226601
109	0xbe340a9a	-0.17582169
110	0x3e6ab9a4	0.22922379
111	0xbe558e48	-0.20855057
112	0x3e1de249	0.15418352
113	0xbe4952c0	-0.19660473
114	0x3e38a7cd	0.18032761
115	0xbe22c969	-0.15897144
116	0x3b504380	0.0031778514
117	0x3e587bd0	0.2114098
118	0x3de23f88	0.11047274
119	0xbd761050	-0.06007415
120	0x3e70dc12	0.2352145
121	0xbe717ebf	-0.23583506
122	0x3e34fe25	0.17675073
123	0xbe325f33	-0.17419128
124	0xbd8620f2	-0.065492526
125	0x3e3ebbd7	0.18626343
126	0xbe4b81cc	-0.19873732
127	0xbe1fb6bf	-0.15597056
128	0xbe1b914b	-0.15192144
129	0xbe18e432	-0.149308
130	0x3de2de2c	0.11077532
131	0xbe2d5c80	-0.16929817
132	0x3e0a29bc	0.13492483
133	0x3c2f1960	0.010687202
134	0xbe057a3c	-0.1303491
135	0x3e38fb2e	0.18064567
136	0xbe3acd57	-0.18242393
137	0xbe44e96d	-0.1922967
138	0x3ddc9ae2	0.10771729
139	0xbe60b011	-0.21942164
140	0xbdc5382c	-0.096298546
141	0x3e6b1fd4	0.2296136
142	0xbe3ebb1a	-0.18626061
143	0xbd1654b1	-0.03670186
144	0x3d7ae4f4	0.061253503
145	0xbe30b00d	-0.17254658
146	0xbdf3d7b2	-0.11906375
147	0x3c9361ec	0.017991029
148	0x3e492a49	0.19645037
149	0xbe6dfee3	-0.23241763
150	0xbd2e9f0f	-0.04263216
151	0x3e39e8d7	0.18155228
152	0xbe6e18cb	-0.23251645
153	0x3e0627a4	0.13101059
154	0xbd7d6063	-0.0618595
155	0x3db0e6a1	0.08637739
156	0xbe293ba7	-0.16526662
157	0xbda978f1	-0.08275021
158	0x3e8af7af	0.27142093
159	0xbe00679e	-0.12539527
160	0x3d953222	0.07284953
161	0xbe819503	-0.25309
162	0xbdfaffd1	-0.12255824
163	0x3e541902	0.20712665
164	0x3e565508	0.20930874
165	0x3d569bc0	0.05239463
166	0x3da3f3b8	0.0800547
167	0xbdbeeb44	-0.09322217
168	0x3d89c60c	0.067272276
169	0x3dc83c34	0.09777108
170	0xbe61c0f6	-0.22046265
171	0x3e2fc228	0.17163908
172	0xbdbc4d30	-0.0919441
173	0x3e7d40c2	0.24731734
174	0xbe12071d	-0.14260526
175	0x3e4c96ee	0.1997945
176	0xbe0f076e	-0.13967678
177	0xbdc5e60b	-0.09663018
178	0xbcf7a6bf	-0.030230878
179	0xbd7c2ec9	-0.061568055
180	0x3c0ba8f1	0.0085241655
181	0xbc324230	-0.010880038
182	0xbe2111e9	-0.15729488
183	0x3aaa6e61	0.0013002866
184	0xbe17aac7	-0.1481124
185	0xbe543092	-0.20721653
186	0x3e0b90f4	0.13629514
187	0x3e589060	0.21148825
188	0xbe2fd878	-0.1717242
189	0xbe03412c	-0.1281783
190	0xbe210a65	-0.15726621
191	0x3e3ce470	0.18446517
192	0xbe5e9546	-0.21736631
193	0x3e0f08e4	0.13968235
194	0x3df49228	0.119419396
195	0x3e7761a4	0.2415834
196	0xbd1de5f8	-0.038549393
197	0x3c1bd4c0	0.009511173
198	0x3e407ddc	0.18798012
199	0x3e4bc0fc	0.19897836
200	0xbe6f1a59	-0.23349895
201	0x3e4c462f	0.19948648
202	0x3cea86de	0.028628763
203	0xbe24a592	-0.16078785
204	0xbe3ce4b2	-0.18446615
205	0x3e292922	0.16519597
206	0xbe5138d6	-0.20431837
207	0x3e317f9a	0.17333832
208	0xbd32549d	-0.043537725
209	0xbd02e3e0	-0.0319556
210	0x3df88a42	0.121357456
211	0x3c92dcae	0.017927494
212	0x3e59824f	0.21241115
213	0xbe300939	-0.17191018
214	0xbdbe9066	-0.093048856
215	0xbc7ea511	-0.015542285
216	0x3e46f31c	0.19428676
217	0x3cf5ccd0	0.030004889
218	0xbe23aafb	-0.15983193
219	0x3c869a50	0.016431004
220	0x3e39a934	0.18130952
221	0xbd256873	-0.040382814
222	0xbe0518e2	-0.12997773
223	0xbe3a541f	-0.18196152
224	0xbd14707c	-0.036240086
225	0x3e55619c	0.20838016
226	0x3d9eb3e8	0.07749158
227	0xbdbeee2c	-0.093227714
228	0xbe4f248d	-0.20228787
229	0xbd05d1e3	-0.032670867
230	0x3e90e176	0.28297013
231	0xbe6c17d3	-0.23055963
232	0xbe66d19c	-0.22540897
233	0x3cf35e9d	0.029708201
234	0x3d89db81	0.0673132
235	0x3d434062	0.047668822
236	0xbe650993	-0.22366934
237	0x3dea9b09	0.11455352
238	0x3d39814e	0.04528933
239	0xbe00276f	-0.12515043
240	0x3e12ade4	0.14324147
241	0x3c0038c0	0.00782603
242	0x3e43124a	0.19049945
243	0xbc8d9b18	-0.017285869
244	0x3da4ca12	0.08046354
245	0xbe3ace81	-0.18242837
246	0xbe00b137	-0.12567602
247	0xbe2105ce	-0.1572487
248	0x3e582c3b	0.21110623
249	0xbe1bf020	-0.15228319
250	0x3c6468ae	0.013940973
251	0x3d014708	0.03156188
252	0xbdee9cd9	-0.1165101
253	0xbddb6200	-0.107120514
254	0xbe7648d8	-0.24051225
255	0x3e0b4c66	0.13603362

sequential/dense_1/MatMul f4 [90, 90]
0	0x3d80565c	0.06266472
1	0xbe0c4410	-0.13697839
2	0x3e2e499a	0.17020264
3	0x3dada7ec	0.08479294
4	0x3e237fa6	0.15966663
5	0x3e0dc458	0.1384443
6	0xbdc28909	-0.09498794
7	0xbc808a88	-0.015691057
8	0x3d505fcc	0.05087261
9	0xbd357868	-0.04430428
10	0xbe1b0cd3	-0.15141611
11	0xbe30cd13	-0.1726573
12	0x3d45ea58	0.04831919
13	0xbe26d285	-0.16291244
14	0xbd22f300	-0.039782524
15	0xbdfeca4b	-0.12440928
16	0xbe3a1d81	-0.18175317
17	0x3e21a038	0.15783775
18	0xbd8bbf40	-0.068235874
19	0xbdee8944	-0.11647275
20	0x3cfb7130	0.03069362
21	0x3dc0dad8	0.09416741
22	0x3d042f4c	0.03227167
23	0xbda8192b	-0.082079254
24	0xbd4f9c2c	-0.050686046
25	0x3e242df8	0.1603316
26	0xbe245839	-0.1604928
27	0x3e11fb70	0.14256072
28	0x3e364b32	0.17802122
29	0xbd08e4fc	-0.0334215
30	0x3d22798c	0.039666697
31	0x3e23d702	0.15999988
32	0x3d521dc8	0.051297933
33	0xbe1d08f4	-0.15335447
34	0x3dc17884	0.09446815
35	0x3e25d1a4	0.16193253
36	0xbbb45380	-0.005503118
37	0xbd90a8aa	-0.0706342
38	0xbe20bab8	-0.15696228
39	0xbdb880a6	-0.09008913
40	0xbe110bea	-0.14164701
41	0x3c26c4a0	0.010178715
42	0xbdb71d8b	-0.08941182
43	0xbca9d608	-0.02073194
44	0xbe01bf9c	-0.1267075
45	0xbdd2a57a	-0.102854684
46	0x3cf8bef8	0.030364498
47	0xbdfcb10c	-0.123384565
48	0x3e3a101e	0.1817021
49	0xbd4f03e8	-0.050540835
50	0x3e1b2c8a	0.15153709
51	0xbe09a347	-0.13441192
52	0xbd2d8800	-0.042366028
53	0x3a11e600	0.00055655837
54	0x3e0e16a2	0.13875821
55	0x3e0774f8	0.13228214
56	0xbd7b9b66	-0.061427496
57	0x3d429e4c	0.047514245
58	0xbdaea903	-0.0852833
59	0xbd18e8a4	-0.03733124
60	0xbde32f6b	-0.11093029
61	0xbdf1dd1d	-0.11809752
62	0xbc1265f0	-0.008935437
63	0xbe34ab7c	-0.17643541
64	0x3e34712c	0.17621297
65	0x3d3de2c8	0.046358854
66	0xbc9b8f30	-0.018989176
67	0x3d9901fc	0.074710816
68	0xbdbd7b2d	-0.092520095
69	0x3dceffc0	0.10107374
70	0x3dce2de8	0.1006735
71	0x3e2c2966	0.16812667
72	0x3d64d8f4	0.055870965
73	0xbd2b55e4	-0.04182996
74	0x3e2b6012	0.16735867
75	0xbe3990b8	-0.18121612
76	0x3d1007e8	0.03516379
77	0xbdf7caa0	-0.120991945
78	0xbd4d4244	-0.050112024
79	0xbe11e265	-0.14246519
80	0xbd517284	-0.0511346
81	0x3d9a6ecc	0.07540664
82	0xbc113700	-0.008863211
83	0xbe37f2ed	-0.17963763
84	0x3dd1af50	0.10238516
85	0xbdc29662	-0.095013395
86	0x3e0a4a2a	0.13504854
87	0x3e238fa8	0.1597277
88	0x3dbf2a4c	0.09334239
89	0xbe1851f4	-0.14875013
90	0xbd9d44f0	-0.076791644
91	0x3c1e2c30	0.00965409
92	0xbe0b0069	-0.13574375
93	0xbdda058f	-0.106455915
94	0x3a410822	0.00073635776
95	0x3dee2ed0	0.116300225
96	0x3dc3bfa5	0.09558038
97	0x3d09d1bc	0.033647284
98	0xbda64bc8	-0.08119923
99	0x3e095534	0.13411409
100	0x3cd853ae	0.02640709
101	0xbda116c3	-0.078656696
102	0xbdd7a069	-0.10528643
103	0x3dfacf7c	0.12246606
104	0x3d44e19c	0.04806672
105	0x3e270842	0.16311744
106	0x3d4fb9bc	0.05071424
107	0xbdd25565	-0.10270194
108	0xbbc3dd63	-0.005977319
109	0x3d85ddfe	0.06536482
110	0x3e2e16c3	0.1700087
111	0xbda63b88	-0.081168234
112	0xbd18f39c	-0.0373417
113	0xbe336e8f	-0.17522644
114	0xbdec03de	-0.11524175
115	0xbdf84aee	-0.12123667
116	0xbd52d724	-0.051474705
117	0x3d902dae	0.07039963
118	0xbdd80414	-0.10547653
119	0xbd260f08	-0.04054168
120	0x3c7dfce0	0.015502185
121	0x3dbe15de	0.092815146
122	0x3d232ebd	0.039839495
123	0xbe253fd8	-0.16137636
124	0xbd9cb2ec	-0.07651314
125	0x3e22d7ca	0.1590263
126	0x3d272aef	0.04081243
127	0xb9364c00	-0.00017385185
128	0x3d735a01	0.059412006
129	0xbce69a56	-0.028149765
130	0xbd1eeb48	-0.0387986
131	0x3d93442c	0.07190737
132	0xbd9d5dc5	-0.07683901
133	0x3df9fd4c	0.12206516
134	0xbe15c15c	-0.14624542
135	0xbca62b83	-0.02028442
136	0x3dfaf9bb	0.122546636
137	0xbe112ff6	-0.14178452
138	0xbcdfb698	-0.027308747
139	0x3c860020	0.016357481
140	0x3c879ccd	0.01655426
141	0xbe3a18d9	-0.18173541
142	0x3db20f98	0.086943805
143	0x3cc9ed87	0.024649395
144	0x3e285482	0.16438487
145	0xbc4dfed0	-0.012572959
146	0xbdd86a3a	-0.10567136
147	0xbe14770c	-0.14498538
148	0xbc07cd01	-0.008288623
149	0xbe2ae1ad	-0.16687651
150	0xbdc58d2a	-0.096460655
151	0x3da0c49f	0.078500025
152	0xbd0e1390	-0.034686625
153	0x3d94025a	0.07227011
154	0x3ddae583	0.10688307
155	0xbd3b0ae8	-0.045664698
156	0xbda7df74	-0.08196917
157	0x3dc7fe89	0.097653456
158	0xbc471e00	-0.012153149
159	0xbcf74239	-0.030182945
160	0x3e1c06fc	0.1523704
161	0x3da5d4a2	0.08097197
162	0x3e210700	0.15725327
163	0x3c62aa33	0.013834524
164	0xbded903b	-0.115997754
165	0xbd074408	-0.033023864
166	0x3e078ed3	0.13238077
167	0xbcaebba0	-0.021329701
168	0xbd9f46c0	-0.07777166
169	0x3dd72dbe	0.105067715
170	0xbd64767a	-0.05577705
171	0xbe0e90f8	-0.13922489
172	0xbdd36e3a	-0.103237584
173	0xbdc18b8c	-0.094504446
174	0xbc2e4460	-0.010636419
175	0xbe32c074	-0.17456228
176	0x3c042a0d	0.008066666
177	0x3dc795d4	0.09745374
178	0x3db5e884	0.088822395
179	0x3e1eeee0	0.15520811
180	0xbc32f0c0	-0.010921657
181	0xbd4f4060	-0.050598502
182	0x39db3400	0.00041809678
183	0x3e3800f6	0.17969117
184	0x3d04c1b0	0.032411277
185	0xbe1d5f61	-0.15368415
186	0xbe152944	-0.14566523
187	0x3c72d880	0.014822125
188	0x3d1b8c1c	0.037975416
189	0x3e288df8	0.16460407
190	0xbdb5ad56	-0.08870952
191	0x3dbafcfc	0.09130284
192	0xbde629e4	-0.11238459
193	0x3def08d0	0.11671603
194	0xbe3407b7	-0.17581068
195	0x3e2963e6	0.16542014
196	0xbd30a0ec	-0.043122217
197	0x3cc08788	0.023502126
198	0x3d8726fe	0.06599234
199	0x3b9a6cc0	0.004712671
200	0xbc91b3e8	-0.017785981
201	0xbda28929	-0.079363175
202	0x3e2dc104	0.16968161
203	0x3e3175cc	0.17330092
204	0xbe2c0ec0	-0.16802502
205	0x3b9dc100	0.004814267
206	0xbd2687c0	-0.040656805
207	0xbd47521c	-0.04866229
208	0xbbe9ef40	-0.0071391165
209	0x3a832680	0.0010005981
210	0x3dfa56ec	0.1222361
211	0xbd271378	-0.04079005
212	0x3c727360	0.014798015
213	0xbde03211	-0.109470494
214	0xbe22f24f	-0.15912746
215	0xbd878664	-0.0661743
216	0x3c47d3a0	0.012196451
217	0xbe1f1060	-0.1553359
218	0xbdcd57a0	-0.10026479
219	0xbe074845	-0.13211162
220	0xbbdb9640	-0.006701261
221	0x3e3a3ba4	0.18186814
222	0x3da7bb00	0.08189964
223	0xbd7f040e	-0.062259726
224	0xbe378ec0	-0.17925549
225	0x3d6d2b00	0.057902336
226	0x3d8470ce	0.06466828
227	0x3e2acb30	0.16679072
228	0xbe1536f5	-0.14571746
229	0xbc8f1148	-0.017464295
230	0xbd3bf3c8	-0.045886785
231	0xbd41be90	-0.047300875
232	0xbe2948b0	-0.16531634
233	0x3d30b700	0.043143272
234	0xbe270249	-0.16309465
235	0xbe13b9de	-0.14426371
236	0x3e12f63e	0.14351746
237	0x3c964880	0.018345118
238	0x3e3506fa	0.17678443
239	0xbdeef93b	-0.11668631
240	0xbce70288	-0.02819945
241	0x3d326938	0.043557376
242	0x3db5d1b0	0.08877885
243	0xbdc74f2f	-0.097319
244	0xbd361354	-0.044452026
245	0xbdc2f209	-0.09518821
246	0x3e19b804	0.15011603
247	0x3e1f3308	0.1554681
248	0xbde65f9d	-0.112487055
249	0xbe323b3d	-0.1740541
250	0xbd943662	-0.07236935
251	0xbe36b513	-0.17842512
252	0x3e21d1fe	0.15802762
253	0xbd012a54	-0.031534508
254	0xbe34ec20	-0.176682
255	0xbe1023da	-0.14076176

sequential/dense_2/MatMul f4 [64, 90]
0	0x3d2890ac	0.041153595
1	0x3dde5def	0.1085776
2	0xbe354812	-0.17703274
3	0x3e39cbcd	0.1814415
4	0xbe38381b	-0.17990153
5	0x3d05aa77	0.03263327
6	0x3dd4cc3a	0.103905156
7	0x3d5e0ea4	0.05421318
8	0x3c7b12b8	0.015324287
9	0xbd7e706b	-0.06211893
10	0x3e3421b2	0.17590979
11	0xbdcc71be	-0.09982632
12	0x3da1e606	0.079052016
13	0x3e3406ca	0.17580715
14	0x3cd1a9a8	0.025593594
15	0xbe2d8881	-0.16946603
16	0x3de39b82	0.11113645
17	0xbda755b6	-0.08170645
18	0x3ea872eb	0.32900175
19	0xbe21fe85	-0.15819748
20	0x3e53ed56	0.20696005
21	0xbe3100f5	-0.17285521
22	0x3e418c76	0.18901238
23	0x3d69be26	0.057066105
24	0xbd744edb	-0.059645515
25	0xbd92326f	-0.07138526
26	0x3ca9931d	0.020700032
27	0xbde0a82d	-0.10969577
28	0x3e076883	0.13223462
29	0x3e31fbb5	0.17381175
30	0x3e16559d	0.14681096
31	0x3d4cfe7c	0.050047383
32	0x3dfdcdb6	0.12392752
33	0xbe03fb52	-0.1288884
34	0x3e023d7f	0.12718771
35	0xbe111170	-0.14166808
36	0xbe0084ed	-0.12550707
37	0xbdda134c	-0.10648212
38	0x3d52b0ad	0.051438022
39	0xbe296646	-0.1654292
40	0x3d192f99	0.03739891
41	0x3e1e3bf9	0.15452565
42	0xbdb1b8f5	-0.08677856
43	0xbce089f3	-0.02740953
44	0x3dd1b0a6	0.10238771
45	0x3da08d16	0.0783941
46	0x3da2b8a9	0.079453774
47	0x3e9aa23c	0.302019
48	0x3d95549c	0.072915286
49	0x3dfc4ac8	0.12318951
50	0x3d2a6760	0.041602492
51	0x3d113dc1	0.035459284
52	0x3d868c26	0.065697
53	0x3e03c555	0.12868245
54	0xbd96aecc	-0.073575586
55	0x3d85a13a	0.06524892
56	0xbdba6d33	-0.09102859
57	0xbaf9c1ad	-0.0019054912
58	0xbd8e9e52	-0.06963791
59	0x3c89bd88	0.016814008
60	0xbdca178e	-0.09867774
61	0x3e4f8e84	0.20269209
62	0xbc1ee8b9	-0.00969904
63	0xbe356d37	-0.17717443
64	0x3db9087e	0.09034823
65	0xbe12245d	-0.14271684
66	0xbe27c6e0	-0.16384459
67	0xbb36d816	-0.0027899793
68	0x3d052be6	0.032512568
69	0x3d9f4cec	0.077783436
70	0xbdd7c992	-0.10536493
71	0x3d341afd	0.04397105
72	0xbe1daf85	-0.15398987
73	0xbeb25a5c	-0.34834564
74	0xbd23f7d0	-0.040031254
75	0x3de76683	0.112988494
76	0x3f1dba30	0.61612225
77	0xbdfb1c56	-0.12261264
78	0xbce8cd8a	-0.028418321
79	0xbf0b739b	-0.54473275
80	0xbd916ae8	-0.07100469
81	0xbe49be6f	-0.19701551
82	0x3e463629	0.19356598
83	0xbe07aabe	-0.13248727
84	0xbe8cc90e	-0.27497143
85	0xbd8cdde1	-0.068782575
86	0x3e1c365b	0.1525511
87	0x3e7c2684	0.24624068
88	0xbe630b9c	-0.22172397
89	0x3db4d6fa	0.08830066
90	0x3dd84c2e	0.10561405
91	0x3db1fcd1	0.08690799
92	0x3de25f4e	0.11053334
93	0x3e1ffe03	0.15624242
94	0xbd3d0a00	-0.046152115
95	0x3d2fb719	0.042899225
96	0x3d079ce8	0.03310862
97	0x3c243fe0	0.010024995
98	0xbc904735	-0.01761208
99	0xbd290066	-0.041260146
100	0xbe38498d	-0.17996807
101	0x3e4aa4a1	0.19789363
102	0x3e189005	0.14898689
103	0xbceee1e8	-0.029160455
104	0xbe26c286	-0.16285142
105	0x3dc17a44	0.094471484
106	0xbdc49a51	-0.09599746
107	0x3e36ecaf	0.17863725
108	0x3d51d76b	0.05123083
109	0xbde64174	-0.11242953
110	0x3d0781be	0.033082716
111	0x3e46ad13	0.1940196
112	0xbe0e0d29	-0.13872208
113	0x3e47d964	0.19516522
114	0x3e0234db	0.12715475
115	0x3df37903	0.118883155
116	0x3d8490dc	0.06472942
117	0xbe1a8459	-0.15089549
118	0x3b2f80be	0.0026779617
119	0x3c1dab90	0.009623423
120	0x3e332a58	0.17496622
121	0xbd38dfe8	-0.04513541
122	0x3dfbbf2e	0.12292324
123	0xbdcefd30	-0.101068854
124	0x3e46c0a5	0.19409426
125	0xbb79a6a0	-0.00380937
126	0xbd3b4e17	-0.04572877
127	0xbe1af1e4	-0.15131336
128	0x3dfefc08	0.12450415
129	0xbd4d427c	-0.050112233
130	0xbc98c8c9	-0.01865043
131	0xbd993396	-0.07480542
132	0x3e030aaf	0.12797044
133	0xbdb9ecd6	-0.09078376
134	0xbd9bdf4e	-0.07610951
135	0xbd459e28	-0.048246533
136	0xbe65e526	-0.22450694
137	0xbca91f4e	-0.02064481
138	0xbe0df97e	-0.13864705
139	0xbe68f9e6	-0.22751579
140	0xbe295c42	-0.165391
141	0x3e29f689	0.16597952
142	0xbd33f26c	-0.043932363
143	0xbe013676	-0.12618431
144	0xbd3a712b	-0.04551808
145	0x3d272cc8	0.04081419
146	0x3d997536	0.07493059
147	0x3d901053	0.070343636
148	0x3cd87cd0	0.026426703
149	0xbd086664	-0.033300772
150	0xbd8c14e6	-0.068399236
151	0x3d00d24a	0.031450547
152	0x3daa092c	0.08302531
153	0xbe3072a6	-0.17231235
154	0xbca34d60	-0.019934356
155	0xbdcfd396	-0.10147779
156	0x3dfaa2bf	0.122380726
157	0xbdd2989c	-0.10283014
158	0x3e277f34	0.16357118
159	0x3d6a225b	0.05716167
160	0x3df4c113	0.119508885
161	0x3d2d108e	0.042252116
162	0xbe49a767	-0.19692765
163	0x3db2b785	0.0872641
164	0x3dca41f6	0.09875862
165	0xbe372695	-0.17885812
166	0x3d844784	0.06458953
167	0x3e24e9b2	0.16104773
168	0x3e5123ac	0.20423764
169	0x3c0a00fc	0.008423086
170	0x3d981eba	0.074277356
171	0xbdfc3989	-0.123156615
172	0x3dcb04aa	0.09912999
173	0xbe2f77c6	-0.17135534
174	0x3d5ecae1	0.0543927
175	0x3df6c05e	0.1204841
176	0x3d6231c4	0.05522324
177	0xbe82ed14	-0.255715
178	0x3e4e988e	0.20175382
179	0xbd2d7154	-0.042344406
180	0x3d128160	0.035767913
181	0xbe1a0e5a	-0.15044537
182	0xbdd8ca0b	-0.10585412
183	0xbe379844	-0.17929178
184	0xbd4fc3a7	-0.050723698
185	0x3e0d2ba7	0.13786183
186	0xbdb25641	-0.08707858
187	0xbd8f7bbe	-0.07006024
188	0x3c460fee	0.012088759
189	0xbdb2e2d1	-0.08734668
190	0x3da7992e	0.081835136
191	0xbde48e3e	-0.11159943
192	0x3c0acac0	0.008471191
193	0xbe0c489e	-0.13699576
194	0xbe18369a	-0.14864579
195	0x3d55b7d3	0.05217726
196	0xbe178620	-0.14797258
197	0x3d049e34	0.032377437
198	0xbda3797d	-0.079821564
199	0x3e32e7d7	0.17471252
200	0xbdef3a57	-0.11681049
201	0x3d1ccfc4	0.03828408
202	0x3d142df9	0.036176655
203	0x3e1290e1	0.1431308
204	0xbdbcddcb	-0.09221991
205	0xbac019d6	-0.0014656137
206	0xbdbe9e8c	-0.09307584
207	0x3a5d4d1d	0.0008441972
208	0x3e05b45a	0.1305708
209	0xbb85ade0	-0.0040795654
210	0x3cc2938a	0.023751993
211	0x3c807d00	0.015684605
212	0xbba4bc40	-0.005027324
213	0xbd1f46d3	-0.038885903
214	0xbe1f8220	-0.15576982
215	0xbe23ed5d	-0.16008516
216	0xbdae9366	-0.08524208
217	0xbd967813	-0.07347121
218	0x3e38cf9c	0.18047947
219	0x3cca4a28	0.024693564
220	0xbe444a4b	-0.19168966
221	0xbdb706da	-0.08936854
222	0xbe275ff2	-0.16345194
223	0x3e33336a	0.17500082
224	0xbde55310	-0.111974835
225	0x3c6295e0	0.013829678
226	0x3d9f7ceb	0.07787498
227	0x3ce48a69	0.02789803
228	0x3d27c84b	0.0409625
229	0xbdab4351	-0.08362449
230	0x3dceb31a	0.10092755
231	0xbc83eae6	-0.01610322
232	0xbe27c55c	-0.1638388
233	0xbe858231	-0.2607589
234	0xbb589c7b	-0.0033052254
235	0xbd9c174a	-0.076216295
236	0xbe24055a	-0.16017666
237	0x3e20773b	0.15670483
238	0xbd3dae20	-0.046308637
239	0xbdd8a515	-0.10578362
240	0x3db4e5ae	0.088328704
241	0xbe29ec87	-0.16594134
242	0xbdc49229	-0.0959819
243	0xbd3875b5	-0.04503413
244	0x3e2ca8f5	0.16861327
245	0xbe245142	-0.16046622
246	0xbe3d6242	-0.18494514
247	0xbd362515	-0.044468958
248	0xbd5c56b4	-0.053793624
249	0x3e33a2bf	0.17542551
250	0xbde839c0	-0.1133914
251	0x3f290c19	0.66034085
252	0xbe488285	-0.19581039
253	0x3df1d1ef	0.1180762
254	0xbc87321b	-0.016503384
255	0x3e1b0f60	0.15142584

sequential/dense_3/MatMul f4 [32, 64]
0	0xbe1ea195	-0.15491326
1	0x3db4d80d	0.08830271
2	0x3e185d9f	0.14879464
3	0xbeab126e	-0.33412498
4	0xbd6a78d6	-0.057244144
5	0xbe017b7b	-0.1264476
6	0x3df7028b	0.12061032
7	0xbdfa92c5	-0.12235025
8	0x3e62e58c	0.22157878
9	0x3b4a0406	0.0030825152
10	0xbe40dd8d	-0.18834515
11	0xbe82376c	-0.2543291
12	0xbc708f91	-0.014682666
13	0xbd04ddb6	-0.032438003
14	0x3cad9739	0.021190273
15	0x3d8733a6	0.06601648
16	0x3e21a025	0.15783747
17	0xbe89a49c	-0.268834
18	0xbd79555c	-0.06087242
19	0xbe19f8b3	-0.15036277
20	0x3d0fa630	0.035070598
21	0xbd0b2fc9	-0.03398112
22	0x3d0e7b52	0.034785576
23	0xbe0a0a5e	-0.13480517
24	0x3e43245f	0.19056843
25	0x3e2ea03b	0.1705331
26	0x3d99588e	0.074875936
27	0xbe5c364e	-0.2150509
28	0x3e3e861c	0.18605846
29	0x3c676a0d	0.014124406
30	0x3e405dd2	0.1878579
31	0xbcd7992d	-0.026318157
32	0x3df50572	0.11963929
33	0x3df97159	0.121798225
34	0xbc50fb0a	-0.012755165
35	0xbe36a9fe	-0.17838284
36	0xbe750982	-0.23929408
37	0xbe8850e6	-0.2662422
38	0xbd71044a	-0.05884198
39	0xbf1a0ed3	-0.6017887
40	0xbe698cd8	-0.22807634
41	0x3e585ebb	0.21129887
42	0xbea8cb4b	-0.329676
43	0x3dd92375	0.10602466
44	0xbd2a7011	-0.04161078
45	0x3e1a59ab	0.15073268
46	0xbe36a287	-0.17835437
47	0x3df1665c	0.117871016
48	0xbe04ab45	-0.12955959
49	0xbd830438	-0.06397289
50	0xbe0e557b	-0.13899796
51	0xbe29b49d	-0.16572805
52	0xbdae08f2	-0.084978
53	0xbda3afa0	-0.07992482
54	0x3ce562a1	0.028001131
55	0x3d966563	0.07343557
56	0x3d839efc	0.06426808
57	0xbeb7bc21	-0.35885718
58	0xbe3c2d5d	-0.1837668
59	0x3d9d3cff	0.0767765
60	0xbebb79c6	-0.36616343
61	0xbe11dec9	-0.14245142
62	0x3c4fd4d9	0.012685024
63	0xbd69454e	-0.05695086
64	0x3e0e333c	0.13886732
65	0xbcbfc8ae	-0.023411121
66	0x3e4eeddb	0.20207922
67	0xbe6c3203	-0.23065953
68	0x3d267f94	0.04064901
69	0x3e82e8ca	0.2556823
70	0x3e98861f	0.29789826
71	0x3cff7720	0.031184733
72	0x3dd9c9af	0.10634171
73	0x3db82c2e	0.089928016
74	0xbe33724b	-0.17524068
75	0x3e176d63	0.14787821
76	0x3d243da5	0.04009785
77	0xbe971df2	-0.29515034
78	0xbe56eaf9	-0.20988072
79	0x3df0099d	0.117205836
80	0xbe2f32a8	-0.17109168
81	0x3c8eefee	0.017448392
82	0x3e50bb66	0.20383987
83	0x3e5b5f78	0.21423137
84	0xbd893756	-0.067000076
85	0xbd8bb905	-0.06822399
86	0x3e95977b	0.29217133
87	0xbd5376ec	-0.051627085
88	0x3e2576bb	0.16158573
89	0xbbc09d60	-0.0058781356
90	0xbdc7ee95	-0.09762303
91	0xbd959aa4	-0.07304886
92	0x3d4a94c0	0.049458265
93	0xbe05ce8e	-0.13067076
94	0x3e5388bf	0.20657633
95	0x3e99fdc5	0.30076423
96	0x3e67edd1	0.22649314
97	0x3d68299d	0.05668031
98	0x3de29f61	0.11065555
99	0x3adb1f92	0.0016717783
100	0xbe61bb60	-0.22044134
101	0xbe1bf640	-0.15230656
102	0x3e534af9	0.20634069
103	0x3db7ea60	0.0898025
104	0x3d5c246c	0.053745672
105	0x3e0e7121	0.13910343
106	0x3da44485	0.080208816
107	0x3e1cbe12	0.15306881
108	0xbdce72ae	-0.10080467
109	0x3e92a7b6	0.28643578
110	0x3dbdcf5c	0.09268066
111	0xbc8891dd	-0.016671116
112	0x3d8dfdd2	0.06933178
113	0xb99a0300	-0.00029375404
114	0xbf256fae	-0.64623535
115	0x3d0b61b6	0.03402873
116	0xbda4b443	-0.08042195
117	0x3d8c9bec	0.06865677
118	0xbe4bc38b	-0.19898812
119	0xbe3af228	-0.18256438
120	0x3e42179e	0.18954322
121	0x3d1235c2	0.0356958
122	0xbe792961	-0.24332191
123	0xbd832f4c	-0.064055055
124	0x3da38360	0.07984042
125	0x3ddcf814	0.10789505
126	0x3e43e4ae	0.19130203
127	0xbe02690c	-0.12735385
128	0xbbb93286	-0.005651775
129	0x3c422c52	0.011851387
130	0xbe406efb	-0.18792336
131	0xbe6a8d67	-0.22905503
132	0xbeaec586	-0.34135073
133	0xbd826932	-0.06367721
134	0x3cd64a1f	0.02615839
135	0xbe8eaeab	-0.27867636
136	0x3d6e12fd	0.058123577
137	0xbe7578b7	-0.2397183
138	0x3d98016b	0.074221455
139	0x3e240488	0.16017354
140	0x3dae7f30	0.08520353
141	0x3d9122d0	0.07086718
142	0xbe32345b	-0.17402785
143	0xbe5d75cb	-0.21626966
144	0x3e070e48	0.13189042
145	0xbd494bc1	-0.04914451
146	0x3e0d38bf	0.13791178
147	0x3e4506aa	0.19240823
148	0xbe76eade	-0.24113032
149	0xbe6f62de	-0.23377559
150	0xbc287383	-0.010281446
151	0x3db9f697	0.090802364
152	0x3e12edf7	0.14348589
153	0xbd784faa	-0.06062285
154	0x3e429281	0.190012
155	0x3d65def2	0.05612082
156	0x3cf658f6	0.030071717
157	0x3e3135f2	0.17305735
158	0xbde900b6	-0.11377089
159	0xbdde725e	-0.108616576
160	0x3e5f7e2d	0.21825476
161	0xbe579b65	-0.21055372
162	0xbe8d125c	-0.2755307
163	0x3e3bfed1	0.18358923
164	0xbdc79b9f	-0.09746479
165	0x3eb692ec	0.35658967
166	0xbe11335b	-0.14179747
167	0x3e1c2a4d	0.15250511
168	0xbe745842	-0.23861793
169	0x3e15d2ff	0.1463127
170	0xbf14849f	-0.58014864
171	0x3e4e18a0	0.20126581
172	0x3d48b7aa	0.04900328
173	0xbe6b4880	-0.22976875
174	0x3ceaed02	0.028677467
175	0xbe00422c	-0.12525243
176	0xbd080e03	-0.033216488
177	0x3e497348	0.19672883
178	0x3e2a83b2	0.166518
179	0xbe70ad70	-0.23503661
180	0x3d958e73	0.07302561
181	0xbd14b9a5	-0.036309857
182	0xbd872840	-0.06599474
183	0x3db77e63	0.08959653
184	0xbd6428a3	-0.055702817
185	0x3dc73733	0.09727325
186	0xbdd1099c	-0.10206911
187	0xbe55d2aa	-0.20881143
188	0x3dc21a73	0.09477701
189	0xbf1179b0	-0.56826305
190	0x3e268f1c	0.1626553
191	0xbe9943b9	-0.2993448
192	0x3e614e15	0.22002442
193	0xbe04a5c0	-0.12953854
194	0x3e6723aa	0.22572199
195	0x3e4ca6e8	0.19985545
196	0xbe97512e	-0.29554123
197	0xbd1272cc	-0.03575401
198	0xbe335c01	-0.17515565
199	0xbe8a3fe0	-0.27001858
200	0xbd39711b	-0.04527388
201	0x3c5af45a	0.013363922
202	0xbd416de8	-0.047223955
203	0xbe53ff8b	-0.2070295
204	0x3e3ec2bc	0.18628973
205	0x3e3693eb	0.17829864
206	0x3d28bebf	0.041197535
207	0xbd46d7e9	-0.04854575
208	0xbc821a86	-0.015881788
209	0x3ddf0f2b	0.10891565
210	0xbe0c4f15	-0.13702042
211	0xbe004fdd	-0.12530465
212	0x3eaad47c	0.33365238
213	0x3e382302	0.17982104
214	0x3db2bc75	0.087273516
215	0xbe715672	-0.23568133
216	0xbd42cc01	-0.047557835
217	0x3d025517	0.03181943
218	0xbda33a2f	-0.07970082
219	0x3e351cd3	0.17686777
220	0xbe200e81	-0.15630533
221	0x3e04dfa7	0.12975942
222	0x3abde3d8	0.0014487458
223	0xbe0b4a18	-0.13602483
224	0x3d8fbe9b	0.07018777
225	0x3ddec20a	0.10876854
226	0x3c7dcd0f	0.015490784
227	0x3e2df446	0.16987714
228	0xbd889a99	-0.06670112
229	0xbf1c95ff	-0.61166376
230	0x3ebbbef5	0.36669126
231	0xbe927138	-0.28602004
232	0xbd812c8a	-0.06307323
233	0xbe158589	-0.14601721
234	0x3c47e3c1	0.012200297
235	0xbead5166	-0.33851165
236	0x3bcc4b80	0.0062345862
237	0xbd98e07e	-0.074646935
238	0x3d1d7bfb	0.038448315
239	0xbc9e22a2	-0.019303624
240	0x3cbc5b44	0.022992738
241	0x3daa621d	0.08319495
242	0xbd508ccd	-0.050915528
243	0xbd8f68d9	-0.0700242
244	0xbe1b01b9	-0.15137376
245	0xbe87bd66	-0.26511687
246	0x3d9fc8bc	0.07801959
247	0xbe766b67	-0.24064408
248	0xbdee4240	-0.1163373
249	0xbe072d78	-0.13200939
250	0x3d35f79e	0.0444256
251	0x3e8d9b61	0.27657607
252	0xbdefdd0a	-0.11712082
253	0x3bf7655e	0.0075499257
254	0xbe68e244	-0.22742563
255	0x3eb81ad9	0.35957983

sequential/dense_4/MatMul f4 [7, 32]
0	0xbe676e56	-0.22600684
1	0xbd74f289	-0.059801612
2	0x3e81e78f	0.25371978
3	0xbead21eb	-0.3381494
4	0xbcaf6e0f	-0.021414785
5	0x3ed32ad3	0.4124361
6	0xbd06b48c	-0.032887027
7	0xbe409cf3	-0.18809871
8	0xbf355b74	-0.7084267
9	0xbcaac2df	-0.020844875
10	0xbcb2336e	-0.02175304
11	0x3e117988	0.14206517
12	0xbe4365f5	-0.19081862
13	0xbdea39fc	-0.11436841
14	0x3eb1ae6c	0.34703386
15	0xbe958c91	-0.29208806
16	0xbef14926	-0.4712612
17	0xbecdc0c9	-0.40186146
18	0x3e82c879	0.25543573
19	0x3e2e9361	0.17048408
20	0xbe833422	-0.25625712
21	0x3e39156d	0.1807458
22	0xbeb02d74	-0.34409678
23	0xbded3c1f	-0.11583733
24	0x3e83db8a	0.25753433
25	0x3d6fcdc7	0.058545854
26	0x3e447d10	0.19188333
27	0xbebb3c25	-0.36569324
28	0xbf133d0a	-0.57515013
29	0xbca33645	-0.019923339
30	0x3e0b5ee0	0.1361041
31	0x3d89ded3	0.067319535
32	0xbd0ac01e	-0.033874623
33	0xbe2edb23	-0.17075782
34	0x3e7f3453	0.24922304
35	0x3e86c6f3	0.2632366
36	0x3e126b12	0.14298657
37	0x3ec7ee98	0.3904922
38	0x3e868008	0.26269555
39	0x3e4d0e51	0.20024993
40	0x3d5dbd06	0.054135345
41	0x3e1f1c76	0.155382
42	0x3e54c42f	0.20777963
43	0xbdaf3fa7	-0.085570626
44	0x3e110d2f	0.14165185
45	0x3e9019da	0.28144723
46	0x3ea49430	0.32144308
47	0x3e0a28e8	0.13492167
48	0x3e9748e5	0.29547802
49	0x3d9a788c	0.07542524
50	0x3e23e646	0.16005811
51	0x3db58424	0.088630944
52	0x3e924bb5	0.28573385
53	0x3d9ad6db	0.07560512
54	0xbe42a868	-0.19009554
55	0x3d598151	0.05310184
56	0x3e0cab27	0.13737164
57	0xbdd0548b	-0.10172375
58	0xbc348c26	-0.011019742
59	0xbdba8119	-0.09106655
60	0x3e0fcf31	0.14043881
61	0x3c5cfb28	0.013487615
62	0x3df5347a	0.119729
63	0xbe1eef8d	-0.15521069
64	0xbe1e2f34	-0.15447694
65	0xbd7b87ed	-0.061408926
66	0xbe6f853c	-0.23390669
67	0xbe5ea02d	-0.2174079
68	0xbd98a3eb	-0.0745314
69	0x3e8ce1c0	0.27515984
70	0x3e84ed31	0.25962213
71	0x3e8caa2e	0.27473587
72	0xbedd5afa	-0.43233472
73	0xbe33c907	-0.17557155
74	0x3eb2e713	0.3494192
75	0xbe136f19	-0.14397849
76	0x3e7e6a84	0.2484532
77	0x3eab0566	0.33402556
78	0x3e55346c	0.20820779
79	0x3e8b62c0	0.27223778
80	0xbf150ea4	-0.58225465
81	0x3e73578f	0.2376387
82	0x3dbfa450	0.09357512
83	0x3c86c496	0.016451161
84	0x3d8c8305	0.068609275
85	0xbeb4df3a	-0.35326558
86	0xbe519963	-0.20468669
87	0x3e356ef5	0.17718108
88	0xbe8657f8	-0.2623899
89	0xbeb607c0	-0.35552788
90	0x3e28779a	0.16451874
91	0x3e147c4e	0.14500543
92	0x3e4b478f	0.19851516
93	0x3ea465a2	0.3210879
94	0x3d654031	0.05596942
95	0x3e42fcaa	0.19041696
96	0x3e716e61	0.23577262
97	0xbf09da39	-0.53848606
98	0x3d8fdab1	0.07024134
99	0xbe34c749	-0.17654146
100	0x3ea2e094	0.31811965
101	0x3ec0a787	0.37627813
102	0xbd9c545f	-0.0763328
103	0x3e16e4f8	0.14735782
104	0xbbf8b8c6	-0.007590386
105	0x3eb8ad4a	0.3606971
106	0x3eae71a3	0.34071073
107	0xbea7366b	-0.32658705
108	0x3e67e106	0.22644433
109	0x3e9a7cd4	0.3017336
110	0xbc65772a	-0.014005462
111	0x3e8e64d3	0.27811298
112	0xbcd683bb	-0.02618586
113	0x3e2d3c14	0.16917449
114	0xbe83d6cc	-0.25749815
115	0xbe4b1d9c	-0.19835514
116	0xbe54b9a5	-0.20773943
117	0x3e1fa047	0.15588485
118	0xbe55cf44	-0.20879847
119	0xbe7b9fcc	-0.24572676
120	0x3e6993ab	0.22810237
121	0xbdb679db	-0.08909961
122	0xbea423f7	-0.3205869
123	0xbec43733	-0.38323364
124	0x3e218b3f	0.15775774
125	0x3ea9f578	0.3319509
126	0x3db25083	0.08706763
127	0x3ec19647	0.37809965
128	0xb9df9f80	-0.0004265271
129	0xbdb43f5e	-0.08801149
130	0x3e923102	0.28553015
131	0x3d5e0c9c	0.054211244
132	0xbefbf4c0	-0.49210167
133	0x3ecbe65c	0.39824188
134	0xbe9ca9c0	-0.3059826
135	0x3e937097	0.28796837
136	0xbf35246d	-0.70758706
137	0xbeefbe5e	-0.46824926
138	0x3e8fc3d1	0.28079084
139	0x3bde719d	0.006788446
140	0xbeacbb11	-0.3373647
141	0xbbda20c1	-0.0066567366
142	0x3eab6582	0.33475882
143	0xbf03589a	-0.5130707
144	0x3da1b266	0.07895355
145	0x3e3dc500	0.18532181
146	0x3e6a6308	0.2288934
147	0x3dbea970	0.093096614
148	0xbec32671	-0.38115266
149	0x3dbcaacf	0.09212267
150	0x3cc955c1	0.024577023
151	0xbeb52ae7	-0.35384294
152	0x3e253e3d	0.16137023
153	0xbec4c388	-0.38430429
154	0x3d4fb481	0.05070925
155	0xbdc26a57	-0.09492939
156	0x3e64b40a	0.22334304
157	0xbb1836fe	-0.0023226137
158	0x3e011c8b	0.12608545
159	0x3ea43312	0.32070214
160	0xbc2449d9	-0.010027372
161	0xbea1e89e	-0.31622785
162	0xbe344b9c	-0.17606968
163	0x3ec25a5f	0.37959573
164	0xbcf0af60	-0.0293805
165	0xbe1433fa	-0.14472952
166	0x3da5ea36	0.08101313
167	0xbec05faa	-0.37572986
168	0x3e1cc52b	0.15309589
169	0xbe23523c	-0.15949339
170	0x3ea730b3	0.32654342
171	0x3e33e20f	0.17566703
172	0x3e2a7d93	0.16649465
173	0xbd6b165d	-0.057394374
174	0x3d98fa20	0.074695826
175	0x3e8ce736	0.2752015
176	0x3ec3c363	0.38235006
177	0xbe9bee67	-0.30455324
178	0x3e0bd9d7	0.13657318
179	0xbca6366d	-0.020289624
180	0x3ed5bd8f	0.41746184
181	0x3e261eac	0.16222638
182	0xbebdedbf	-0.37095448
183	0xbd8ee6a1	-0.06977583
184	0x3e445635	0.1917351
185	0x3eaf0daa	0.34190112
186	0x3df89d76	0.12139408
187	0x3e81c73f	0.25347325
188	0xbe9d188f	-0.306828
189	0xbc753b5a	-0.014967764
190	0xbea43f0e	-0.32079357
191	0xbe77678e	-0.24160597
192	0xbcfdae4b	-0.030966898
193	0xbd24591d	-0.040124048
194	0x3e22dd0b	0.15904634
195	0x3ebe385f	0.37152383
196	0xbee78813	-0.45221004
197	0xbf4a6a6a	-0.79068625
198	0x3e8be080	0.27319717
199	0x3e8a7889	0.27045086
200	0x3e1cb7b4	0.15304452
201	0xbf047f76	-0.5175699
202	0xbd8492b9	-0.064732976
203	0xbedfbd12	-0.43698937
204	0x3e817810	0.25286913
205	0x3ea90040	0.33008003
206	0x3da8992d	0.08232341
207	0xbf1ccbd3	-0.6124851
208	0x3ec43dfc	0.3832854
209	0x3e6c104d	0.23053093
210	0x3d80af47	0.062834315
211	0x3d30dbf9	0.043178532
212	0x3ed8d109	0.4234698
213	0xbee8ec42	-0.4549275
214	0xbddc62bf	-0.10761022
215	0x3e428788	0.18997014
216	0xbf3d81a7	-0.7402596
217	0xbe6c43b0	-0.23072696
218	0xbe26cef9	-0.16289891
219	0x3e6a8668	0.22902834
220	0x3e406ffa	0.18792716
221	0x3e9fd3bf	0.31216237
222	0xbf2a65f1	-0.665618
223	0xbe91566f	-0.28386256
