config/MLModels/model.tflite (tflite, 69512 bytes, 10 tensors)

dense_4/bias f4 [6]
000000 92 fa f5 3e b3 ee ce be ca fb b5 3e 00 53 f9 be
       0.48042732 -0.40416488 0.35543662 -0.48696136
000010 b5 a5 d9 bd 6d 2b c1 be
       -0.10627309 -0.37728444

dense_3/bias f4 [32]
000000 8a 6f b1 3d 7a 64 90 bc 8c 56 89 3e 5a b7 45 3f
       0.086638525 -0.017626036 0.26823843 0.772329
000010 41 75 32 3e 73 9d 13 3f 1c e9 4d 3e 1b 78 dd 3d
       0.17427541 0.57662123 0.20108455 0.10813924
000020 03 e1 d8 3e fb 5f 0c 3f 4f e1 30 3e 73 29 4c 3f
       0.4235917 0.54833955 0.17273448 0.79750746
000030 16 74 ce 3e aa 1b ee 3d af 7b 23 3f 38 ad 21 3e
       0.40322942 0.1162637 0.638606 0.15788734
000040 6e e7 64 3e 00 64 94 3d 2f 1c 91 3d 9b 46 52 3e
       0.22353908 0.07245636 0.07085454 0.20534746
000050 a5 ff 40 3d 7c 3e a4 bd 60 41 83 3e 8f 7a b2 3e
       0.0471188 -0.080197304 0.25635815 0.3485913
000060 28 36 28 3f 66 3a 1c 3f 07 8f 23 3e f4 38 a2 bc
       0.65707636 0.6102661 0.1597253 -0.019802548
000070 13 bc e6 3b c3 01 e9 3e 43 b1 0f 3e d8 f8 b1 3e
       0.007041463 0.45509157 0.14032464 0.34760165

dense_2/bias f4 [64]
000000 50 2a af 3e 82 b1 2c be 70 17 32 bc c6 8c 14 3e
       0.3421197 -0.16864589 -0.010869846 0.14506826
000010 4e 54 5d bd 2b 82 b6 3d 34 96 9b 3e 81 29 83 be
       -0.054035477 0.08911546 0.30388033 -0.25617602
000020 81 b0 3a 3e 6f 24 16 3d f4 aa 26 3f a1 2f cc bb
       0.18231393 0.03665584 0.65104604 -0.0062312637
000030 5d 92 8e be 06 b8 15 3d b6 76 d0 3e 93 c0 2e be
       -0.2784604 0.03655245 0.4071557 -0.17065649
000040 7c 45 50 bd 85 14 3a 3e 45 49 ca 3d 7e 67 3c bf
       -0.050847515 0.1817189 0.09877256 -0.73595417
000050 e7 f2 f4 3e e9 04 f5 3d 7b 76 96 bd ca 7a 8e 3d
       0.4784157 0.11963827 -0.07346817 0.06957014
000060 d8 3f 11 bb 93 0d e7 bd fe 29 35 3e 74 63 47 3c
       -0.0022163298 -0.11281886 0.176918 0.012169708
000070 e6 c2 85 bc 0b dd 90 bd 86 16 b0 3d 1d 89 0c bb
       -0.016328286 -0.070734106 0.08598046 -0.002144403
000080 c2 41 0a be 20 19 ec 3b b3 e3 1b be fc b4 cc be
       -0.13501647 0.0072051436 -0.15223579 -0.3998183
000090 76 21 11 be ef 59 0c ba d5 cb 6a bd 56 81 08 3f
       -0.1417292 -0.00053539773 -0.057323296 0.5332235
0000a0 51 ae a1 bc fa f3 b7 3e 26 a5 d2 be 4d 3d 8f bc
       -0.01973644 0.35928327 -0.41141623 -0.017485285
0000b0 e8 43 1a 3e 81 d7 a0 3c 41 ba 58 3e 4b cc cc bd
       0.15064967 0.01963401 0.211648 -0.09999903
0000c0 9e ae 02 bf 64 0f 6a be 35 c5 c0 bd 42 38 95 bd
       -0.51047695 -0.22857434 -0.09412614 -0.07286121
0000d0 b2 0e 2f bf 51 83 8f bd d6 98 1c bf c4 03 a6 be
       -0.683818 -0.070074685 -0.6117071 -0.32424748
0000e0 73 50 82 be 43 d7 32 3d b4 05 fe be ae 5d 3e 3e
       -0.25452003 0.04366232 -0.49613726 0.18590423
0000f0 8e 34 8a bc 42 88 c8 3e 0b 4f 11 be bf 7d 9f bd
       -0.016870763 0.39166456 -0.14190309 -0.07787656

dense_1/bias f4 [90]
000000 ab 3e ab 3e 31 2b 18 bb 27 8b f1 be 00 00 00 00
       0.3344625 -0.0023219103 -0.47176477 0.0
000010 54 ff 6f bb 00 00 00 00 df 38 74 bc 03 cb 9b bb
       -0.0036620693 0.0 -0.014906137 -0.0047544255
000020 e8 a5 d1 bd 1a 6f c2 bb 15 ea 9b 3e 00 00 00 00
       -0.10236722 -0.0059336545 0.30452028 0.0
000030 05 3e 45 bf 2e 3f 84 bf cb f3 44 b9 eb a0 a3 bc
       -0.7704776 -1.0331781 -0.00018782837 -0.019974193
000040 00 00 00 00 00 00 00 00 16 45 98 bb bb e6 a5 bc
       0.0 0.0 -0.0046469076 -0.020251622
000050 26 ad 27 3e 4b 2e 85 3e 85 54 c5 3e 46 d9 e7 bb
       0.16374645 0.2601188 0.38541046 -0.0070754616
000060 00 00 00 00 05 38 68 bf 00 00 00 00 00 00 00 00
       0.0 -0.9071048 0.0 0.0
000070 05 8b ee 3e 8e f5 cf be 52 b8 a1 be f4 9a 89 3d
       0.46590438 -0.4061703 -0.31585938 0.06719008
000080 00 00 00 00 00 00 00 00 00 00 00 00 dd fa 23 be
       0.0 0.0 0.0 -0.16013665
000090 d6 2f c3 bb 00 00 00 00 70 35 25 bc 1c cc c6 3e
       -0.00595663 0.0 -0.010083541 0.38827598
0000a0 a1 75 0f ba 00 00 00 00 00 00 00 00 85 20 92 3d
       -0.0005472545 0.0 0.0 0.07135109
0000b0 00 00 00 00 73 da bf 3e 00 00 00 00 28 0b 0d bc
       0.0 0.3747135 0.0 -0.008608617
0000c0 00 00 00 00 00 00 00 00 59 6e ee bd f3 70 84 3e
       0.0 0.0 -0.11642141 0.25867423
0000d0 db eb cb 3b b1 8e 95 be 00 00 00 00 af a0 9f bc
       0.0062231845 -0.29210427 0.0 -0.0194858
0000e0 00 00 00 00 06 30 24 bf 49 74 44 be c1 85 ef bb
       0.0 -0.6413578 -0.19184984 -0.007309646
0000f0 00 00 00 00 00 00 00 00 e7 f3 00 3e 00 00 00 00
       0.0 0.0 0.12593041 0.0
000100 16 64 af be b5 81 0a ba 3c d8 f6 3e 49 cc bb bd
       -0.34256047 -0.000528361 0.4821185 -0.09169824
000110 00 00 00 00 00 00 00 00 00 00 00 00 13 71 3e bc
       0.0 0.0 0.0 -0.011623639
000120 ec ab 1e bc 00 00 00 00 c4 9b 39 bc db 22 4f 3e
       -0.009684544 0.0 -0.011328641 0.2022814
000130 8d 06 67 bd fb da 15 bc 4a ba 12 bc 00 00 00 00
       -0.05640273 -0.009146447 -0.008955548 0.0
000140 00 00 00 00 e7 cb db be 33 64 b0 3e 00 00 00 00
       0.0 -0.42929003 0.34451446 0.0
000150 13 49 04 bd 00 00 00 00 07 a5 df be a3 01 4d bc
       -0.03229625 0.0 -0.43680593 -0.012512597
000160 65 2a 5b be 44 40 25 3e
       -0.21402891 0.16137797

dense/bias f4 [90]
000000 00 00 00 00 55 60 71 bf 00 00 00 00 0e 0c 6e 3e
       0.0 -0.94287616 0.0 0.23246786
000010 9b 0f ce bc 00 00 00 00 76 33 78 be 00 00 00 00
       -0.025153926 0.0 -0.24238381 0.0
000020 01 9d 1e 3f a6 3e 24 3e 00 00 00 00 00 00 00 00
       0.6195832 0.16039523 0.0 0.0
000030 00 00 00 00 bb dd 67 bd 00 00 00 00 5a a8 fe 3d
       0.0 -0.056607943 0.0 0.12434454
000040 00 00 00 00 00 00 00 00 00 00 00 00 00 00 00 00
       0.0 0.0 0.0 0.0
000050 f0 23 f8 3e c6 ff b3 be 00 00 00 00 3f 8c db 3e
       0.48464918 -0.35156077 0.0 0.42880437
000060 b9 92 67 3e 00 00 00 00 00 00 00 00 f5 0c a1 be
       0.22614564 0.0 0.0 -0.31455198
000070 2a 18 c3 3e dd bc 3e be 6b 74 59 3d 96 ab ad 3d
       0.38104373 -0.18626733 0.05308954 0.08479993
000080 02 dd 7b bb 8d 02 63 bd 8a 92 91 be b9 dd f1 be
       -0.0038431291 -0.055422354 -0.28432113 -0.47239473
000090 e4 7a 79 3d 13 81 f1 be 00 00 00 00 00 00 00 00
       0.060908213 -0.47168788 0.0 0.0
0000a0 83 c2 2d 3f 00 00 00 00 00 00 00 00 5a 35 a6 be
       0.67874926 0.0 0.0 -0.3246258
0000b0 83 2a 2e 3f 00 00 00 00 1a 1c 0f 3f 00 00 00 00
       0.6803362 0.0 0.55902255 0.0
0000c0 fa 87 c3 3e 00 00 00 00 00 00 00 00 00 00 00 00
       0.3818968 0.0 0.0 0.0
0000d0 00 00 00 00 d3 6d 36 3f 80 77 e5 3e 26 a6 35 be
       0.0 0.7126133 0.44817734 -0.17739162
0000e0 8b 91 88 bf a2 a1 f6 bd 00 00 00 00 00 00 00 00
       -1.0669416 -0.12042548 0.0 0.0
0000f0 00 00 00 00 09 6c 8e 3f eb 7c 0f 3f 00 00 00 00
       0.0 1.112672 0.56049985 0.0
000100 00 00 00 00 b6 78 84 be ad ae fb 3d 00 f4 69 be
       0.0 -0.25873345 0.12289176 -0.22846985
000110 00 00 00 00 51 64 39 bd 8a 2c c6 3d 4a d6 f0 bd
       0.0 -0.045261685 0.09676464 -0.117596224
000120 51 f4 21 3f 18 63 46 3e 34 69 59 bf 46 0a cc be
       0.6326342 0.19373739 -0.8492615 -0.39851588
000130 34 54 0d bc 3e 81 56 be 61 96 33 3f 00 00 00 00
       -0.008626033 -0.2094774 0.70151335 0.0
000140 8b ec b6 bc 93 0f 01 bf c0 a8 ba bc 55 4b d5 bd
       -0.02232959 -0.5041439 -0.022785544 -0.10414759
000150 00 00 00 00 00 00 00 00 35 29 8c b9 d6 64 1c 3f
       0.0 0.0 -0.00026733582 0.61091363
000160 e6 e4 a5 be 60 51 39 be
       -0.32401198 -0.18097448

sequential/dense/MatMul f4 [90, 4]
000000 6a 75 d0 bd d6 c7 29 3e 30 13 3f bc 7a f5 78 3e
       -0.10178645 0.16580138 -0.0116622895 0.24312392
000010 91 bf 2e be fc dc bc 3d 33 46 3d be 13 d7 66 3e
       -0.17065264 0.09221837 -0.1848381 0.22542982
000020 ee 65 90 bd c0 48 87 3d 2c 21 c8 3d 00 12 31 ba
       -0.070506915 0.06605673 0.09771952 -0.00067546964
000030 8b a6 73 be c4 83 0b 3e d1 10 8a 3d 11 da 12 be
       -0.23794 0.13624483 0.06741489 -0.14340998
000040 ca 60 3d be c0 7b 07 be 69 14 2f 3d ec c1 4e 3c
       -0.18493953 -0.132308 0.042744074 0.012619477
000050 6e 2d 41 3e 10 15 4f bd dc 4a a3 3d ac af 13 3e
       0.18864986 -0.050557196 0.07973263 0.14422482
000060 31 bb 28 be 23 ab 2a be 30 77 ab 3d be c9 30 3d
       -0.16477658 -0.16666846 0.083723426 0.043161146
000070 c0 5d 5a 3e 64 92 4d 3e c7 4b 66 be e0 33 9d bb
       0.21324825 0.20075375 -0.22489844 -0.0047974437
000080 c4 c0 36 3e b7 3d d3 3d cf 3a 82 be 5e 25 37 be
       0.17846972 0.103145055 -0.25435492 -0.17885348
000090 d3 2d 32 be 5e c9 43 be 0e 94 24 3d 78 83 0f be
       -0.17400293 -0.19119784 0.04018026 -0.14014995
0000a0 d8 f1 b4 bd 6a 0f 74 3e e0 66 2a 3e 20 1b 11 3e
       -0.088351905 0.23834005 0.16640806 0.14170504
0000b0 1a 71 18 3e c2 15 56 3e b4 05 63 3e de 18 5b 3e
       0.14886895 0.20906737 0.22170144 0.21396205
0000c0 c0 32 73 3c 58 18 bd bd a4 d8 36 3e 84 a1 3d 3e
       0.014843643 -0.09233159 0.1785608 0.18518645
0000d0 49 75 84 bd 34 48 23 be 83 a5 29 bd bc a0 02 be
       -0.06467683 -0.15945512 -0.04141761 -0.12756628
0000e0 a8 83 e2 3d 94 e3 47 3e 52 10 49 3e bc b3 bb 3d
       0.11060268 0.19520408 0.19635132 0.09165141
0000f0 9f 2b 46 3e 16 b7 33 be ca a8 44 be c6 b2 4f 3d
       0.19352578 -0.1755031 -0.19205013 0.0507076
000100 58 72 12 3e aa 4b 28 3e 34 f4 10 bd 58 7b de bd
       0.14301431 0.16435114 -0.03538914 -0.1086337
000110 00 2c 44 3d 20 a9 cc 3c a0 99 26 3e c2 3e 6e 3e
       0.047893524 0.024982989 0.16269541 0.23266128
000120 4c c3 dc 3d 10 84 4c 3d 68 0b 7e 3d 30 c1 5e 3e
       0.107794374 0.049930632 0.062022597 0.21753383
000130 a2 55 6f 3e 7c fd 28 be 00 43 15 3e 70 43 7b 3d
       0.2337251 -0.16502947 0.1457634 0.06134361
000140 7a f4 54 3e fb 68 6f be fe b5 4d 3e 70 eb 66 be
       0.20796385 -0.2337989 0.20088956 -0.2255075
000150 d3 fd 32 be 24 c5 13 be e7 bb 3c be 0c 79 c3 3c
       -0.17479639 -0.14430672 -0.18431054 0.02386143
000160 b0 db f6 3d 52 1a 5b be 8a e4 35 3e dc d1 96 3d
       0.12053621 -0.21396759 0.17762962 0.07364246
000170 22 71 0c 3e d1 54 08 be 1d c0 cf bd 1a b7 50 be
       0.13715032 -0.13313605 -0.101440646 -0.20382348
000180 4f 96 0e be 5f 5d 3d 3e fd e2 58 bd 08 30 27 be
       -0.13924526 0.1849265 -0.052950848 -0.16326916
000190 b6 fb 83 bd de 8f 13 3e b6 b1 22 3e f4 9a 1a 3e
       -0.064444944 0.1441035 0.15888104 0.15098172
0001a0 b8 23 0f 3d fc 3e fb bd 50 76 e6 3c b8 38 16 3e
       0.034946173 -0.12267873 0.028132588 0.14670074
0001b0 49 8f 4d be 33 0d 0b be ae 9b 78 3e f8 27 89 3d
       -0.2007419 -0.13579254 0.24278137 0.066970766
0001c0 ab 3b 4f 3e a9 5b 13 be df f2 4d be 62 87 8f bd
       0.20237605 -0.14390434 -0.20112179 -0.07008244
0001d0 be 7f 0b be dc 8c 68 3e 34 de 1a be dc a8 5a be
       -0.13622949 0.22709984 -0.15123826 -0.21353477
0001e0 cb 55 b0 bd f3 a3 f4 bd e4 66 f8 bd bb a3 37 be
       -0.08610114 -0.11945333 -0.12129 -0.17933552
0001f0 38 b1 2f 3e d7 aa 38 be b3 06 f6 bd 47 d9 79 bd
       0.17157447 -0.1803392 -0.120129965 -0.060998227
000200 9b 1c e7 bd 1d 1d b5 bd e2 ff 8b 3e 6a 74 0b be
       -0.11284753 -0.088434435 0.2734366 -0.13618627
000210 43 82 68 be 23 83 52 bd dc 3b 0e 3d 3f ac 10 be
       -0.22705941 -0.051394593 0.034725055 -0.14128207
000220 a0 80 ea bd 32 05 b9 3d a4 d9 ac bd 03 68 bb bd
       -0.114503145 0.09034194 -0.08439949 -0.09150698
000230 f4 4f 3f 3d f7 dc 36 be 03 dd bf bd 4c 10 39 3e
       0.04670711 -0.17857729 -0.093683265 0.18072623
000240 f3 0d a9 bb c9 b9 03 be f6 f5 c5 3e 4a af 4a be
       -0.0051591336 -0.1286384 0.38664216 -0.1979343
000250 b5 5f 23 be c6 e2 4e be 4b ef 79 be ac 89 73 3e
       -0.15954478 -0.20203695 -0.2440769 0.23782986
000260 7c 6d 4f bd 72 43 41 3e bc b7 f4 3d e6 b6 66 3e
       -0.05064152 0.18873385 0.11949107 0.22530708
000270 a0 4e c7 3d 40 12 49 3d f4 9f 9c 3d 6c 07 3d bd
       0.097317934 0.04908967 0.07647696 -0.046149656
000280 54 c9 7f 3e 90 e9 cf 3a 9a 19 6c 3d a1 2f 90 be
       0.24979144 0.0015862454 0.057641603 -0.28161338
000290 d2 96 a2 bd ba 70 24 3e 44 c1 bd 3d d8 e8 45 3d
       -0.07938923 0.16058627 0.09265378 0.04831776
0002a0 22 06 7a 3e b4 52 90 3d d8 4a 42 3e 8e bd 4c be
       0.24416402 0.07047024 0.18973863 -0.19994184
0002b0 cf cd 78 3d 01 ed 03 be 16 55 8c bc 83 08 ef bd
       0.06074315 -0.12883379 -0.017130416 -0.11671545
0002c0 49 16 30 be eb 3c ee 3d ec 76 24 3e 0a 76 21 be
       -0.17196001 0.11632713 0.1606099 -0.15767685
0002d0 9e 49 00 3e 0e 2c eb bd 60 41 e2 3d 78 e8 04 bd
       0.12528083 -0.11483012 0.110476255 -0.032448262
0002e0 fb 49 04 3e e3 a1 85 bd 97 5d ed bd 13 c1 95 3d
       0.12918846 -0.06525018 -0.115901165 0.073122166
0002f0 1c 07 4e 3e 6a cf 50 be 82 5a 31 3e 50 39 3d bd
       0.201199 -0.20391622 0.17319682 -0.046197236
000300 98 f9 30 bd a7 40 a5 bd d1 90 0a 3e 84 ed 9f bd
       -0.04320678 -0.08068972 0.13531806 -0.078089744
000310 4f cd 80 3e e4 39 8f 3d 00 ce a1 3d 20 5f 24 3d
       0.25156638 0.06993464 0.079006195 0.04012978
000320 d2 6a 2b 3e 30 78 95 bd 28 21 7b 3e f0 2f 4b 3e
       0.16739967 -0.072983146 0.24524367 0.19842505
000330 02 9d 5a 3e dc 1d e3 3d 46 8a 9f bd fc f9 8f 3d
       0.21348956 0.110896796 -0.077900454 0.070301026
000340 9c ca 3f 3e 65 f9 5f be 80 62 e0 3b 46 85 2c 3e
       0.18729633 -0.2187248 0.0068476796 0.16847715
000350 ca d6 2e bc eb 85 d1 bd 0d b7 f0 bd fa 4a 02 3e
       -0.010671327 -0.10230621 -0.11753664 0.12723914
000360 0e 9c 3c be b3 ef be 3c 2b a5 51 3e 44 0f bf bd
       -0.18418905 0.023307657 0.20473163 -0.093290836
000370 0c 5c e4 bd db e2 98 bd a7 9c c7 bd 83 f4 bb 3e
       -0.11150369 -0.07465144 -0.09746676 0.36709985
000380 61 16 a1 3c 5c 55 53 be c2 e9 90 bd 52 a9 41 3e
       0.019663991 -0.20638031 -0.07075836 0.18912247
000390 95 c5 0c be b9 02 10 be b5 f1 8a 3d 0e 3e 3b 3e
       -0.13747247 -0.14063539 0.06784383 0.1828539
0003a0 dd 3f 75 be ae f5 31 3e d0 02 87 3c 98 d4 10 3e
       -0.23950143 0.17378876 0.016480833 0.14143598
0003b0 1c 3a d4 3d 9c 09 1b 3e 04 b8 3e bd 38 6c 77 3d
       0.10362646 0.15140384 -0.04656221 0.06040594
0003c0 80 88 2c 3c d0 71 55 3d c0 d4 b8 3c 34 a3 34 3e
       0.010530591 0.052110493 0.022562385 0.17640382
0003d0 b4 cd f3 3d 88 95 38 bd 77 64 8c be 54 77 5f 3e
       0.11904469 -0.04506448 -0.274204 0.21822864
0003e0 05 e0 7d be 23 a6 2d 3e 17 ac 6c 3e 2d 9e 36 be
       -0.24792488 0.16957907 0.23112522 -0.17833777
0003f0 a0 64 ea 3d 5e 85 8e bd a6 48 7e 3e 1f 5f 21 be
       0.11444974 -0.069590315 0.248324 -0.15758942

sequential/dense_1/MatMul f4 [90, 90]
000000 8c 85 08 3e 7d 42 a1 be 60 87 05 3c 96 3b c2 3c
       0.13332194 -0.3149604 0.008149952 0.023710053
000010 42 7a 88 3d ec d0 e9 3d d2 1c 36 3e b0 b9 99 bc
       0.06663944 0.11416802 0.17784432 -0.0187653
000020 03 1d c0 bd 7a d0 ba 3d dc e6 de 3d e2 0f b3 bd
       -0.093805335 0.09121795 0.10883877 -0.08743264
000030 70 46 48 3d 8d 0a b1 bd 78 0f d0 bc 2e 90 22 be
       0.0488953 -0.086445905 -0.025398001 -0.15875313
000040 c3 b0 d6 bd a8 cf 1b be f4 bb eb 3d a8 8f 68 bd
       -0.10482933 -0.15215933 0.115104586 -0.056777626
000050 68 c9 55 3e c1 8f b0 bd 58 85 f9 bd f5 08 e9 3c
       0.20877612 -0.08621169 -0.121836364 0.028446654
000060 e4 ca 5f 3d d0 96 77 3d a8 33 bf 3d b6 c8 97 3d
       0.05463685 0.06044656 0.093360245 0.074113294
000070 70 1f b2 3d 23 c4 e5 bd 53 00 55 bd 44 d3 61 3d
       0.086974025 -0.11219051 -0.052002262 0.05513312
000080 66 dc b5 bb 3e c3 cc 3d 0b a9 f1 bd 44 96 29 3e
       -0.005549955 0.09998177 -0.117998205 0.16561228
000090 1e cc ba bd ac 17 e0 3d c0 73 cf bd 4e 06 0c be
       -0.091209635 0.10942015 -0.101294994 -0.1367428
0000a0 74 22 03 3f 74 0b 66 bd a0 09 0b 3e 3b 75 b6 bd
       0.51224446 -0.056163266 0.1357789 -0.08909079
0000b0 39 35 cd bc ae 67 94 bd 8d a8 93 3d 2a 95 0d 3e
       -0.025049793 -0.07246338 0.07209883 0.13826433
0000c0 ce 8f 9d 3b 38 34 22 bd a0 e3 61 bc 72 c4 2b be
       0.0048084026 -0.03960058 -0.01378718 -0.16774157
0000d0 14 0d e4 3d c6 fd 81 3d b1 68 b3 3c d0 a9 15 c0
       0.11135307 0.063472316 0.021900507 -2.3384895
0000e0 8e d4 2c be 17 7b 3a bd 00 d7 ae 3d 3e 59 26 3e
       -0.16877958 -0.045527544 0.08537102 0.1624498
0000f0 39 de b2 bd 46 5e c0 3e 2f 8c 4b 3e d2 00 83 3d
       -0.08733792 0.37571925 0.19877695 0.06396641
000100 18 b7 de 3d 4a ed 97 bd 7c aa 36 3e a1 17 8b bd
       0.10874766 -0.07418306 0.17838472 -0.06791616
000110 1c 33 21 3e e3 79 84 3d 4f a4 00 be bb 02 d1 3d
       0.15742153 0.064685605 -0.12562679 0.10205599
000120 f2 4f f1 bd 2f a4 08 3e da a1 64 bd 05 a2 7d 3d
       -0.117828265 0.13343881 -0.055818416 0.061922092
000130 a0 ff c9 3d 2a 8c a0 bd 61 d9 95 bd ac f5 1d 3e
       0.0986321 -0.07839234 -0.07316852 0.15425748
000140 3a 5c 1d 3e 38 30 28 be c6 ae 1a bd 76 c7 25 be
       0.15367213 -0.16424644 -0.037764333 -0.1618937
000150 0d d3 d2 bd 4a 92 1f 3e e1 b1 08 3e 1b 30 87 3d
       -0.10294161 0.15583149 0.13349105 0.06600972
000160 56 e8 0f 3c 73 d6 19 3e ac fc 1e 3d 24 4b ee 3d
       0.008783421 0.15023212 0.038815185 0.11635426
000170 60 07 d1 bd 21 db 9d bd 17 be 09 be 5c 0e 91 3d
       -0.10206485 -0.07707811 -0.1345142 0.07082817
000180 2e 28 0c be e0 fc 18 3e 57 5a b4 3d 99 ab 1a 3e
       -0.13687202 0.14940214 0.088062935 0.15104522
000190 db 52 14 be f4 5d c7 3d 30 f4 40 bc df 79 fc bb
       -0.14484732 0.09734717 -0.011776969 -0.007704958
0001a0 b0 b1 c1 bd 5b fd 09 3e 0c 8f 11 be 6a 80 d2 bd
       -0.09457719 0.13475554 -0.14214724 -0.10278399
0001b0 4b e4 f5 bd 98 51 af bd d0 0e 01 3e 9e 3a 98 bd
       -0.12006434 -0.08560485 0.12603307 -0.07433055
0001c0 30 3a b1 3d 37 a0 93 bd 34 df e7 3d 32 41 ca bd
       0.086536765 -0.07208293 0.113218695 -0.09875716
0001d0 0c d9 b9 3d e0 2c 19 3d 81 2c 08 be 00 4e 8b 3d
       0.090746015 0.03739631 -0.13298227 0.06801987
0001e0 16 53 1f 3e 13 dd d4 bd 99 68 00 3e 8d af 6f bd
       0.15559039 -0.10393729 0.12539901 -0.058517028
0001f0 61 0b 25 3e 04 e2 2a 3e 08 2b 26 3e dd 53 22 3e
       0.16117622 0.1668778 0.16227353 0.15852304
000200 70 16 a8 bc 40 52 05 bc 7c e4 ab bd 70 f5 19 3e
       -0.020518512 -0.008137286 -0.08393189 0.15035033
000210 22 7c 08 be d5 9c de bc 2d 17 bb 3c 04 f1 b6 3d
       -0.13328603 -0.027174393 0.0228382 0.08932689
000220 3a 56 24 be 2c d0 b0 3d c3 58 6d 3d 8c ed 13 3e
       -0.16048518 0.08633456 0.057945978 0.14446086
000230 00 44 d6 3d 14 7d 77 3d 38 ff e1 3d e7 95 a8 bd
       0.10462189 0.06042202 0.11035007 -0.082317166
000240 06 91 3a be 60 cf 31 3e 08 2a dd 3d c6 3f cf bd
       -0.18219385 0.17364264 0.107990324 -0.10119586
000250 f8 6a 2a 3e 70 5f 0c be b8 23 2a be a0 6c e8 3d
       0.16642368 -0.13708282 -0.16615188 0.113488436
000260 00 87 3e 3b 47 88 3a be 40 fc 0f 3b 80 9d 76 3b
       0.0029072165 -0.18216048 0.002197042 0.0037630498
000270 4c b4 ce bc 92 b5 3e bd 10 49 90 bd 5a a4 37 be
       -0.025232457 -0.046559878 -0.070451856 -0.17933789
000280 7a 6e 40 bd aa d6 72 3d 3d c9 fd bd 80 b1 1a be
       -0.04698036 0.05928675 -0.12391899 -0.15106773
000290 43 33 ee bc 1f bc d6 bd 0c 6d fd 3d 68 ba 02 3e
       -0.029077178 -0.104851 0.12374315 0.12766421
0002a0 38 65 dd 3c 20 cb 09 be 00 86 b5 b9 75 95 f7 bd
       0.027025804 -0.13456392 -0.00034622848 -0.120890535
0002b0 98 72 0b 3d 59 2a 00 be f8 31 38 3e 84 65 04 3e
       0.034044832 -0.12516154 0.17987812 0.1292935
0002c0 94 21 96 bd b9 76 08 3c 82 33 ea bd f4 e2 0c be
       -0.07330623 0.008329087 -0.114356056 -0.13758451
0002d0 24 4e 0a 3e df 52 b1 3e 04 56 33 3e 40 2c 1b be
       0.13506371 0.34633538 0.17513281 -0.15153599
0002e0 89 32 eb bd 1c 01 07 bd 28 08 d5 bc 75 4a f4 bd
       -0.11484248 -0.032960042 -0.026004866 -0.11928264
0002f0 52 34 14 bd 25 91 8a 3d 1a 23 23 be 18 39 1d be
       -0.03618271 0.06765965 -0.15931359 -0.15353811
000300 94 6e 91 3d 06 2a 15 3e 90 9e 5d bc b4 99 7d 3c
       0.07101169 0.14566812 -0.013526574 0.01547854
000310 dd bc 0a be 28 82 1b 3d 20 a6 0e bd 94 99 26 be
       -0.13548608 0.037965924 -0.034826398 -0.16269523
000320 61 d1 0b bd 82 be ab bd 4e a2 e0 bd 9e dc da 3d
       -0.034135226 -0.08385946 -0.10968457 0.10686611
000330 bc 77 2b be 08 e3 2f bd 2c 43 21 bd 9b 7b 40 3e
       -0.16744894 -0.042941123 -0.0393707 0.18797152
000340 7d da 05 3e d8 94 ae 3d a6 92 8c bd 81 d6 0d 3e
       0.13071628 0.085244834 -0.068639085 0.13851358
000350 22 29 5b be a5 f6 c2 bc c6 90 01 be 90 ee 7b bc
       -0.2140241 -0.02379925 -0.12652883 -0.015376702
000360 66 eb 2b 3e 41 37 7d bd 10 a4 84 3c c8 5d 21 3e
       0.16789016 -0.061820272 0.016191512 0.15758431
000370 bd 0c da bc 80 15 e3 bb 40 2a c2 3d 69 c9 0a 3e
       -0.026617402 -0.0069300532 0.09480715 0.13553394
000380 d3 35 62 be 00 27 49 ba 80 58 43 be 14 08 14 3e
       -0.22090845 -0.0007673353 -0.19076729 0.14456207
000390 93 bc 7c 3d 7e 9f 06 3e 9c 34 05 3d 2e 40 20 3e
       0.061703276 0.13146779 0.032520875 0.15649483
0003a0 66 ed 2a 3e 99 96 39 be 23 18 16 be b9 25 c2 3f
       0.16692123 -0.18123855 -0.14657645 1.5167762
0003b0 24 91 19 3e c2 2a e9 bd a6 a3 32 3e ac fb cc 3d
       0.14996773 -0.113851085 0.1744524 0.1000894
0003c0 f0 ac a4 bc 14 15 1e bf df 83 86 bd 4f 3b 36 be
       -0.020101994 -0.6175091 -0.06568121 -0.17796062
0003d0 2c 2a 4e bd 51 4f 4e 3e e3 22 36 be fc 78 ab bd
       -0.050333187 0.20147444 -0.17786746 -0.08372685
0003e0 2b 63 3a be 9e f0 b8 3d 9a 02 a7 bd ed 17 21 3e
       -0.18201892 0.09030269 -0.08154793 0.15731783
0003f0 40 ba 45 bd 2c a6 03 bd 31 37 21 3c 1f 3f d3 3c
       -0.048273325 -0.032140896 0.009839819 0.025786934

sequential/dense_2/MatMul f4 [64, 90]
000000 10 13 89 3c 2d 51 02 3e 2b 15 26 bf cc b1 40 bd
       0.016732723 0.12726279 -0.6487605 -0.04704456
000010 d0 51 cd bd 00 c6 9e 3b 98 d8 32 3d a0 45 c6 3b
       -0.1002537 0.004845381 0.04366359 0.0060507804
000020 34 7d 02 bc 20 f2 91 3c 8a 8c f5 bd 43 33 c7 bd
       -0.007964421 0.01781565 -0.11989696 -0.09726574
000030 70 d9 78 bf c2 f8 5c be 91 b9 78 bd 5a e9 34 be
       -0.97206783 -0.21579269 -0.060723845 -0.17667142
000040 9e 8e ae 3d f4 16 40 3d 82 1f aa 3d cd cb 4b be
       0.08523296 0.04689689 0.08306791 -0.19901963
000050 66 a0 96 3d f2 b3 05 bf 22 55 28 3d 76 94 b6 be
       0.07354812 -0.522277 0.041096814 -0.35660142
000060 fe 1d 82 3d c5 29 08 bf cf a8 1d be f0 8d 25 be
       0.06353377 -0.53188735 -0.15396427 -0.16167426
000070 a5 76 04 3c 1d b5 00 bf d2 92 82 3e 02 31 af 3d
       0.008084928 -0.50276357 0.2550264 0.085542694
000080 c3 6a 29 3e ac 02 77 3d eb 3c 31 be 77 e4 04 3e
       0.16544633 0.060305282 -0.17308395 0.12977777
000090 1e 6a 31 be e8 db ff 3c 75 4a 4a 3e 1a c4 88 bd
       -0.17325637 0.03123279 0.19754966 -0.066780284
0000a0 3c a8 a9 bb 59 02 d9 bd 35 8d 43 be 66 ee 84 be
       -0.005177526 -0.10596151 -0.19096835 -0.25963134
0000b0 b9 18 08 3e 23 81 0f 3b fe f4 b3 3d ec f5 1c be
       0.13290681 0.002189704 0.08786963 -0.15328187
0000c0 50 35 86 bd 79 59 0b 3e 18 b1 01 bf 36 80 eb 3b
       -0.06553137 0.1360835 -0.5066085 0.007186915
0000d0 97 75 3a bc b2 26 4a bc 88 38 42 be f5 26 79 bd
       -0.011380575 -0.012338327 -0.18966877 -0.060828168
0000e0 93 5d ae bd d3 eb 90 be 66 14 a5 3b e2 5e 8f 3d
       -0.085139416 -0.2830492 0.005037832 0.07000519
0000f0 34 43 1a be 78 cd 7b bd b0 31 b6 3d c2 09 9e 3d
       -0.15064698 -0.061475247 0.08896196 0.07716705
000100 78 20 26 bc a4 63 3b be 64 ee a0 3c ae f1 9f bf
       -0.010139577 -0.18299729 0.019644924 -1.249563
000110 48 ff a2 3c 00 d4 47 3c 1a 6c d1 3d 3d cc 1c be
       0.019897118 0.012196541 0.10225697 -0.15312286
000120 bc 7d 29 3e a8 78 5b bd 30 90 81 bc ad b5 b8 3c
       0.1655187 -0.053581864 -0.015815824 0.022547567
000130 70 4a 8c be 4a ea 26 be f8 98 33 3e c0 4b a6 3b
       -0.2740054 -0.16300312 0.17538822 0.005074948
000140 ba d7 f0 3d 83 02 96 be 34 e5 17 bf 00 91 31 3d
       0.117598966 -0.2929879 -0.5933411 0.043351173
000150 8a aa 8e 3b 7c 6e 3b 3d 08 e2 3d bf b8 6f 60 3d
       0.004353826 0.045759663 -0.7417302 0.054794043
000160 70 56 84 3d 96 e5 a7 3c ff d5 48 be d3 ef 6d 3d
       0.06461799 0.020495217 -0.19612883 0.058090042
000170 11 8f 19 3d 7e 1e f7 3d 37 85 9d 3d 47 e4 38 3e
       0.037489954 0.12066363 0.07691424 0.18055831
000180 dc 74 ac bd 80 ff 3c 3c e6 0f 0f be e1 a6 02 3e
       -0.08420727 0.011535525 -0.13970909 0.12758972
000190 91 ed 3a 3e a7 2e f9 bd 15 df ae bd 10 bd 28 bf
       0.18254687 -0.12167101 -0.08538643 -0.65913486
0001a0 10 6f 3d bc 50 5c b1 bc 8b e8 48 3e d0 e9 47 bd
       -0.011562124 -0.021650463 0.19619958 -0.048806965
0001b0 8d c9 b6 3d 66 cd 32 3c 94 29 56 3d 00 83 b2 bc
       0.089251615 0.010913229 0.052285746 -0.021790981
0001c0 2c 39 09 3e 9e e8 d7 3b d8 50 bb 3c 92 d8 c1 be
       0.13400716 0.0065890094 0.022865698 -0.37860543
0001d0 80 92 f1 bb 90 b7 9a 3c d5 14 30 be b1 78 80 be
       -0.0073722005 0.018886358 -0.17195447 -0.2509208
0001e0 35 6f 2b 3c 6e ba cd bd 3a 6f 81 3d f7 90 1c 3e
       0.010463526 -0.10045324 0.06320043 0.15289675
0001f0 38 3b 62 bd 9a ab 4d bd 6f 13 04 bd 84 99 7d 3d
       -0.055232257 -0.05021248 -0.032245096 0.061913982
000200 d8 12 d2 3d 52 a0 b9 bd a2 05 fd bd e0 d8 bc 3b
       0.102575004 -0.09063782 -0.1235459 0.005763158
000210 f6 f0 22 be f2 70 a4 3e c8 3e a5 bc ac b8 26 3c
       -0.15912232 0.3211742 -0.020171538 0.010175865
000220 00 52 bf bb 1d 24 d8 bc 00 e6 12 3b cc b0 01 be
       -0.0058386326 -0.026384408 0.0022414923 -0.12665099
000230 ca ce 03 3e d9 a9 4e be 66 4d 46 3e c1 aa 67 be
       0.12871853 -0.20181979 0.19365463 -0.22623731
000240 8b b6 11 be c9 11 a4 3c c3 1f 03 3e 6e 77 94 be
       -0.14229791 0.020028012 0.12805085 -0.28997368
000250 f7 77 c0 be 58 fc a3 bd 37 e7 17 3e 91 6b 37 3e
       -0.37591526 -0.08007115 0.14834295 0.17912127
000260 13 2b 82 3d e0 17 b5 3b ea d4 2d be bd 5d 3a be
       0.06355872 0.0055265278 -0.16975752 -0.18199821
000270 e4 68 00 be b5 3d 54 3d 20 1a 1f 3c 46 65 8a 3d
       -0.12540013 0.05181666 0.0097108185 0.067575976
000280 d2 6e 80 3d a8 85 1a 3e e3 ec c2 3d 48 a0 dd 3c
       0.06271137 0.15090048 0.09517839 0.027053967
000290 a6 23 ec bd 16 13 96 3d 03 db 26 bd b1 b9 18 bd
       -0.11530237 0.07327859 -0.04073621 -0.037286464
0002a0 11 fb a2 3d a5 84 94 bd 83 8d 05 3e 69 7b 89 3d
       0.07958043 -0.072518624 0.13042264 0.06712992
0002b0 92 14 21 3e d0 6e b8 3c 39 1c 44 3d fc e4 eb bd
       0.15730503 0.022513777 0.047878478 -0.11518285
0002c0 a4 13 98 3e 76 99 32 3e 46 46 44 bd c5 d1 82 be
       0.29702485 0.17441353 -0.04791858 -0.25550666
0002d0 98 ad 78 be c8 a2 08 3d 6a 66 3d 3d df 29 de bd
       -0.24284971 0.033358365 0.046240248 -0.1084783
0002e0 7d 7b 30 bd c8 72 cb bd 87 96 41 be c0 9d 92 bc
       -0.043086518 -0.09934002 -0.18905078 -0.017897487
0002f0 a2 ed 17 be 59 d9 98 3d 2f 3e 4c 3e 37 79 46 3e
       -0.14836743 0.07463331 0.19945596 0.19382177
000300 7e 64 2b bd 40 c1 89 bd b8 8a da 3d 53 9a c0 3d
       -0.041843884 -0.06726313 0.1067099 0.09404435
000310 3d cd 16 be f0 92 c9 bd f8 d8 a0 3d 8b 21 42 be
       -0.1472673 -0.09842479 0.078538835 -0.18958108
000320 db 78 61 bd b5 90 c8 39 14 41 76 bd 72 76 08 be
       -0.055046897 0.00038254788 -0.060120657 -0.13326433
000330 ae 82 fa 3d d3 07 21 3e 01 64 3b be 53 e0 24 be
       0.122319564 0.15725641 -0.18299867 -0.16101198
000340 34 af a2 be 46 14 95 3d e3 f5 52 3e 0b 1a 40 3e
       -0.31774294 0.072792575 0.20601611 0.18759935
000350 1f 1c 08 3e 7e c6 f9 bd 9a 7b a1 3d 99 f2 51 3e
       0.13291977 -0.121960625 0.07884903 0.205027
000360 fe a3 09 be 9c 40 29 be 1c 82 ec bc fd 68 64 bd
       -0.13441464 -0.16528553 -0.028870635 -0.055764187
000370 ee 18 0e be 8b f4 1e 3e 87 16 09 3e ee 28 1f be
       -0.13876697 0.15522973 0.133875 -0.15542957
000380 30 d7 0c be ef dd 5f be f4 0e 72 bd b7 e1 19 bd
       -0.13753963 -0.21862005 -0.05909629 -0.037568774
000390 4c 71 72 3d 39 12 3b 3e c5 bc b8 ba 2d 96 de 3d
       0.05919008 0.1826867 -0.0014094344 0.108684875
0003a0 63 4b 81 be b6 7b 57 3c 74 bd 85 bd 27 09 97 bd
       -0.25252828 0.013152054 -0.06530276 -0.073747925
0003b0 ef b3 47 3e 0d 33 64 3c 6f 29 55 be 0a 1d f1 3d
       0.19502233 0.013928187 -0.20816587 0.11773117
0003c0 e3 80 15 3e c1 79 34 3e eb 66 2d be 38 2c bc 3c
       0.14599948 0.1762457 -0.16933791 0.022970304
0003d0 48 a4 29 3d a2 6e 4c bd af 25 8b bd 4a 4e c7 3b
       0.041416436 -0.049910195 -0.06794297 0.006082331
0003e0 c2 9f e9 3d 60 c2 13 bc 20 f2 22 bd cd 2c 4b be
       0.114074245 -0.009018511 -0.03978169 -0.19841309
0003f0 c0 2b a6 bc 16 24 44 be 03 ad c9 3d d5 be a1 3c
       -0.020284534 -0.1915439 0.098474525 0.019744316

sequential/dense_3/MatMul f4 [32, 64]
000000 48 de 35 bf 9d c4 cb bc d5 de 9a bd 31 f7 06 3e
       -0.710423 -0.024874026 -0.07562033 0.13180234
000010 b7 3e 82 bd 42 e1 48 be fc db 1b 3d 9c 5e 70 3e
       -0.06359618 -0.19617179 0.03805159 0.2347359
000020 65 d8 58 be b3 aa f4 3b 75 76 48 bd 1c 7a 99 be
       -0.21176298 0.007466638 -0.048941094 -0.29975975
000030 d0 2c 5a 3e b5 64 a6 bd 5b b5 cc bd 1b e6 b9 bc
       0.21306157 -0.08124677 -0.09995528 -0.02269273
000040 39 5d 3d 3e 6f 1e e0 3d 3a ce 3e 3e 36 fb 66 be
       0.18492593 0.10943305 0.18633357 -0.22556767
000050 4c de 60 3e 89 3b 32 3c 3d ac 7a be 6c 8c 02 3d
       0.219598 0.010878452 -0.24479766 0.031872198
000060 5d ef 91 3b f0 4c 62 be 91 6a ab bc 73 77 32 3e
       0.004453583 -0.22099662 -0.020924838 0.17428379
000070 a8 bd 38 be 39 9d f6 3a ad 32 14 be 36 5e bf bc
       -0.18041098 0.0018815167 -0.14472456 -0.023360353
000080 ed 63 69 3e ca fb 94 bf 4a 8b 30 be 35 2d 2c be
       0.22792025 -1.163934 -0.17240635 -0.1681412
000090 2b a8 24 3e db 20 28 be 83 ec fb bd 2b 53 18 bf
       0.16079776 -0.16418783 -0.123009704 -0.59501904
0000a0 9f a1 06 3e 16 88 f9 3d e8 1b 64 bd a1 fc 9d 3d
       0.13147591 0.121841595 -0.055690676 0.07714201
0000b0 fc 0e a7 3a 5c 31 10 bc 3b 46 53 bd f7 93 c8 3d
       0.0012745555 -0.008800831 -0.05158065 0.09793847
0000c0 1d 03 ed 3d 8e a9 c1 3e 6d b3 b2 3d c6 9a 37 be
       0.115728594 0.37824672 0.08725629 -0.17930135
0000d0 cf ff 5a 3e 64 20 40 bd 5b 7d 2d be 2e 06 46 3e
       0.21386646 -0.04690589 -0.1694235 0.19338295
0000e0 c7 5e 36 be 77 bb 43 3e a6 ba dd bd 0a fc 46 bb
       -0.17809592 0.19114481 -0.10826616 -0.003036263
0000f0 b3 57 c8 3d 45 da 6d bf 9d f5 bd bd b8 05 8c bd
       0.09782352 -0.9291118 -0.09275363 -0.06837028
000100 3b 59 50 bf da a3 81 3e 02 e3 6d 3d 48 46 50 3e
       -0.81386155 0.2532032 0.05807782 0.2033931
000110 d0 8c 21 3e 08 8a 1c 3e be a5 a3 3c e1 06 8e 3e
       0.15776372 0.1528703 0.019976493 0.27739623
000120 e5 1e c6 3e e0 41 16 bd a5 e4 bf be c6 6a 2c 3f
       0.38695446 -0.036683917 -0.3747913 0.67350423
000130 e9 0c 2e 3e 80 6e d6 bd 9d e6 29 3d 04 df 3c 3e
       0.16997112 -0.10470295 0.041479696 0.18444449
000140 a8 07 d1 bd 8b 0d 4c 3f 8e 38 c5 3c e3 68 4f bd
       -0.102065384 0.79708165 0.024074819 -0.050637137
000150 11 2c 4e b9 6a e4 25 3c 3e 80 67 bd 5e 28 8b 3d
       -0.00019662107 0.010125259 -0.056518786 0.06794809
000160 da 6c 89 3c 65 c1 f5 3d 08 1f 62 bd c1 c3 19 be
       0.016775537 0.11999778 -0.055205375 -0.1501608
000170 65 e1 02 3f fa 00 ac 3c 7e 27 43 be 0e b6 47 3c
       0.51125175 0.02099656 -0.19058034 0.012189401
000180 94 e2 14 3e cc 20 ef 3f 13 ac 17 3e 9f e5 49 3b
       0.14539558 1.8681884 0.14811735 0.003080703
000190 6a 31 b9 3d 35 82 93 3c 03 ca 6e 3e e7 c3 56 be
       0.09042628 0.018006423 0.23319249 -0.20973168
0001a0 af 8c 9b bd 6b 93 fc bc 33 8a e5 bd 63 f1 3d be
       -0.07595193 -0.030832013 -0.11208 -0.18549113
0001b0 75 ca 0f be bf 9b 4e bc 0e f7 22 be fa 70 06 3e
       -0.14042075 -0.012610375 -0.15914556 0.13129035
0001c0 7e c4 c4 3d cd 5d 07 3f ab dc 92 3d bc e7 05 3d
       0.096077904 0.52877504 0.07170995 0.032691702
0001d0 a8 2f 33 3e ac 0d 47 3c 98 7a 5f bd c2 95 b6 3d
       0.17498648 0.012149256 -0.054560274 0.08915283
0001e0 20 c9 e3 3a 3b fe 41 3e 83 4e 61 be 27 74 3d bd
       0.0017378666 0.18944637 -0.22002606 -0.04625335
0001f0 56 ea 75 be 5e 64 a6 bf ea de d6 3c cb 59 3a 3f
       -0.24015173 -1.299938 0.02622934 0.72793263
000200 0d f7 3e 3d f0 f4 5e 3c 9f 7d 73 be 3f ed 99 3e
       0.046622325 0.013608202 -0.2377839 0.30063817
000210 9f c3 33 be ce 42 2b bc f8 12 43 3e c1 bd 2e 3e
       -0.17555092 -0.010452939 0.19050205 0.17064573
000220 a4 e0 50 3c ef e4 dd 3b d8 0e 29 3e 82 34 89 bf
       0.012748871 0.006771676 0.16509569 -1.0719149
000230 e4 35 4b be 68 2c 33 3d 27 36 f8 bc 4b 9b e4 bc
       -0.19844776 0.04374352 -0.03029926 -0.02790608
000240 76 80 fb bb d6 2a 80 3c 31 85 8a 3d a1 87 6b be
       -0.007675226 0.015645426 0.067636855 -0.23000957
000250 2e 69 0f bd ed 82 97 be c3 b6 7a be d6 02 c2 3d
       -0.035012417 -0.29592076 -0.2448378 0.09473197
000260 7f 21 17 3f 56 9b c6 3d d2 ba 31 bd 7c e2 6d 3d
       0.59035486 0.09697597 -0.043391056 0.05807732
000270 50 ab 40 bf dd dd f5 3e 42 16 01 be 2c eb a8 3e
       -0.752614 0.4802083 -0.12606147 0.32991922
000280 57 13 1c 3e 1b 1b df 3b f4 a3 ff 3d ad 7f 09 3e
       0.15241753 0.006808651 0.124824435 0.1342761
000290 5a bf 2f 3e 8e db 4b bc 55 90 3b be b2 1c 5e 3d
       0.17162839 -0.012442483 -0.18316777 0.054226585
0002a0 87 ff cd bc 53 3e 22 3e 9b f3 f6 3d 94 f6 54 3e
       -0.025146259 0.15844087 0.12058183 0.20797187
0002b0 c6 3b 19 bd 12 9b a5 3e e8 c4 28 3e 92 24 2f 3c
       -0.03741052 0.32344872 0.16481364 0.010689871
0002c0 2f 99 23 3e 17 d8 0b 3d dc 35 a3 3e 5f 3e b7 3b
       0.15976404 0.034141626 0.3187703 0.005592152
0002d0 e2 20 24 bd 32 92 85 be 37 40 43 3c 2e 6c 36 be
       -0.040070422 -0.260881 0.0119171655 -0.17814705
0002e0 58 2a 0a 3d 8c 6e 39 be 14 39 1f bd e2 57 87 3d
       0.03373179 -0.18108577 -0.038872793 0.06608559
0002f0 33 13 29 bd 21 cd 90 be e3 e5 b7 bd ea eb e4 be
       -0.041278075 -0.282815 -0.08979394 -0.44711238
000300 ee 90 0e 3e a0 70 16 bf 81 2e 9f be 5c 0a 57 bd
       0.13922474 -0.587656 -0.31090167 -0.052500114
000310 6a af 42 3d 98 9d 13 bd 95 6e 86 be b7 df 84 be
       0.04753057 -0.036038965 -0.26256242 -0.2595193
000320 42 ef 25 be a8 61 ff 3d 3f ec 2b 3f ab f3 b0 bf
       -0.16204551 0.12469798 0.6715736 -1.3824362
000330 44 06 fa bb de c0 64 3e 68 e1 f8 3d 67 25 5e 3d
       -0.0076301415 0.22339198 0.12152368 0.05423489
000340 6c e1 67 3c 25 8b b3 be ce 49 46 3e d8 64 23 3d
       0.014152866 -0.35067096 0.19364092 0.039891094
000350 8d a5 d7 3c 6d 3a 88 be 08 f2 45 be 31 44 41 3e
       0.026324058 -0.26607075 -0.19330609 0.18873669
000360 99 91 9c bc 0c 30 a2 bd c1 eb 18 be e7 a9 da be
       -0.019112395 -0.079193205 -0.14933683 -0.4270775
000370 22 3a bd bf 9b a4 7a bc 05 59 e0 bd 11 c2 62 3d
       -1.4783366 -0.015298034 -0.10954479 0.055360857
000380 58 1b 5c 3c 6c 2a b5 bf 42 00 59 3e 98 59 22 be
       0.013434254 -1.4153571 0.21191505 -0.1585449
000390 24 af 92 bd 7b 36 39 be 4a b7 da 3d 7c de c9 3d
       -0.07162312 -0.18087189 0.10679491 0.09856889
0003a0 c6 4d a8 3c 09 18 3d 3f 77 f0 7f bd 1c de cb 3d
       0.020544898 0.738648 -0.062485185 0.099544734
0003b0 86 97 03 be a0 9d 3f 3c 3d 76 5d 3e 8f 77 71 be
       -0.1285077 0.011695296 0.21627136 -0.23580764
0003c0 3b 03 99 be d4 90 27 be 91 49 8a bb 9c 41 1c 3e
       -0.29885277 -0.16363841 -0.0042201956 0.15259403
0003d0 19 5e a0 3e d9 69 4c be 6e 58 d8 be 63 15 14 bd
       0.3132179 -0.19962253 -0.42254966 -0.03615321
0003e0 6e f6 2e be b1 8e b2 bd 9f df 14 3e e0 92 5a 3e
       -0.17086193 -0.087186225 0.1453843 0.21345091
0003f0 c4 bb 28 bd 13 fb df be 10 1d 6e be dd 7c 78 bf
       -0.041194692 -0.43746242 -0.23253274 -0.97065526

sequential/dense_4/MatMul f4 [6, 32]
000000 63 2c 80 be 0d 81 82 be f6 3f e0 3e 84 a3 89 3e
       -0.25033864 -0.25489083 0.43798798 0.26882565
000010 54 ed bd 3e c6 fd 62 be af a1 ad 3e 22 17 c2 be
       0.3709513 -0.2216712 0.33912417 -0.37908274
000020 d1 9a ca 3d 5a c3 b6 3e 7c 2a 70 be 4b 4f 9b 3d
       0.0989281 0.35695916 -0.23453707 0.07583483
000030 8b cb 8d 3e e2 7d cc 3e 27 21 89 3d c1 8b 26 be
       0.27694353 0.3993979 0.066957764 -0.1626425
000040 e6 46 65 be 74 ee a1 be 65 7e 11 be ed 8d c3 be
       -0.22390327 -0.31627238 -0.14208372 -0.38194218
000050 f7 3c 78 3d 09 1a af be 47 69 a7 3e fb 33 3f be
       0.060605016 -0.3419955 0.32697508 -0.18672173
000060 55 fe d4 3e 54 4a aa 3e 32 ad 5a be 83 f0 c2 be
       0.4160029 0.33259833 -0.21355131 -0.3807412
000070 1c 7b ba bd 8a 9c a6 3e 29 94 c4 3d a5 5f b7 3e
       -0.091055125 0.32541305 0.09598572 0.35815158
000080 0a 1d 64 be fb e5 88 3e d8 97 cf 3e b4 6d 90 be
       -0.22276703 0.2673796 0.40545535 -0.28208697
000090 21 6d b4 3e 10 d1 30 be 83 0d c0 be 47 09 b5 3e
       0.3523951 -0.17267251 -0.3751031 0.3535864
0000a0 54 ea 82 3e de 05 18 bf a0 b1 88 3e 0f b8 97 be
       0.25569403 -0.5938395 0.26698017 -0.29632613
0000b0 1f ae 1c 3e 7e eb c0 3e 24 8e 8f 3e d1 d4 a8 be
       0.15300797 0.37679666 0.28038132 -0.32974866
0000c0 7a 65 a9 be 9e 0b a8 bc 72 05 ab 3e 6d c7 fa be
       -0.33085233 -0.020513352 0.33402592 -0.48980275
0000d0 b7 93 4c 3d 4b af c7 3d 0d ba 08 be 34 d8 3e be
       0.04994556 0.09750231 -0.13352223 -0.18637162
0000e0 f1 01 b4 3e b0 ea f6 3e 67 df b4 3e 81 3b 9c 3e
       0.3515773 0.48225927 0.35326692 0.30514148
0000f0 61 f4 bf bd cb 3b 0c 3d 6a bb f6 3d 8a 1d ef bc
       -0.093727835 0.03423671 0.12047465 -0.02918889
000100 ce 94 40 3e 01 85 0b 3e f4 24 3b 3e 09 4c 97 3e
       0.18806764 0.13624956 0.18275815 0.29550198
000110 22 63 31 3c 5c a7 64 3b 5a 6e 35 be 8d 58 83 3e
       0.010826858 0.0034889793 -0.17717877 0.25653496
000120 0b c9 fc 3d 1d 3d ca 3e a9 78 c6 3d 2e 1d 53 3d
       0.123430334 0.3949975 0.09690983 0.0515415
000130 bb 9c 28 be 40 74 16 be 9d 6b 99 3e 09 e7 64 bd
       -0.16466038 -0.14692783 0.29964915 -0.055884395
000140 4d b7 f5 3e 8b 1e 13 be 82 c0 6f 3e 02 f8 c8 3e
       0.4799141 -0.1436712 0.2341328 0.39251715
000150 0f a7 97 be cf bb 54 3e 58 de b2 be 0b 34 b2 3d
       -0.29619643 0.20774768 -0.3493526 0.08701333
000160 ac 7c d9 bc ee 40 05 3f 43 b8 84 3e f7 33 1f 3e
       -0.026548706 0.520522 0.2592183 0.15547167
000170 23 50 70 3e 15 51 6d bd 19 1c 7a be 11 17 33 bf
       0.2346807 -0.057938654 -0.24424781 -0.6995707
000180 fd 72 45 3e 50 a7 28 3e b0 ac d9 3e 27 cb 77 3e
       0.19282146 0.16470075 0.42514563 0.2419859
000190 1f ea ba 3e 78 56 10 bf 99 16 87 bd 2f 2a c7 be
       0.36506745 -0.5638194 -0.06596107 -0.3889937
0001a0 0c 67 fc bf 56 60 0f be 4e ec 0b bf b6 33 46 3d
       -1.9718947 -0.14001593 -0.5465745 0.04838916
0001b0 2d 2c 17 be ea cb c6 3e 62 c9 63 bf 91 d5 a6 3d
       -0.14762945 0.3882745 -0.8897916 0.08146203
0001c0 57 72 e6 be b6 5b a2 bd 0e b0 9e be 7b ff ed 3e
       -0.4500911 -0.07927649 -0.30993694 0.4648398
0001d0 59 5b 50 3d b3 62 9a be 81 6c 8e 3e 11 da 6a be
       0.050868366 -0.30153427 0.27817157 -0.22934748
0001e0 f3 4a d1 3e 06 a4 61 bf e8 69 ca 3e 21 a0 5a 3d
       0.40877494 -0.88140905 0.39533925 0.053375367
0001f0 68 25 b7 bc 56 85 9e be 64 06 2e bf 42 78 a9 3e
       -0.022356704 -0.30961102 -0.679785 0.33099562
000200 dd 12 20 be 9a 3b 8c 3e 99 8e 54 be 50 d7 06 be
       -0.15632196 0.27389222 -0.20757522 -0.13168073
000210 9b 27 99 3e bb cc aa 3e 0b f9 99 be af 19 bb be
       0.2991303 0.33359322 -0.30072817 -0.36543033
000220 d6 88 b7 3e cf 8c a5 bd 52 8c 95 3e 39 8a 83 be
       0.35846585 -0.08083498 0.29208618 -0.25691393
000230 21 aa fd 3e c1 8e 70 be 93 22 f0 3d dd 45 1c bd
       0.4954386 -0.23491956 0.117253445 -0.038152564
000240 c0 e4 b9 be bf fe 3e 3e 7f 8b 10 be 44 69 f1 3e
       -0.36307335 0.18651865 -0.14115714 0.47150624
000250 cb 18 4a be c6 80 98 be 72 21 4b bd 62 90 bc 3e
       -0.1973602 -0.29785746 -0.049592443 0.36828905
000260 37 e9 b4 3e 2f 39 22 be 3a 16 8c be 8d b7 4a 3e
       0.3533418 -0.15842126 -0.27360708 0.19796582
000270 8b 77 d2 ba 49 40 d8 3e 9b 69 7a 3e a3 34 34 3e
       -0.0016057355 0.42236546 0.24454348 0.17598204
000280 39 72 47 be 16 0f 92 3e 46 7e 94 be 69 b5 c8 be
       -0.19477166 0.28527135 -0.2900259 -0.39200905
000290 0f 3e 5a be 63 4b 07 be 44 16 66 be 37 ea 9e 3e
       -0.21312736 -0.13212352 -0.22469431 0.31038067
0002a0 0e e1 ba 3e cd 9c 31 3e 00 b4 9a 3e 6e ac 9c be
       0.36499828 0.17344971 0.30215454 -0.30600303
0002b0 83 e3 f5 3d 40 22 7b 3d 3f 3e 39 bf 21 27 9d bd
       0.12006285 0.06131196 -0.72360605 -0.07673479
0002c0 83 71 8f 3e a1 b2 3f 3e 21 4c b9 3e 88 58 d3 be
       0.2801629 0.18720485 0.36190894 -0.4127848
0002d0 ec f8 15 3d 9a c3 a0 be bf 97 4e be b9 b6 23 bc
       0.036614344 -0.31399232 -0.20175074 -0.009992295
0002e0 46 48 ca be 19 86 df be 92 f4 a2 3e 54 5a a1 3e
       -0.39508265 -0.43656996 0.31827217 0.31514227
0002f0 c7 c8 5e 3c da c6 a2 3e 50 56 7c 3e 22 ab 0c be
       0.013597674 0.31792337 0.246423 -0.13737157
