config/appdaemon/apps/model.tflite (tflite, 69644 bytes, 10 tensors)

dense_4/bias f4 [7]
0	0xbe312997	-0.17301022
1	0xbf8a9079	-1.082534
2	0xbe0def63	-0.1386085
3	0x3eca3a60	0.39497662
4	0xbe95be64	-0.2924682
5	0x3e8ff9de	0.2812032
6	0xbee1f817	-0.4413459

dense_3/bias f4 [32]
0	0x3d428ec5	0.047499437
1	0x3ef5af43	0.47985277
2	0x3f2ac871	0.667121
3	0xbc50cc33	-0.012743997
4	0xbcb15711	-0.021647962
5	0x3cc2db53	0.023786223
6	0x3ecd9eba	0.4016016
7	0x3f45a532	0.77205193
8	0x3eddb815	0.43304506
9	0x3f205857	0.62634796
10	0x3df8edfe	0.121547684
11	0x3df18e3a	0.11794706
12	0x3f286c94	0.6579068
13	0x3eb7ce3c	0.35899532
14	0x3ee17dc9	0.4404128
15	0x3eaf99a8	0.34296918
16	0x3dcaa988	0.09895617
17	0x3f27beb4	0.65525365
18	0x3e3553fe	0.17707822
19	0x3dc878ef	0.09788691
20	0x3df64d86	0.12026505
21	0x3e6e1b4e	0.23252603
22	0x3e271c21	0.16319324
23	0x3dc12b38	0.094320714
24	0x3e366307	0.17811213
25	0x3e132f96	0.14373621
26	0x3d3895a8	0.0450646
27	0xbc1e6707	-0.009668118
28	0x3e1822c7	0.14857017
29	0x3c9c8874	0.019108035
30	0x3eab47ff	0.33453366
31	0x3d75453c	0.05988048

dense_2/bias f4 [64]
0	0x3c719579	0.01474511
1	0xbd8a642e	-0.06757389
2	0xbe0bbfbb	-0.13647358
3	0x3e5ab3dc	0.21357673
4	0xbf052d61	-0.5202237
5	0x3eb23250	0.3480401
6	0xbb066257	-0.0020505392
7	0xbdb36172	-0.087588206
8	0x3dda94cf	0.10672914
9	0x3e0e3c94	0.13890296
10	0xbc365939	-0.011129671
11	0xbd9ecd69	-0.07754023
12	0xbc18fb26	-0.009337222
13	0x3e771158	0.2412771
14	0x3e268bda	0.16264287
15	0xbdfba9d4	-0.122882515
16	0x3d9271a5	0.07150582
17	0x3bbd9b6e	0.005786351
18	0x3da4ea7f	0.08052539
19	0xbd5e591e	-0.054284208
20	0xbdd8351f	-0.10557007
21	0x3e49c7de	0.1970515
22	0x3e83884e	0.2568993
23	0xbcf4d768	-0.02988787
24	0x3b034165	0.0020027992
25	0x3d0dd857	0.034630146
26	0x3d9a7800	0.075424194
27	0xbddb091c	-0.10695097
28	0x3d9ebac4	0.077504665
29	0xbda719b7	-0.081592016
30	0xbe24ae21	-0.1608205
31	0xbe3c6e37	-0.18401419
32	0xbd9e13b9	-0.077186055
33	0x3caaf86e	0.020870414
34	0xbc37cfbb	-0.01121896
35	0x3e0ad297	0.13556896
36	0x3e387146	0.1801196
37	0xbe2af01f	-0.16693161
38	0x3e7ca855	0.24673589
39	0x3e4b5f30	0.1986053
40	0xbe7a713b	-0.24457256
41	0xbe62becc	-0.22143096
42	0x3e31fa7f	0.17380713
43	0x3b8cb43a	0.0042939456
44	0xbd893b57	-0.06700771
45	0x3e4e8ec0	0.20171642
46	0x3dec3501	0.11533547
47	0x3e955a2e	0.29170364
48	0xbddbbc6b	-0.10729297
49	0x3e0188a3	0.12649779
50	0xbdda3739	-0.10655064
51	0x3d050c21	0.03248227
52	0xbdf3f0b1	-0.119111426
53	0xbd520b88	-0.05128053
54	0x3e330484	0.17482191
55	0xbe02ce54	-0.1277402
56	0xbd7dfd02	-0.062008865
57	0x3d61ad5a	0.05509696
58	0x3d8af650	0.06785262
59	0xbe5a13d1	-0.21296622
60	0x3e24c542	0.16090873
61	0xbd7d4ff1	-0.061843816
62	0xbda0ce27	-0.078518204
63	0xbd475778	-0.0486674

dense_1/bias f4 [90]
0	0xbcfe216f	-0.031021802
1	0xbba8047a	-0.005127487
2	0x00000000	0.0
3	0xbebae683	-0.3650399
4	0x00000000	0.0
5	0xbc857f80	-0.016296148
6	0x00000000	0.0
7	0x00000000	0.0
8	0xbe7bfdce	-0.24608538
9	0x00000000	0.0
10	0x00000000	0.0
11	0x3eefd1b6	0.46839684
12	0x00000000	0.0
13	0xbc8c9780	-0.017162085
14	0x3ef78b29	0.48348358
15	0x00000000	0.0
16	0x00000000	0.0
17	0xbeea0099	-0.4570358
18	0x00000000	0.0
19	0xbeba622e	-0.3640303
20	0xbd2c2bd7	-0.042033996
21	0xbc598509	-0.013276347
22	0x00000000	0.0
23	0x00000000	0.0
24	0x3dd39663	0.10331418
25	0xbc2dfe1d	-0.010619667
26	0xbe435c69	-0.1907822
27	0x00000000	0.0
28	0x3df5f735	0.120100416
29	0xbd62fcbb	-0.055416804
30	0xbe0cc580	-0.13747215
31	0x00000000	0.0
32	0x00000000	0.0
33	0x00000000	0.0
34	0xbcd784be	-0.026308414
35	0xbba4f08c	-0.0050335582
36	0xbc87e3cf	-0.01658812
37	0xbf0d6fc6	-0.5524868
38	0xbf02c5ec	-0.51083255
39	0xbf2de8f5	-0.6793359
40	0xbef4a18f	-0.4777951
41	0x3d15eead	0.036604572
42	0xbf0ab96d	-0.5418919
43	0x00000000	0.0
44	0x00000000	0.0
45	0x00000000	0.0
46	0xbb220c61	-0.0024726617
47	0x00000000	0.0
48	0x00000000	0.0
49	0xbba9c792	-0.0051812613
50	0x3eeabade	0.45845693
51	0x00000000	0.0
52	0xbefbc58e	-0.4917416
53	0xbbee63a3	-0.007275061
54	0xbeba5ace	-0.36397403
55	0x00000000	0.0
56	0x00000000	0.0
57	0xbf3675df	-0.71273607
58	0xbb1ae563	-0.002363526
59	0xbc624c7b	-0.01381218
60	0x3e3ce0f3	0.18445186
61	0x00000000	0.0
62	0xbe8af81c	-0.27142417
63	0x00000000	0.0
64	0xbc2efbfe	-0.010680197
65	0xbc241d2d	-0.010016722
66	0x3ed4d846	0.41571254
67	0xbecf3a59	-0.40474203
68	0x00000000	0.0
69	0xbc8e4eba	-0.017371524
70	0x00000000	0.0
71	0x00000000	0.0
72	0x3e661575	0.22469123
73	0x00000000	0.0
74	0xbe049e88	-0.129511
75	0x3e228b62	0.15873483
76	0x00000000	0.0
77	0xbc776da1	-0.015101821
78	0xbc1c91d9	-0.009556257
79	0xbc2e4678	-0.010636918
80	0x00000000	0.0
81	0xbc09266e	-0.008370979
82	0xbc9c3f2a	-0.019073088
83	0x00000000	0.0
84	0xbb82ec91	-0.003995486
85	0xbc3b6702	-0.011438133
86	0x00000000	0.0
87	0x00000000	0.0
88	0xbf31720c	-0.69314647
89	0xbe100e66	-0.14067993

dense/bias f4 [90]
0	0x3ec55ddc	0.38548172
1	0x3eb65eeb	0.35619292
2	0x3ea16c5e	0.3152799
3	0x3eb31d8a	0.34983474
4	0x00000000	0.0
5	0x00000000	0.0
6	0xbc05eca5	-0.008174096
7	0x00000000	0.0
8	0xbf0a1159	-0.5393272
9	0x00000000	0.0
10	0x00000000	0.0
11	0x3f0b452b	0.54402417
12	0x00000000	0.0
13	0x00000000	0.0
14	0x00000000	0.0
15	0x3f42acf2	0.76045144
16	0xbf5c2ce8	-0.8600602
17	0x00000000	0.0
18	0x3e1aba4d	0.1511013
19	0x3e7b0792	0.24514607
20	0x3dcc04b1	0.09961832
21	0x00000000	0.0
22	0x00000000	0.0
23	0x3dc2c0d5	0.09509436
24	0xbed391b8	-0.41322112
25	0x3f8f839c	1.1212039
26	0x00000000	0.0
27	0x3f1e460d	0.6182564
28	0xbe92dceb	-0.28684172
29	0xbc478b9e	-0.012179283
30	0x3ee67547	0.4501135
31	0x00000000	0.0
32	0x00000000	0.0
33	0x00000000	0.0
34	0x00000000	0.0
35	0x3eb7244a	0.35769874
36	0x3f25e36d	0.6480015
37	0x00000000	0.0
38	0x3f7e8e3a	0.9943577
39	0x00000000	0.0
40	0x00000000	0.0
41	0x3f85606b	1.042005
42	0x3f8013da	1.0006058
43	0xbee42539	-0.4455965
44	0x3e883c11	0.26608327
45	0x00000000	0.0
46	0x00000000	0.0
47	0x00000000	0.0
48	0xbd71ac2d	-0.05900209
49	0x00000000	0.0
50	0xbeab6455	-0.33474985
51	0xbe8ec483	-0.27884302
52	0xbeb36790	-0.3503995
53	0xbea30fdf	-0.31848046
54	0xbf0008be	-0.5001334
55	0x00000000	0.0
56	0xbecb70ff	-0.39734647
57	0x00000000	0.0
58	0x3f008348	0.5020032
59	0xbed3a58c	-0.4133724
60	0x3ef45221	0.4771891
61	0xbb8b23a4	-0.004246192
62	0x00000000	0.0
63	0x00000000	0.0
64	0x00000000	0.0
65	0x00000000	0.0
66	0x00000000	0.0
67	0x00000000	0.0
68	0xbeb92609	-0.3616183
69	0x00000000	0.0
70	0x00000000	0.0
71	0x3bc3deda	0.0059774937
72	0x3e48ba4f	0.19602321
73	0xbeb1b32a	-0.34707004
74	0xbf13b4b2	-0.57697594
75	0x00000000	0.0
76	0xbc095d35	-0.008384039
77	0x3eeee6b3	0.46660385
78	0x00000000	0.0
79	0xbdb55987	-0.088549666
80	0x00000000	0.0
81	0x00000000	0.0
82	0xbe2c3a65	-0.16819151
83	0x3e8ec61e	0.27885526
84	0xbea3fc2c	-0.3202833
85	0x3b9821ab	0.0046426854
86	0x00000000	0.0
87	0xbdf133e5	-0.11777476
88	0x00000000	0.0
89	0xbf09053f	-0.5352363

sequential/dense/MatMul f4 [90, 4]
0	0xbdc32c57	-0.095299415
1	0xbdeb5103	-0.11490061
2	0xbb459052	-0.0030145836
3	0x3dfd6c2b	0.12374147
4	0x3d000fc4	0.031265035
5	0x3cefe957	0.02928607
6	0xbe7151bb	-0.23566334
7	0x3e184e85	0.14873703
8	0xbdf36591	-0.11884607
9	0x3e49820b	0.19678514
10	0xbe557083	-0.20843701
11	0x3e0cd379	0.13752545
12	0xbcb470ca	-0.022026438
13	0xbcd17efb	-0.025573244
14	0xbe81672c	-0.25274026
15	0x3e7db7a7	0.24777089
16	0xbe28f556	-0.16499838
17	0x3e2f694e	0.17130014
18	0x3e34fca8	0.17674506
19	0xbd274b88	-0.040843517
20	0xbd221e68	-0.03957978
21	0x3d1cedf0	0.038312852
22	0xbd2c9350	-0.042132676
23	0x3dc0c5f4	0.094127566
24	0xbe3a009e	-0.18164298
25	0x3d0d0014	0.034423903
26	0x3dff259a	0.12458344
27	0xbe24a4c2	-0.16078475
28	0x3e0a0cfe	0.13481519
29	0xbd43bc78	-0.04778716
30	0xbe18d6d0	-0.14925694
31	0x3e438e32	0.19097212
32	0x3dbe9bae	0.09307037
33	0xbe347b03	-0.1762505
34	0x3e244307	0.16041194
35	0xbdd68e8b	-0.10476407
36	0x3e6a24d4	0.22865611
37	0x3c0fd560	0.0087789
38	0x3d721008	0.05909732
39	0x3e495ab6	0.1966351
40	0x3e27c78c	0.16384715
41	0x3d6d5638	0.057943553
42	0x3e1b5f9a	0.15173188
43	0x3e3397b8	0.17538345
44	0xbccbbf43	-0.024871474
45	0xbd9f6fe0	-0.0778501
46	0x3d611dd4	0.054960087
47	0xbe0e9115	-0.13922532
48	0x3e2bb6b4	0.16768914
49	0x3d419ce8	0.047268778
50	0x3e2fb816	0.17160067
51	0x3ce6d830	0.028179258
52	0x3e77d6be	0.24203011
53	0x3cbea6d0	0.023272902
54	0x3e4b1b1c	0.1983456
55	0x3d4123a0	0.047153115
56	0xbe1c610d	-0.15271397
57	0xbba284a0	-0.004959658
58	0x3dcec2f4	0.10095778
59	0x3e325138	0.17413795
60	0xbc1ee5ad	-0.009698314
61	0x3e246a2c	0.16056126
62	0x3d65f070	0.056137502
63	0xbe761d78	-0.24034679
64	0x3e240fe9	0.16021694
65	0xbe12d7c7	-0.14340125
66	0xbd7c6c6b	-0.061626833
67	0xbd5f684b	-0.05454282
68	0x3e47a6fa	0.1949729
69	0xbdbc46e0	-0.09193206
70	0xbcb8e3a0	-0.022569478
71	0x3db153b4	0.08658543
72	0xbdf13a19	-0.117786594
73	0xbe5c27b3	-0.21499519
74	0x3dffa84f	0.12483274
75	0xbe3e317a	-0.18573561
76	0xbe391633	-0.18074875
77	0xbd259ac2	-0.04043079
78	0x3e33c569	0.17555775
79	0xbe3030d4	-0.17206126
80	0x3e21491a	0.15750542
81	0xbe236ca8	-0.15959418
82	0x3d1fdd5e	0.03902947
83	0xbdc69b26	-0.09697561
84	0x3ddb39ac	0.107043594
85	0x3e2e01d6	0.16992888
86	0xbc80bda0	-0.01571542
87	0xbc18d6f0	-0.009328589
88	0xbe386fc0	-0.18011379
89	0x3c320400	0.0108652115
90	0x3e372d12	0.17888287
91	0x3e68b8bc	0.2272672
92	0x3dc47190	0.09591973
93	0xbbcbaa3d	-0.0062153623
94	0x3d66e3b1	0.056369487
95	0xbe627c9b	-0.22117846
96	0xbe3d171c	-0.18465847
97	0xbe279ab4	-0.16367608
98	0x3d5dc423	0.05414213
99	0xbe447306	-0.19184503
100	0xbdf0b937	-0.11754077
101	0xbcec4277	-0.028840287
102	0x3e46632c	0.19373769
103	0xbd933cad	-0.07189307
104	0x3e1443f8	0.14479053
105	0x3da15140	0.07876825
106	0x3dfa418c	0.12219533
107	0xbd21b1d4	-0.03947623
108	0x3e48703e	0.19574067
109	0xbe6d7e81	-0.23192789
110	0x3e0382d8	0.12842882
111	0xbdaf2706	-0.08552365
112	0xbe70ab33	-0.23502807
113	0x3d3e572c	0.046469852
114	0xbdcb49f1	-0.099262126
115	0x3e1b2a49	0.1515285
116	0xbce3d608	-0.027812019
117	0x3d02a4d5	0.031895477
118	0x3e3b841c	0.18312114
119	0xbe02cda0	-0.12773752
120	0x3c9eb08c	0.019371293
121	0xbe4c5f67	-0.19958268
122	0xbe5e752e	-0.21724388
123	0xbe07537e	-0.13215443
124	0x3de9f710	0.114240766
125	0x3e4b37c8	0.19845498
126	0x3e60d334	0.21955568
127	0x3dd8a6f0	0.10578716
128	0x3e0b461a	0.1360096
129	0x3e33484a	0.17508045
130	0xbe3fdb78	-0.18736064
131	0x3d5647e0	0.05231464
132	0x3e454dee	0.19268009
133	0xbd17dbd8	-0.037074894
134	0xbda79c38	-0.08184093
135	0x3dbc94d8	0.09208077
136	0x3e3071e4	0.17230946
137	0xbd1d82bc	-0.038454756
138	0x3ccd0db0	0.02503094
139	0x3e7db51e	0.24776122
140	0xbdae8d8a	-0.0852309
141	0x3dcbe897	0.09956472
142	0xbe3ccb37	-0.18436895
143	0x3ce41ae1	0.027844848
144	0x3daf11e3	0.085483335
145	0x3e46ae4c	0.19402426
146	0xbe1416cd	-0.14461823
147	0xbe76f36e	-0.24116299
148	0xbc9e9640	-0.019358754
149	0x3e13d736	0.14437565
150	0x3e2fe18c	0.17175883
151	0xbe40227a	-0.18763152
152	0xbe8ec804	-0.27886975
153	0xbc3312d8	-0.010929786
154	0x3e32afb3	0.17449836
155	0x3df0bb19	0.11754436
156	0x3d69d4b8	0.05708763
157	0x3dd0bd94	0.10192409
158	0x3b9abdc0	0.004722327
159	0xbd8e8310	-0.06958592
160	0xbc33a8a0	-0.010965496
161	0x3e3785ec	0.17922181
162	0x3d12fc98	0.035885423
163	0xbdd21c2e	-0.10259281
164	0x3db03a52	0.08604874
165	0x3c9d9ed2	0.01924077
166	0x3e01c61b	0.12673227
167	0xbe8a054d	-0.2695717
168	0xbcc98e15	-0.024603883
169	0xbe4a6f11	-0.19768931
170	0x3e8d934b	0.27651438
171	0xbd4f59bb	-0.050622683
172	0x3e59f029	0.2128302
173	0xbd560004	-0.05224611
174	0xbe36b1ad	-0.17841215
175	0xbdc9614e	-0.098330125
176	0xbe40065c	-0.18752426
177	0x3c8aa003	0.016922003
178	0x3d6cd016	0.057815634
179	0xbe02ee5d	-0.12786241
180	0xbd534ab8	-0.05158493
181	0x3d385ca8	0.04501024
182	0x3c6ea800	0.0145664215
183	0x3e38f72a	0.18063036
184	0xbc12f270	-0.008968934
185	0x3e7ec45a	0.2487959
186	0x3df1774c	0.11790332
187	0x3d673d40	0.056454897
188	0x3d2d3bc0	0.04229331
189	0x3ae37e00	0.0017356277
190	0xb9efc400	-0.00045731664
191	0x3cf0e890	0.02940777
192	0xbe2d5ac9	-0.16929163
193	0xbc50ed34	-0.012751866
194	0xbd89af06	-0.06722836
195	0xbdb7d4e8	-0.089761555
196	0x3d4750c0	0.048660994
197	0x3d4555b0	0.04817742
198	0x3e2900e0	0.1650424
199	0xbe47b306	-0.19501886
200	0xbd8b603c	-0.068054646
201	0xbdeaa3f9	-0.114570566
202	0x3e25e6be	0.16201302
203	0xbe698952	-0.2280629
204	0xbd894531	-0.0670265
205	0xbe8b6a43	-0.2722951
206	0x3e022048	0.12707627
207	0x3e5ddb43	0.21665673
208	0x3e749316	0.23884234
209	0xbe75b4d3	-0.2399476
210	0xbd54efd5	-0.051986534
211	0x3c91992a	0.01777323
212	0x3e57a3c4	0.21058565
213	0xbdb96ec9	-0.09054334
214	0xbd9cc1dd	-0.07654164
215	0xbe30b070	-0.17254806
216	0xbe36c550	-0.17848706
217	0x3e5272d6	0.20551619
218	0xbdae34fa	-0.08506198
219	0xbdeedacb	-0.11662825
220	0x3dc25e0c	0.09490594
221	0x3e528bfe	0.20561215
222	0xbdd3bccc	-0.103387445
223	0x3e460822	0.1933904
224	0xbd65a3c4	-0.056064382
225	0xbd20c281	-0.039247993
226	0xbe0b2ee8	-0.13592112
227	0x3dcb45d6	0.099254295
228	0x3e43ebda	0.19132939
229	0xbdfb0064	-0.12255934
230	0xbdadf712	-0.084943905
231	0x3e74380a	0.23849502
232	0xbbc1d8d3	-0.00591574
233	0x3e6891be	0.22711846
234	0xbe829b49	-0.25509098
235	0xbe16e8dc	-0.14737266
236	0x3e29df71	0.16589142
237	0xbe85c983	-0.26130304
238	0x3d3e0e79	0.04640052
239	0x3c402c0c	0.011729252
240	0xbe7aaa4e	-0.24479029
241	0x3dd1e344	0.102484256
242	0xbd72556a	-0.05916349
243	0x3e074555	0.13210042
244	0xbe1c70a1	-0.1527734
245	0x3e565fca	0.20934978
246	0x3e33eccf	0.17570804
247	0xbe092af4	-0.13395292
248	0x3d93e144	0.072207004
249	0xbcf97740	-0.03045237
250	0x3d6f4210	0.05841261
251	0x3e0388c6	0.12845144
252	0xbc4e8760	-0.012605518
253	0x3e460202	0.19336703
254	0x3c960dc0	0.018317103
255	0x3e09e374	0.13465673

sequential/dense_1/MatMul f4 [90, 90]
0	0x3c8ed26b	0.01743432
1	0xbbe7a023	-0.0070686503
2	0xbdfa0538	-0.12208027
3	0xbdfbb60a	-0.122905806
4	0xbe0ddc0f	-0.13853477
5	0xbdf01534	-0.11722794
6	0x3e1d4e6c	0.15361947
7	0x3e326174	0.17419988
8	0x3b28fad3	0.0025784269
9	0xbd61cb94	-0.055125788
10	0xbdfe2bc6	-0.12410693
11	0xbca1d3b9	-0.019754278
12	0xbd7b45d0	-0.061345875
13	0x3bf8c0c0	0.007591337
14	0x3c8e9410	0.017404586
15	0xbe33fb05	-0.17576225
16	0x3d2c8bf4	0.042125657
17	0xbe2a32fc	-0.16621011
18	0xbd865e02	-0.06560899
19	0x3e3a0a8c	0.18168086
20	0x3dec7f4d	0.11547718
21	0xbe131859	-0.14364757
22	0x3dfe4a7c	0.124165505
23	0x3dfd7402	0.12375642
24	0x3c9e343f	0.019312022
25	0xbce85bec	-0.028364144
26	0xbd388fbc	-0.04505895
27	0x3db1e326	0.08685903
28	0xbddd1d73	-0.107966326
29	0x3b70a408	0.0036718864
30	0x3ccc1748	0.024913445
31	0x3dc14948	0.094378054
32	0xbdcfaca5	-0.10140351
33	0x3d4c100c	0.04981999
34	0xbd02cb3c	-0.0319321
35	0x3d383307	0.04497054
36	0xbd3e4613	-0.046453547
37	0x3e130eee	0.14361164
38	0x3d0db4b8	0.034596175
39	0x3e3910e2	0.18072847
40	0x3d9c6498	0.07636374
41	0xbd8865fe	-0.066600785
42	0xbe2b7230	-0.16742778
43	0x3d89686b	0.06709369
44	0xbe142155	-0.1446584
45	0x3e110c84	0.1416493
46	0x3d22b13c	0.039719805
47	0x3dde47c8	0.10853535
48	0xbdc911ae	-0.09817825
49	0xbdcc3382	-0.09970762
50	0x3dab881c	0.0837557
51	0xbe195224	-0.1497274
52	0x3e03b60b	0.12862413
53	0xbcec7bcb	-0.028867623
54	0x3d8122cc	0.06305465
55	0xbe13cd07	-0.1443368
56	0x3d618cde	0.055065982
57	0x3e086478	0.13319576
58	0x3cd5963a	0.02607261
59	0xbd8f2498	-0.069894016
60	0xbda2d1bc	-0.0795016
61	0xbd9897c7	-0.07450824
62	0x3dad319c	0.08456728
63	0xb97d7400	-0.00024171174
64	0xbd46938c	-0.048480555
65	0xbd78f2fc	-0.060778603
66	0x3cb11860	0.021618068
67	0x3df8de08	0.12151724
68	0x3d59833f	0.05310368
69	0xbdf4a146	-0.11944823
70	0xbd359128	-0.044327885
71	0x3e19037e	0.14942738
72	0x3e2dd9d0	0.1697762
73	0x3cd124ef	0.025530307
74	0xbdd4201b	-0.10357686
75	0x3e356e2e	0.17717811
76	0x3d8bb053	0.068207406
77	0xbcc3ea0d	-0.023915315
78	0x3e277cb6	0.16356167
79	0x3db268e6	0.08711414
80	0x3e33096c	0.17484063
81	0xbd60bd0c	-0.05486779
82	0xbe131f8d	-0.14367504
83	0xbc9fd0b1	-0.019508692
84	0xbd9ab990	-0.075549245
85	0xbd1cf360	-0.038318038
86	0xba18a500	-0.0005822927
87	0xbc8e8c13	-0.017400777
88	0x3e208228	0.1567465
89	0x3d0b8d13	0.034070086
90	0xbc3fd23b	-0.011707838
91	0xbd90698f	-0.07051384
92	0xbe18e986	-0.14932832
93	0x3dffa098	0.12481803
94	0x3dc4c428	0.09607726
95	0x3d842cc0	0.06453848
96	0x3e18eac3	0.14933304
97	0x3e05e91c	0.13077205
98	0x3e336a68	0.1752106
99	0x3e37dbfe	0.17955014
100	0x3d88e1b0	0.066836715
101	0x3e2e12f6	0.1699942
102	0x3da14b58	0.07875699
103	0x3db34cc4	0.08754876
104	0xbd5bba3c	-0.053644404
105	0x3e1c4702	0.15261462
106	0xba86e500	-0.0010291636
107	0x3df12608	0.11774832
108	0x3d65920e	0.05604749
109	0xbe14fc93	-0.14549474
110	0x3e0d1c4a	0.13780323
111	0x3c856e28	0.016287878
112	0xbdacd6c3	-0.084394
113	0xbe1996d8	-0.14998949
114	0x3e08eb10	0.13370919
115	0xbe0f11e9	-0.13971676
116	0x3d8e6a10	0.069538236
117	0xbdb0c853	-0.08631959
118	0xbda8c0bf	-0.082398884
119	0x3dfd39ad	0.123645164
120	0xbdf38310	-0.118902326
121	0xbe21081c	-0.1572575
122	0xbda14687	-0.0787478
123	0x3d10e500	0.03537464
124	0x3dd096e8	0.10185033
125	0x3dee3204	0.116306335
126	0x3dcd09a0	0.100116014
127	0xbd1c7134	-0.038193896
128	0x3d45b85a	0.048271514
129	0x3dce0328	0.10059196
130	0xbc35b8a0	-0.011091381
131	0x3c5057c0	0.012716234
132	0x3c4c58f0	0.012472376
133	0xbcebc153	-0.028778708
134	0x3dee0638	0.1162228
135	0x3c76cbd0	0.015063241
136	0xbbea6b00	-0.0071538687
137	0x3e187704	0.14889151
138	0xbe29b206	-0.16571817
139	0xbda1ef5d	-0.07906983
140	0xbd779e37	-0.06045362
141	0x3d1c3798	0.038138956
142	0x3d8afcdb	0.067865096
143	0xbdfbe6f6	-0.12299912
144	0x3d1f4ace	0.0388897
145	0x3d362614	0.044469908
146	0xbd8e67cb	-0.06953391
147	0x3e15a1da	0.14612523
148	0xbdc01fa9	-0.09381039
149	0x3db01860	0.08598399
150	0x3d8f30e7	0.06991749
151	0x3e1eefea	0.15521207
152	0x3d93cda0	0.07216954
153	0x3d32d7b8	0.043662757
154	0xbdc2bbca	-0.09508474
155	0xbd17130c	-0.0368834
156	0xbd13e99c	-0.03611146
157	0x3d3fe908	0.046853095
158	0x3cfdf34d	0.030999804
159	0x3d9f93b0	0.07791841
160	0xbe17bbf2	-0.14817789
161	0xbd9e9ea1	-0.077451
162	0x3e278563	0.16359477
163	0x3e0c63ff	0.1371002
164	0xbe0fb5ec	-0.14034241
165	0xbbc6b8e0	-0.0060645193
166	0x3c815ac0	0.015790343
167	0x3e0cfd54	0.13768512
168	0xbdd74ece	-0.10513078
169	0x3dc82ef6	0.09774582
170	0xbdcdfc83	-0.100579284
171	0xbd7921f4	-0.060823396
172	0xbbce66da	-0.006298882
173	0x3dd7ed6d	0.10543332
174	0xbddf66c8	-0.10908276
175	0x3e14a0b6	0.14514431
176	0x3dda46d0	0.10658038
177	0xbd9c0bb3	-0.07619419
178	0xbdf88104	-0.12133983
179	0xbe179869	-0.14804234
180	0xbe1b7d4e	-0.15184519
181	0xbe0497c8	-0.12948525
182	0x3da84b48	0.08217484
183	0xbddaffac	-0.10693297
184	0xbda4b418	-0.08042163
185	0xbe0c93bc	-0.13728231
186	0xbe34670a	-0.17617431
187	0xbde27251	-0.110569604
188	0xbe154e36	-0.14580616
189	0x3d3c7da0	0.046018243
190	0xbdafad62	-0.08577992
191	0xbddc225a	-0.107487395
192	0x3d83fa16	0.064441845
193	0xbe0b21bc	-0.13587087
194	0x3df37500	0.1188755
195	0xbd66a5b8	-0.056310385
196	0x3e1e1b62	0.15440133
197	0x3d449e34	0.048002437
198	0xbc4644e0	-0.012101382
199	0x3ddc0070	0.10742271
200	0x3e38c61c	0.18044323
201	0x3d7cd814	0.061729506
202	0x3e087ccc	0.13328856
203	0xbca84d68	-0.020544723
204	0xbe12f79c	-0.14352268
205	0x3d498c90	0.049206316
206	0x3d9cb554	0.07651773
207	0xbdb465e9	-0.088085
208	0x3e2eb616	0.17061648
209	0x3e2ec354	0.170667
210	0xbb91fb80	-0.00445503
211	0x3e15c122	0.14624456
212	0x3d77a2f4	0.06045814
213	0x3da1ce9c	0.07900736
214	0xbdf5295c	-0.11970779
215	0x3dfb245c	0.122627944
216	0xbd4bc99c	-0.049752817
217	0xbd9a5d56	-0.07537334
218	0xbdd1ee38	-0.10250515
219	0xbd9e501d	-0.07730124
220	0xbe1e5138	-0.1546067
221	0xbd2f8b94	-0.04285772
222	0x3e13593a	0.14389506
223	0xbdb16962	-0.08662678
224	0xbde1de17	-0.110286884
225	0x3da665e4	0.08124903
226	0x3dd35b50	0.10320151
227	0x3dd2d888	0.10295206
228	0x3dd9fb40	0.10643625
229	0x3d52654c	0.051366135
230	0xbdf43677	-0.11924451
231	0x39776400	0.00023593009
232	0x3e2a983c	0.16659635
233	0x3e13661c	0.1439442
234	0xbdbe82dc	-0.09302303
235	0x3dc28090	0.094971776
236	0x3e3738ea	0.17892805
237	0xb9806000	-0.00024485588
238	0xbd0c3be0	-0.03423679
239	0x3d81bb52	0.06334557
240	0x3e2f7158	0.17133081
241	0xbd592ddc	-0.05302225
242	0x3cd9eec0	0.026603103
243	0xbdfc76b6	-0.1232733
244	0xbdc5b291	-0.096531995
245	0x3d81c82a	0.063370064
246	0x3df84d2c	0.12124094
247	0x3de90c50	0.113793015
248	0x3db40184	0.087893516
249	0x3d69ac10	0.057048857
250	0xbb9775a0	-0.0046221763
251	0x3e1cf354	0.15327197
252	0xbe2695a5	-0.16268022
253	0xbd92afa7	-0.07162409
254	0xbc930d40	-0.017950654
255	0x3d906304	0.07050136

sequential/dense_2/MatMul f4 [64, 90]
0	0xbede1304	-0.43373883
1	0x3e491c87	0.19639789
2	0x3da617a6	0.08109979
3	0x3bc21738	0.005923178
4	0x3cf3a750	0.029742867
5	0x3ca45e46	0.020064484
6	0xbd70c610	-0.058782637
7	0x3e38b083	0.18036084
8	0x3ceb746e	0.028742041
9	0xbdec9e4e	-0.11553632
10	0x3e3ef1bf	0.18646906
11	0xbe3735e6	-0.17891654
12	0xbe459ab3	-0.19297294
13	0x3e12c596	0.14333186
14	0xbe61bed0	-0.22045445
15	0xbd6013b0	-0.054706275
16	0x3e27319d	0.1632752
17	0x3e28f581	0.16499902
18	0x3ca65480	0.020303965
19	0x3b6b86be	0.0035938467
20	0xbbe0b361	-0.006857321
21	0x3e4ab5b7	0.19795881
22	0xbd146af0	-0.036234796
23	0x3e063393	0.13105612
24	0x3ca9e3b1	0.020738455
25	0xbdd636d2	-0.10459675
26	0x3d03d78e	0.03218799
27	0x3dbe80fa	0.09301944
28	0xbe8a3313	-0.26992092
29	0x3d97faef	0.07420909
30	0x3e908cfe	0.28232569
31	0x3e005909	0.12533964
32	0xbe019a2f	-0.12656473
33	0x3dcc02ea	0.09961493
34	0xbf25ffd0	-0.64843464
35	0xbc313527	-0.010815895
36	0xbe360b46	-0.17777738
37	0x3f21dd08	0.6322789
38	0xbeb8505c	-0.3599881
39	0x3b8a20ad	0.004215321
40	0x3e840f4a	0.25792915
41	0xbe0ff389	-0.14057745
42	0x3e594de0	0.21221113
43	0x3e041765	0.1289955
44	0xbc4c6c40	-0.012476981
45	0xbddfad69	-0.10921747
46	0xbe44b954	-0.19211322
47	0xbdf91d48	-0.12163788
48	0xbc0b42d0	-0.008499816
49	0xbde60992	-0.11232294
50	0xbd26fb80	-0.040767193
51	0x3d4c8c28	0.04993835
52	0x3a5c8712	0.0008412461
53	0xbde79d7e	-0.11309336
54	0x3b736e19	0.003714448
55	0xbd94d090	-0.07266343
56	0x3b2d0b80	0.002640456
57	0x3dcafd68	0.09911615
58	0x3e57e6a7	0.2108408
59	0xbdf92e63	-0.12167051
60	0xbf2a798e	-0.6659173
61	0x3db901be	0.090335354
62	0x3e809939	0.251169
63	0xbd81905e	-0.06326364
64	0x3dcf43a9	0.10120327
65	0x3df2e7a4	0.11860588
66	0xbccc51ec	-0.024941407
67	0xbd78fdd0	-0.06078893
68	0x3dafd0e2	0.08584763
69	0x3d396a31	0.045267288
70	0x3cc6fa98	0.024289414
71	0x3c924a88	0.017857805
72	0x3cc0bdaf	0.023527948
73	0x3d9b1e62	0.075741544
74	0x3d8a4ddf	0.06753134
75	0xbf090987	-0.5353016
76	0xbd2bd434	-0.04195042
77	0x3cdb4c97	0.02676992
78	0x3c4ba8d3	0.012430388
79	0x3d548909	0.0518885
80	0xbc95b900	-0.018276691
81	0x3dedfc1a	0.1162035
82	0xbd5886be	-0.052862875
83	0x3c4bedb0	0.012446806
84	0xbeaaeb79	-0.33382776
85	0x3e48c9b4	0.19608194
86	0x3e26ad13	0.1627696
87	0xbcce7e68	-0.02520676
88	0x3d963491	0.07334245
89	0xbf188178	-0.59572554
90	0xbd18629f	-0.037203427
91	0x3dc49a40	0.09599733
92	0x3e2700bd	0.16308875
93	0x3df2d23e	0.11856507
94	0xbe3c962d	-0.18416663
95	0xbe2c566e	-0.16829845
96	0x3d46ea4c	0.048563287
97	0x3dd797ba	0.105269864
98	0xbcccdecb	-0.02500858
99	0x3dff108e	0.124543294
100	0xbdb414e4	-0.08793047
101	0xbc9830e4	-0.018578
102	0x3e48e959	0.19620265
103	0xbde5f5fb	-0.11228558
104	0xbf31fd79	-0.69527394
105	0xbcc01980	-0.02344966
106	0x3e0bf4f9	0.13667668
107	0x3e440adc	0.19144768
108	0x3e320831	0.17385937
109	0x3e10dfed	0.14147921
110	0x3dcd39aa	0.10020764
111	0xbe3ea061	-0.18615867
112	0xbd7e984c	-0.06215696
113	0x3d975d72	0.0739087
114	0xbe5a41cc	-0.21314162
115	0x3dd55bf6	0.10417931
116	0xbe16432e	-0.14674065
117	0xbe0c6765	-0.13711317
118	0xbe405295	-0.18781503
119	0x3dbaace7	0.0911501
120	0x3d2b4102	0.041810043
121	0x3e1582b7	0.14600645
122	0xbdad4343	-0.08460095
123	0x3e4814bf	0.19539164
124	0xbd3b9fb6	-0.04580661
125	0xbe3ed2c3	-0.18635087
126	0x3da9fd1a	0.083002284
127	0x3e1f9350	0.15583539
128	0xbe69ae49	-0.22820391
129	0xbd836a50	-0.06416762
130	0x3e2d2018	0.16906774
131	0xbe5cde2c	-0.21569127
132	0x3d401700	0.046896935
133	0xbc679fd0	-0.014137223
134	0xbcb5ed00	-0.022207737
135	0xbe164aa1	-0.14676906
136	0xbe830440	-0.2558918
137	0xbdd801df	-0.10547232
138	0xbd04dce0	-0.032437205
139	0xbe353db4	-0.17699319
140	0xbd3cb701	-0.046072964
141	0xbd300400	-0.042972565
142	0x3e5a67a8	0.21328604
143	0x3c5ea4dc	0.01358911
144	0x3db8c184	0.09021285
145	0x3e0dd70f	0.1385157
146	0xbd592cc8	-0.053021222
147	0x3e8dd9e2	0.27705294
148	0xbd0574da	-0.03258214
149	0xbe50a648	-0.20375931
150	0xbe431b73	-0.1905344
151	0x3dd1caf2	0.10243787
152	0x3d9aff17	0.07568186
153	0x3daf30fa	0.085542634
154	0xbb117058	-0.0022192206
155	0xbdcd564e	-0.10026227
156	0xbe2a935c	-0.16657776
157	0xbc8f46c1	-0.017489793
158	0xbdae865b	-0.0852172
159	0xbe38044c	-0.17970389
160	0x3e417fcd	0.18896408
161	0xbd846782	-0.06465055
162	0x3d74270d	0.059607554
163	0x3dafd14e	0.085848436
164	0xbc92b322	-0.017907683
165	0x3b05cce8	0.0020416323
166	0xbe24f68b	-0.16109674
167	0x3d7fc894	0.062447146
168	0x3e203507	0.15645228
169	0xbe285a20	-0.1644063
170	0x3e2dbc75	0.16966422
171	0x3d86f8aa	0.06590398
172	0x3cd25537	0.0256754
173	0xbda6376e	-0.08116041
174	0x3e133ab2	0.14377859
175	0xbd0888d3	-0.03333361
176	0xbdf7eafd	-0.12105367
177	0xbe3b6ff3	-0.18304424
178	0x3d975e2a	0.07391007
179	0xbe360468	-0.17775118
180	0xbcea071e	-0.028567847
181	0xbd942987	-0.07234483
182	0xbd57cc8c	-0.052685305
183	0xbc244f11	-0.0100286165
184	0xbd9736c7	-0.07383495
185	0x3d117f1b	0.035521608
186	0x3e134375	0.14381202
187	0x3dd1625a	0.10223837
188	0x3c958194	0.018250264
189	0x3dbbd0aa	0.09170659
190	0xbc20a3b0	-0.009804651
191	0x3bd968e7	0.00663482
192	0x3e1e257f	0.15443991
193	0xbd12694e	-0.035744958
194	0x3d9847d0	0.07435572
195	0x3d181410	0.037128508
196	0x3de77c3e	0.11302994
197	0xbe12f0d4	-0.14349681
198	0x3dc7d936	0.097582266
199	0x3e164f4c	0.14678687
200	0x3e0d6ef0	0.1381185
201	0x3ccfd823	0.025371617
202	0xbe41aa22	-0.18912557
203	0x3d39937c	0.045306668
204	0xbdb613c6	-0.0889049
205	0x3d30e01a	0.04318247
206	0x3c8459c8	0.016156092
207	0x3e466847	0.19375716
208	0x3cede7db	0.029041221
209	0x3ca94e28	0.02066715
210	0x3e1826ad	0.14858504
211	0x3dccf292	0.10007204
212	0x3d2a17f0	0.041526735
213	0xbd83e80c	-0.06440744
214	0xbe03e5e0	-0.12880659
215	0x3d15df50	0.03658992
216	0x3c8ac9d1	0.016941937
217	0xbe394aa2	-0.18094876
218	0x3e02e47a	0.1278247
219	0x3d3279fc	0.043573365
220	0x3dcf4d1d	0.1012213
221	0x3e4fab20	0.20280123
222	0xbeb4f3b3	-0.35342178
223	0x3d19694c	0.037453935
224	0x3da4c98e	0.08046256
225	0x3c31a470	0.010842428
226	0x3ec78432	0.38968045
227	0xbd761f60	-0.060088515
228	0x3d90422a	0.0704387
229	0x3e25f3dd	0.16206308
230	0xbe7244e0	-0.23659086
231	0xbe0eaa6d	-0.139322
232	0xbdf322bb	-0.11871859
233	0x3c9255d6	0.017863195
234	0xbd7a4b20	-0.0611068
235	0xbdaca824	-0.08430508
236	0xbd6d8790	-0.05799061
237	0x3d8d992b	0.0691398
238	0x3e0e676f	0.13906644
239	0x3d975540	0.07389307
240	0xbdbf476e	-0.09339796
241	0xbc9151d8	-0.017739221
242	0xbda47a68	-0.0803116
243	0x3d1aa91c	0.03775893
244	0xbcfaa34d	-0.030595446
245	0x3dac7cf2	0.08422269
246	0xbe393356	-0.1808599
247	0x3d96c7b8	0.07362312
248	0x3e2b4ff9	0.16729726
249	0x3d230f22	0.039809354
250	0x3e2c30b5	0.16815455
251	0x3e425d35	0.18980868
252	0xbccba02c	-0.02485665
253	0xbe3c5bf2	-0.1839445
254	0xbd8ad95b	-0.067797385
255	0x3d4908ba	0.049080588

sequential/dense_3/MatMul f4 [32, 64]
0	0xbe86ae4b	-0.2630485
1	0xbdc3f512	-0.09568228
2	0x3e1314e2	0.14363435
3	0x3e3bd47d	0.18342777
4	0x3da51143	0.08059933
5	0x3d8f991c	0.07011625
6	0x3cf0da5d	0.029400999
7	0x3e4e6f5d	0.20159669
8	0xbbe4a7ee	-0.0069780266
9	0x3e40904f	0.1880505
10	0xbe63e7b0	-0.2225635
11	0xbd88cb28	-0.06679374
12	0xbe7a9de2	-0.2447429
13	0x3ca748bf	0.02042043
14	0x3e5a8ac6	0.21342
15	0xbd1fa813	-0.038978647
16	0xbd85db91	-0.065360196
17	0xbd875960	-0.06608844
18	0x3e5815ef	0.21102117
19	0xbdc75581	-0.097331055
20	0xbe15794b	-0.14597051
21	0xbf0cfe31	-0.55075365
22	0xbd7d06ab	-0.061773937
23	0xbe2ab267	-0.16669618
24	0x3dd80375	0.105475344
25	0x3c759787	0.01498974
26	0x3d2d9bba	0.04238484
27	0xbf1d8af1	-0.6154013
28	0xbe43e277	-0.19129358
29	0xbd7f0389	-0.06225923
30	0xbddc4f17	-0.10757273
31	0xbe81459c	-0.2524842
32	0x3cb0ae13	0.02156738
33	0x3e221c63	0.15831141
34	0x3e07f0b5	0.13275416
35	0x3e551f76	0.20812783
36	0x3e3dede1	0.18547775
37	0xbc91a42f	-0.017778484
38	0xbe779cfe	-0.24180982
39	0x3e8faaf9	0.2806013
40	0xbdf90ffc	-0.12161252
41	0xbdbc77f4	-0.09202567
42	0xbde075a3	-0.109599374
43	0x3d9e6374	0.07733813
44	0x3d85c034	0.065308005
45	0x3e3ac50e	0.18239233
46	0xbd69f8af	-0.05712193
47	0x3f0ec88e	0.5577477
48	0xbdb339c5	-0.08751253
49	0x3d90c171	0.07068146
50	0x3c92430f	0.017854242
51	0x3dfa3ed8	0.12219018
52	0xbc81013b	-0.015747657
53	0xbd9f76ed	-0.07786355
54	0xbdd12fff	-0.10214233
55	0x3d6e2c71	0.05814785
56	0xbd8e2413	-0.06940474
57	0xbd170a95	-0.036875326
58	0x3e525861	0.20541526
59	0xbe9c3e85	-0.3051645
60	0x3d24a516	0.0401965
61	0x3c3c631a	0.011498237
62	0x3e0be378	0.13660991
63	0xbecf0d42	-0.40439802
64	0x3e7617a2	0.24032453
65	0x3e24102c	0.16021794
66	0x3db6b10d	0.089204885
67	0x3f797fa5	0.97460395
68	0xbb7c3145	-0.0038481515
69	0x3ebd8444	0.37014973
70	0xbe57b507	-0.2106515
71	0x3e642aa9	0.22281899
72	0xbd6d0764	-0.057868376
73	0x3e08d83a	0.13363734
74	0x3e06933c	0.13142103
75	0x3e55d0ff	0.20880507
76	0xbe37460f	-0.17897819
77	0x3e93f396	0.2889678
78	0xbed49dac	-0.41526544
79	0xbe8eb426	-0.27871817
80	0xbe274e9b	-0.1633858
81	0x3dc062b4	0.09393826
82	0x3e1a4fb0	0.15069461
83	0xbd5a18c8	-0.05324629
84	0x3d0442bb	0.0322902
85	0xbed83161	-0.42225173
86	0xbe91a7b8	-0.28448272
87	0xbd9f0139	-0.07763905
88	0x3c1f9f03	0.009742501
89	0xbddb0693	-0.10694613
90	0x3bc46450	0.0059934035
91	0xbefc8068	-0.49316716
92	0x3e4b83a6	0.19874439
93	0xbce97bdc	-0.028501444
94	0xbd652427	-0.05594268
95	0x3d371415	0.044696886
96	0xbe13ceeb	-0.14434402
97	0x3e4b1e70	0.1983583
98	0xbdfbb8d1	-0.1229111
99	0x3bc8db17	0.006129633
100	0xbea9f5e3	-0.3319541
101	0xbc544a72	-0.012957202
102	0x3e91e8fc	0.28498065
103	0x39bd192b	0.0003606764
104	0xbde68a85	-0.11256889
105	0xbe72ee00	-0.23723602
106	0x3ec32a47	0.38118193
107	0x3defab10	0.117025495
108	0xbd2d0cb1	-0.04224843
109	0x3c9e5aac	0.019330345
110	0xbe501b3c	-0.20322889
111	0x3dcbe3f5	0.09955589
112	0xbec5b186	-0.38612002
113	0x3e9e8ff4	0.30969203
114	0xbe0a663e	-0.13515565
115	0x3d9e1a7a	0.07719894
116	0x3e199aaf	0.15000413
117	0xbd13182f	-0.035911735
118	0xbdc4e37a	-0.096137
119	0xbe2d1f04	-0.16906363
120	0xbe8821dd	-0.26588336
121	0x3e91f816	0.28509587
122	0x3e380097	0.17968975
123	0xbdaf512a	-0.08560403
124	0x3d34414d	0.04400759
125	0xbe38d9b0	-0.18051791
126	0xbd711bcb	-0.058864396
127	0x3cfef63e	0.031123277
128	0xbcd632e8	-0.02614732
129	0xbe7c5a04	-0.24643713
130	0x3e87d3a6	0.26528662
131	0xbcb23879	-0.021755444
132	0xbefdfd41	-0.4960728
133	0x3ddb8c1d	0.10720084
134	0xbcdf960c	-0.027293228
135	0xbde01b91	-0.10942758
136	0xbd0cc518	-0.03436765
137	0xbfac52e1	-1.3462793
138	0xbecb5414	-0.39712584
139	0x3e64268e	0.22280332
140	0xbf5809ac	-0.8438976
141	0x3da80554	0.08204141
142	0x3d0bac6b	0.034099977
143	0x3be3ef0b	0.0069559864
144	0x3e60b575	0.2194422
145	0x3c4c0b1e	0.012453822
146	0xbd8bca7c	-0.0682573
147	0xbe205698	-0.15658033
148	0xbe0fd23c	-0.14045042
149	0xbded2a2e	-0.11580311
150	0x3dae5c87	0.08513742
151	0x3ea50101	0.32227328
152	0xbf402f86	-0.75072515
153	0x3efd6edb	0.4949864
154	0xbedab00d	-0.4271244
155	0xbf37d133	-0.7180359
156	0x3d02ea11	0.031961504
157	0xbe29efa7	-0.16595326
158	0x3d44c6c1	0.04804111
159	0x3e9d3ad1	0.30708936
160	0x3c6d259f	0.014474302
161	0xbd66220d	-0.056184817
162	0x3d3aa0b5	0.04556342
163	0xbc3a62cb	-0.011376093
164	0xbd574a5a	-0.05256114
165	0xbf726cfe	-0.9469756
166	0x3da2f9f4	0.07957831
167	0xba0adac7	-0.00052968826
168	0xbe54c751	-0.20779158
169	0xbee66264	-0.4499694
170	0x3d8d32ca	0.06894453
171	0xbecd118f	-0.4005246
172	0xbf032dca	-0.51241744
173	0x3dc5f457	0.09665745
174	0xbb8e0930	-0.0043345913
175	0x3d531c26	0.051540516
176	0xbf979e9e	-1.1845281
177	0x3bd9e6b8	0.0066498183
178	0x3dbca699	0.092114635
179	0x3dd9591f	0.106127016
180	0xbf051e6f	-0.5199956
181	0xbebf9727	-0.37420008
182	0xbbc23240	-0.0059264004
183	0xbde70dc6	-0.11281924
184	0x3e92b654	0.2865473
185	0xbbd84c95	-0.006600926
186	0xbd3365ff	-0.043798443
187	0xbef11670	-0.4708743
188	0x3c602009	0.013679513
189	0xbf00603b	-0.50146836
190	0xbf27b256	-0.65506494
191	0xbee4a68c	-0.44658315
192	0xbf3895a9	-0.72103363
193	0x3d905774	0.0704793
194	0x3de889ab	0.11354383
195	0x3e081c38	0.13292015
196	0x3f8aaa26	1.0833175
197	0xbdcd36bc	-0.100202054
198	0xbd808e77	-0.06277173
199	0x3c04390e	0.0080702435
200	0x3dc40911	0.09572042
201	0x3ce94ca1	0.028478922
202	0xbe087e74	-0.13329488
203	0x3dd0b328	0.10190421
204	0x3e59d2d4	0.21271831
205	0x3e5aa478	0.21351802
206	0x3cf4636d	0.029832566
207	0x3d8234b6	0.0635771
208	0xbd649ee6	-0.0558156
209	0xbe622ac6	-0.2208663
210	0xbd76481a	-0.060127355
211	0xbe6abef4	-0.22924405
212	0x3d43cfcb	0.04780559
213	0x3dd4b9f5	0.10387031
214	0x3e6e31df	0.23261212
215	0x3e66ee80	0.22551918
216	0x3e02780e	0.1274111
217	0xbe3d188b	-0.18466394
218	0xbdc61a66	-0.09673004
219	0x3c841448	0.016122952
220	0xbdb36adc	-0.08760616
221	0x3e69f495	0.22847207
222	0x3baaa631	0.0052078
223	0xbe01f302	-0.12690356
224	0x3d22bd7b	0.039731484
225	0x3e024376	0.12721047
226	0x3ddaacdf	0.10677504
227	0xbdc68f72	-0.09695329
228	0x3e6aea9d	0.2294106
229	0x3e1550c2	0.14581588
230	0xbde95fe1	-0.113952406
231	0x3d5ec5b7	0.054387774
232	0x3c771f32	0.015083121
233	0xbe12395d	-0.14279695
234	0x3e209cbe	0.15684792
235	0xbe097503	-0.13423543
236	0x3e264885	0.16238602
237	0xbdc56208	-0.096378386
238	0xbd012571	-0.031529848
239	0xbe17aae9	-0.14811291
240	0xbe238a51	-0.15970732
241	0xbcf7508c	-0.030189775
242	0xbe235280	-0.1594944
243	0x3ddf3764	0.10899237
244	0xbe671beb	-0.22569244
245	0xbe2c5ea7	-0.16832982
246	0xbd85319c	-0.06503603
247	0x3dfeac49	0.124352045
248	0x3e621189	0.22077002
249	0xbe8a138b	-0.26968035
250	0xbc25daab	-0.010122935
251	0xbe8ae1d4	-0.27125418
252	0x3e900f60	0.2813673
253	0xbe64bb9d	-0.22337194
254	0x3e6a3e0a	0.22875229
255	0xbec83458	-0.39102435

sequential/dense_4/MatMul f4 [7, 32]
0	0x3daff292	0.085911885
1	0xbe8caf12	-0.27477318
2	0xbf773623	-0.9656698
3	0x3e95efa5	0.29284397
4	0x3eb861e9	0.360122
5	0x3e337bf2	0.1752775
6	0x3df9ba7f	0.121937744
7	0xbea774ca	-0.3270629
8	0x3db43114	0.087984234
9	0x3e817dbd	0.25291243
10	0x3d95fd07	0.07323652
11	0x3e4b93a6	0.19880542
12	0xbe25b4a3	-0.16182189
13	0xbe69a8ca	-0.22818294
14	0xbf09ee0c	-0.53878856
15	0x3ded09bc	0.11574122
16	0xbe51cc63	-0.20488124
17	0xbeb2ffb5	-0.34960714
18	0xbeac0d81	-0.33604053
19	0xbcb94710	-0.022616893
20	0xbe371570	-0.17879272
21	0x3e9dd84d	0.30829087
22	0x3e04e77f	0.12978934
23	0x3e2ec897	0.17068706
24	0xbe8341b8	-0.25636077
25	0xbe1f69f3	-0.1556776
26	0xbea6a1a9	-0.32545212
27	0x3eaac6a1	0.33354667
28	0xbe776b90	-0.24162126
29	0x3e7080ba	0.23486605
30	0x3ddfb84d	0.109238245
31	0xbe562ffe	-0.20916745
32	0x3e067a41	0.13132574
33	0x3cafe9cc	0.021473788
34	0x3dd8cb9c	0.105857104
35	0x3e7932d8	0.24335802
36	0x3e9ff40a	0.31240875
37	0x3e07732e	0.13227531
38	0x3d83fba9	0.06444485
39	0x3e3ed801	0.18637086
40	0x3e7f2c77	0.24919306
41	0x3e27d4e8	0.16389811
42	0x3e427f02	0.18993762
43	0x3e2001b8	0.15625656
44	0x3cb2b835	0.021816352
45	0x3c034aac	0.008013409
46	0x3ea41723	0.32048902
47	0x3e15b9c4	0.14621645
48	0xbda2960e	-0.07938777
49	0x3e06d7b2	0.13168219
50	0x3e05ca0d	0.13065358
51	0x3dafc3db	0.08582278
52	0x3e477b82	0.19480708
53	0x3e8ee1a7	0.27906534
54	0x3ba53e90	0.0050428584
55	0x3c556bea	0.013026217
56	0x3e896cdb	0.26840863
57	0x3e8b970b	0.27263674
58	0xbd3e38c1	-0.046440843
59	0x3e8e21cc	0.2776016
60	0x3ec0e07c	0.37671268
61	0xbe8ac9f2	-0.27107197
62	0xbcd77ab8	-0.026303634
63	0xbb888f3a	-0.0041674646
64	0x3d976340	0.07391977
65	0x3e1b88fd	0.15188976
66	0x3ea562fe	0.32302088
67	0x3e9ba66c	0.30400407
68	0xbce8ccca	-0.028417964
69	0xbd870cc5	-0.065942325
70	0xbe1c5316	-0.1526607
71	0x3e5b3ea8	0.2141062
72	0x3e96301c	0.2933358
73	0xbdd077a1	-0.101790674
74	0xbee4519c	-0.44593513
75	0xbe847bd3	-0.2587572
76	0x3d02a3fb	0.031894665
77	0x3e7ed1d7	0.24884735
78	0xbe601961	-0.21884681
79	0xbe8783be	-0.264677
80	0x3e11ed6f	0.1425073
81	0x3ea55c9c	0.32297218
82	0x3e61aad2	0.22037819
83	0xbe4b0904	-0.19827658
84	0xbe5340fd	-0.2063026
85	0xbe0b4c8e	-0.13603422
86	0x3e499c58	0.19688547
87	0xbe97d15b	-0.29651913
88	0x3e8c6d6a	0.27427226
89	0xbd3c1203	-0.045915615
90	0xbe34207d	-0.17590518
91	0x3e736380	0.23768425
92	0x3e4f7b78	0.20261943
93	0x3ec1933d	0.37807646
94	0xbea87a4b	-0.32905802
95	0x3e87e4f9	0.2654188
96	0x3e951f84	0.29125607
97	0x3e1ffc55	0.15623601
98	0x3e80af26	0.25133628
99	0x3db724fe	0.089426026
100	0x3cfe485d	0.031040365
101	0x3e018586	0.12648591
102	0x3dfe8faa	0.124297455
103	0x3e95a50e	0.2922749
104	0x3eb87c2d	0.3603224
105	0x3e8bce20	0.27305698
106	0xbde14fb5	-0.11001531
107	0xbe1909f6	-0.14945206
108	0x3dbda901	0.092607506
109	0x3e2a3b51	0.1662419
110	0x3e59dd33	0.21275787
111	0x3e8e3523	0.27774915
112	0x3d3a2980	0.045449734
113	0x3e9f4c20	0.31112766
114	0xbeabb78f	-0.33538482
115	0xbd86f1ba	-0.065890744
116	0x3e8500c6	0.25977153
117	0xbe8a67ed	-0.27032414
118	0xbeb4f7b4	-0.35345232
119	0xbee4c351	-0.44680265
120	0xbda01312	-0.078161374
121	0xbe80b03c	-0.25134456
122	0x3d5fa22a	0.05459801
123	0xbea43e97	-0.32079002
124	0x3de7aeb1	0.113126166
125	0xbd88c6ae	-0.0667852
126	0x3dc10ddf	0.09426474
127	0xbea5c792	-0.32378823
128	0x3eafe605	0.34355178
129	0x3dffba24	0.124866754
130	0xbfdd3066	-1.7280395
131	0x3e89d9b3	0.26923904
132	0x3ea94e75	0.3306767
133	0x3e07f040	0.13275242
134	0x3d9fd5ba	0.07804437
135	0x3dfa6f2d	0.12228236
136	0xbc24e591	-0.0100644985
137	0x3e071e91	0.13195254
138	0xbe91ca55	-0.2847468
139	0x3e3212fa	0.17390051
140	0xbe0e9ddb	-0.13927405
141	0x3d71c5cc	0.059026524
142	0xbcd0997d	-0.025463814
143	0xbe840276	-0.25783128
144	0xbd8660b6	-0.06561415
145	0xbf929de0	-1.145443
146	0x3e3b60b2	0.18298605
147	0xbdd6ae31	-0.10482443
148	0xbdb27378	-0.0871343
149	0x3e9443d6	0.28958005
150	0x3dc3337d	0.09531305
151	0x3dcee46a	0.1010216
152	0xbe6ac791	-0.22927691
153	0xbe322817	-0.17398106
154	0xbe1f638c	-0.15565318
155	0x3e956d67	0.2918503
156	0xbe230b3c	-0.15922254
157	0xbe5c3621	-0.21505024
158	0xbd1742e6	-0.036929034
159	0x3ebfda1d	0.37471095
160	0xbe487328	-0.19575179
161	0x3ddd8aa5	0.1081746
162	0xbe5fbf03	-0.21850209
163	0xbe6affbc	-0.22949117
164	0xbea8a7bf	-0.3294048
165	0xbe999594	-0.29996932
166	0x3e08b9bd	0.13352104
167	0x3e98ce45	0.2984487
168	0x3dc201e8	0.0947302
169	0x3e850565	0.25980678
170	0x3e881983	0.26581964
171	0xbc21b016	-0.009868642
172	0x3db6f913	0.08934226
173	0x3ec244a0	0.37942982
174	0x3eca4b41	0.3951054
175	0xbea83574	-0.32853281
176	0xbea2ffbe	-0.3183574
177	0xbe61431b	-0.21998255
178	0x3e848046	0.25879115
179	0x3ecfbd6a	0.405742
180	0x3eb77495	0.35831133
181	0xbe21c0b4	-0.15796167
182	0x3dccbe91	0.09997285
183	0x3e08521c	0.13312572
184	0x3eb4811b	0.3525475
185	0xbebc7171	-0.368053
186	0xbe89e5ce	-0.2693314
187	0xbdcf61a9	-0.10126049
188	0x3eed54e8	0.4635384
189	0x3e0a871d	0.13528104
190	0x3e09917d	0.13434406
191	0xbe5498cb	-0.20761411
192	0x3e4682af	0.1938579
193	0xbe0831e4	-0.13300282
194	0x3e9bb26a	0.30409557
195	0x3ea44071	0.32080415
196	0xbd5728a0	-0.052528977
197	0xbe451a4c	-0.19248313
198	0xbf1c983b	-0.61169785
199	0xbec26539	-0.37967852
200	0xbf1f97d9	-0.62341076
201	0xbf73d20e	-0.95242393
202	0x3e7fcdb6	0.24980816
203	0xbe670605	-0.2256089
204	0xbeaedef7	-0.34154484
205	0xbe4a5137	-0.19757544
206	0x3ebfb28b	0.37440905
207	0xbeb64c86	-0.35605258
208	0x3e06eabb	0.1317548
209	0x3e96b2b7	0.29433224
210	0x3e79124f	0.2432339
211	0x3e52c188	0.20581639
212	0x3e9d56fd	0.3073043
213	0xbf3caaa9	-0.73697907
214	0xbdbc2eda	-0.09188624
215	0x3df3b4d0	0.118997216
216	0x3ea9e95f	0.3318586
217	0x3ea1e788	0.31621957
218	0x3ddc029f	0.107426874
219	0xbeb69efd	-0.35668173
220	0x3ee6e2f0	0.45095015
221	0xbe91eb92	-0.28500038
222	0xbe8ace92	-0.27110726
223	0x3e8589eb	0.26081786
